autoencoders/best_models/best_model_bone10.pth (torch, 8015 bytes, 16 tensors)

encoder.0.weight f4 [16, 3]
000000 2d c3 f7 3e 0a 96 e8 bd 2b 97 95 be f4 e8 59 3e
       0.48391095 -0.11356743 -0.29216895 0.21280271
000010 7e c9 0a 3e d4 e4 62 3e 61 fd c6 be f8 b8 ed 3e
       0.13553426 0.22157604 -0.38865188 0.46430182
000020 7e 96 35 bc 5c c2 8a 3f 58 a1 8b 3e bd 0c a5 be
       -0.011083243 1.0840564 0.27271533 -0.3223628
000030 ca 99 37 3d fc 0c a9 be 67 91 23 3e 31 58 28 3e
       0.0448244 -0.3301772 0.15973435 0.16439892
000040 c1 ab 6b be 45 e8 20 3d a8 ad d2 3e a7 d9 2d be
       -0.23014738 0.03928401 0.41148114 -0.16977559
000050 3f dd 88 bf 42 3c 5b bc 4a 0a ce be e0 48 71 bf
       -1.0692519 -0.013381066 -0.40242225 -0.94251823
000060 08 cc 67 3f 48 4d 0c 3e 63 fb 0a 3e 71 e1 85 bf
       0.905457 0.13701355 0.13572459 -1.0459424
000070 5d 80 37 3f 8a 01 4b bf b9 46 1d bd 18 01 a3 bd
       0.7168024 -0.79299223 -0.038397525 -0.07959193
000080 e6 87 25 bc 0e 72 df be 50 61 80 3f e6 5b af bc
       -0.0101032015 -0.43641704 1.0029697 -0.021406125
000090 52 8f 12 bf 13 69 a9 bd c8 ac 98 3d 58 b5 96 3c
       -0.5724994 -0.082719944 0.074548304 0.018397018
0000a0 87 2d 5f 3e a6 8f 05 be 83 e7 29 3f f0 eb d0 3e
       0.21794711 -0.13043079 0.66368884 0.40805006
0000b0 19 90 82 be 7a ba dc 3e 7d fe 96 bd 97 1e 96 be
       -0.25500563 0.4311102 -0.073727585 -0.29320213

encoder.0.bias f4 [16]
000000 b1 0f 34 3d bf 0e ae 3c e5 dc 1a 3c a5 93 a5 bd
       0.043960277 0.021247266 0.009452079 -0.080848016
000010 51 dc 50 bc dd e0 e8 bc 75 22 21 be a0 d9 05 3e
       -0.01274784 -0.028427536 -0.157358 0.13071299
000020 4a b9 00 be e2 2a 12 3d ef 9d 26 3d 35 dd 8d bd
       -0.12570682 0.035685427 0.04067796 -0.069269575
000030 01 af 54 3e d4 c4 fb 3c b0 3e 81 3d 50 07 1a 3d
       0.20769884 0.030733503 0.06310785 0.03760463

encoder.2.weight f4 [8, 16]
000000 49 c0 87 be 09 f2 bf be ad 13 b9 3e 8c 97 b3 3d
       -0.2651389 -0.37489346 0.36147824 0.0876914
000010 c0 d9 3e 3e 36 34 4c 3e bd 7d d9 bc 7b be 36 be
       0.18637753 0.19941792 -0.026549214 -0.178461
000020 a2 79 00 3f fe 19 52 3e 65 50 08 be 45 8c 34 3e
       0.50185597 0.20517728 -0.13311918 0.17631634
000030 5c 46 77 bd 38 8b e6 be fa 8a fb 3d 9f a0 a1 3e
       -0.060369834 -0.4502809 0.12282367 0.31567857
000040 d2 1a b6 be 71 00 11 bf d2 f3 a7 3e a5 4d aa be
       -0.35567337 -0.566413 0.32803208 -0.33262363
000050 e5 fc 4e bf da 2d 0b be 2a 20 81 bd aa d9 61 bd
       -0.80854636 -0.1359171 -0.06304963 -0.05513922
000060 58 52 67 bf bf 70 23 3e 55 f7 71 be 46 e2 4c 3e
       -0.9036002 0.15960978 -0.23629506 0.20008191
000070 48 42 35 be 8a eb 5e 3e f8 33 cc bd 63 f8 5b 3e
       -0.17701066 0.21769539 -0.0997085 0.21481471
000080 fc 81 00 3c dc 01 1e 3e 6f 88 e3 3e d5 c6 3e 3e
       0.007843491 0.15430397 0.44440028 0.18630536
000090 f9 8d 7c bd eb 22 ca bb fe 68 5e bd 26 75 4c be
       -0.061658833 -0.0061687133 -0.054299347 -0.19966564
0000a0 20 6b 22 be dc 9a 2d 3e ad b9 fc 3c f0 87 43 3f
       -0.15861177 0.16953605 0.030850256 0.763793
0000b0 f5 cf 68 bd 5e d9 48 be e9 1c df bc 91 6d 86 3d
       -0.05683895 -0.19614169 -0.027235465 0.06563867
0000c0 8b fb ff be cc e6 86 be 71 89 32 be b2 74 ee bc
       -0.499966 -0.2634796 -0.17435242 -0.029108379
0000d0 6f cf 43 be e5 44 bf be 63 52 5b 3e 41 dc f6 3b
       -0.19122098 -0.3735725 0.21418147 0.0075335805
0000e0 02 f7 d6 be 15 3f 29 bd eb 3c 81 3d 8b e0 ee 3d
       -0.41985327 -0.041319925 0.06310447 0.11663922
0000f0 8f 98 a8 3e b4 13 b0 be f6 00 81 bd 06 da 79 be
       0.32928893 -0.34390032 -0.062990114 -0.24399576
000100 78 8f 12 be e1 d3 40 3c dc bd 49 3e c7 34 32 3e
       -0.14312541 0.011769266 0.19701332 0.17402945
000110 78 09 c3 3e 99 49 96 3e 68 ff f0 3e d6 e3 9c be
       0.38093162 0.29353026 0.4706986 -0.30642575
000120 ee fd 42 be 7b 9c 88 be 2f 81 e1 3c 5f 9f 0e 3f
       -0.19042179 -0.26681885 0.02752742 0.5571193
000130 19 55 12 3e f2 11 ea 3d e5 e2 ef 3d a9 da 50 bd
       0.14290275 0.11429204 0.117131986 -0.05098978
000140 3b fe 08 3e 3a 94 8c 3d e8 81 60 be ed 18 b2 3e
       0.13378231 0.068642095 -0.21924555 0.34784642
000150 42 5d 8f be 07 26 ab 3c b1 4c cb bc c3 62 33 3e
       -0.28000838 0.020892156 -0.024816843 0.17518143
000160 d6 c1 30 be be a4 af 3e c7 2b 96 bd ed a5 99 bd
       -0.17261443 0.34305376 -0.073325686 -0.07502351
000170 19 4c 61 bd 37 99 f7 3e 55 53 c6 3e d0 0b 30 3c
       -0.055004213 0.4835908 0.38735452 0.010745004
000180 f6 21 84 3d c9 46 bf be 78 45 6e be 8e 03 ae 3e
       0.0645179 -0.37358692 -0.23268688 0.33987087
000190 0b 34 f3 bd 10 57 e3 3d e4 5e 1f bc f3 42 b3 3e
       -0.11875161 0.1110059 -0.0097272135 0.35012016
0001a0 99 39 c1 3e 64 9d bf 3d 7d 50 9c be 1f 7d 17 3e
       0.37739256 0.09356192 -0.30530158 0.14793824
0001b0 cb 5d 54 be e5 6d 1b 3e 23 8f 61 3d 8d 4b 8d 3e
       -0.20738904 0.1517864 0.055068146 0.27596703
0001c0 a3 d2 f5 bd 03 d7 7e 3d 52 da 69 3e 9c f5 da 3d
       -0.120030664 0.06221677 0.22837189 0.106913775
0001d0 81 9f 01 bd 05 b3 d6 bd ef 91 83 3e 99 87 81 3e
       -0.031646255 -0.10483364 0.25697276 0.25298765
0001e0 ef 5b 50 be 27 42 8c 3e 65 48 e7 bd 09 d1 eb be
       -0.2034757 0.2739422 -0.11293105 -0.4605792
0001f0 48 82 4b 3e 89 59 4a be e8 e6 8e 3e 1c 68 d4 3e
       0.19873917 -0.19760717 0.27910542 0.4148568

encoder.2.bias f4 [8]
000000 d7 3a 84 bd dc 27 d6 3e c9 af 1d 3c 59 85 ff 3d
       -0.06456535 0.41827285 0.00962443 0.12476606
000010 37 be e6 bb 2a 45 45 3d a6 96 3c bd 38 1d ca 3d
       -0.0070417183 0.048161663 -0.046042107 0.09868854

encoder.4.weight f4 [4, 8]
000000 7b a0 79 be 52 db 32 bd 54 31 af 3e 8e 1a 67 3d
       -0.24377625 -0.04366619 0.34217322 0.05642181
000010 e1 82 97 be de df 4e 3f f4 4a 09 3e 7d 0e d5 3e
       -0.2959204 0.80810344 0.13407499 0.41612616
000020 4f 0f 2b 3d 44 69 dd bd 55 4e e2 3d a8 24 14 bf
       0.041762646 -0.108110934 0.11050097 -0.57868433
000030 23 75 0d 3e 29 f4 38 be 2f 0a e2 be 33 e6 21 3d
       0.13814215 -0.1806189 -0.44148394 0.039526176
000040 2b e7 62 3f b1 9b a3 3d 78 6f 3e 3f f4 66 12 be
       0.88633984 0.0798868 0.7438884 -0.14297086
000050 51 a6 ad 3d a5 32 83 be de 6c 86 bd 07 aa 43 3f
       0.08478988 -0.25624576 -0.065637335 0.76431316
000060 5c 93 35 3d cc 75 b7 3e 10 1a 73 3e d2 66 39 be
       0.044329986 0.3583206 0.23740411 -0.18105629
000070 0b 20 8d be 11 6d ea be 7c f9 d3 be ce 4e 45 3f
       -0.2756351 -0.45786336 -0.4140128 0.7707337

encoder.4.bias f4 [4]
000000 f3 c7 e7 3d c0 0f f5 bd 74 e4 d9 bd f6 f1 b8 3d
       0.11317434 -0.11965895 -0.10639277 0.090305254

encoder.6.weight f4 [2, 4]
000000 c6 79 06 3f 50 8c 60 be 03 d1 8c be 80 6f 12 3f
       0.5252956 -0.21928525 -0.27503213 0.57201385
000010 ee cb 13 bf d8 3a c6 3e e9 5d d7 bd 43 71 e5 bd
       -0.57733047 0.3871677 -0.10515959 -0.112032436

encoder.6.bias f4 [2]
000000 67 71 bd 3d 22 ff db b9
       0.092501454 -0.00041961024

decoder.0.weight f4 [4, 2]
000000 3e 08 d9 be d3 96 04 3e 4d 46 35 3f 07 29 57 be
       -0.423891 0.1294816 0.70810395 -0.21011744
000010 a0 87 b3 3e 0a 10 d7 3e 80 28 88 3e de 51 b3 bf
       0.3506441 0.42004424 0.265934 -1.4009359

decoder.0.bias f4 [4]
000000 a2 41 3b bf 62 3b 02 3e 1e fa 37 bf c6 63 ee bd
       -0.7314702 0.12717965 -0.71866024 -0.11640124

decoder.2.weight f4 [8, 4]
000000 cb ad e2 bd a0 4e 22 be bc 36 3a be 5b d6 b2 be
       -0.11068305 -0.15850306 -0.18184942 -0.34929165
000010 fb 17 54 bf 16 55 18 3f 73 ef 3c 3e 39 55 3f be
       -0.8284909 0.5950483 0.18450718 -0.18684854
000020 b5 f1 32 be 3c 64 9c 3e d5 83 b4 be 2d fc d3 3e
       -0.17475016 0.30545223 -0.3525683 0.41403332
000030 61 3c 59 bd 55 a9 26 3e 23 6f 87 3e 30 47 81 3f
       -0.053036097 0.16275533 0.26451978 1.009985
000040 ec 92 ba 3e 72 f4 ff 3d 05 fb fd 3e ca f3 62 be
       0.36440217 0.12497796 0.49605575 -0.2216331
000050 f8 de bb 3e 89 62 bd 3d 59 de 00 3f 9c ab 6f be
       0.3669355 0.0924731 0.50339276 -0.23405308
000060 37 cc a6 be 2a 08 05 3f d9 9c 1e 3f e7 ba 7d bd
       -0.3257768 0.5196558 0.6195808 -0.061945822
000070 c1 98 a8 bf 8e 13 32 3f 91 ca b4 3d 67 41 5f be
       -1.3171617 0.6956109 0.08827699 -0.21802293

decoder.2.bias f4 [8]
000000 8c 7e 6f 3e 48 08 1d bd 94 53 41 3d 3a d9 c0 be
       0.23388118 -0.038337976 0.047198847 -0.3766573
000010 cc ce 0d bf 9a 9e 0e bf ff e5 27 be 20 c7 50 3e
       -0.5539367 -0.55710757 -0.1639633 0.2038846

decoder.4.weight f4 [16, 8]
000000 6a b1 32 3e d7 22 42 be 51 ca da bc 55 44 a5 be
       0.1745049 -0.18958603 -0.0267078 -0.32278696
000010 0e 8b c4 be 60 e5 c3 be 7e 2f a1 be 1b 0c 16 be
       -0.3838734 -0.38260937 -0.31481546 -0.14653055
000020 32 09 de be 91 5a 02 3d 63 52 1b 3f e4 b3 9a bd
       -0.4336639 0.031824652 0.6067259 -0.07553843
000030 b3 fd f2 be 5b aa 43 be d2 83 3f bf 3e 08 4e bf
       -0.47459182 -0.19107954 -0.74810517 -0.80481327
000040 a6 05 23 be 35 1e 87 bd 6e d4 18 be 5b fb 27 be
       -0.15920123 -0.065975584 -0.14924785 -0.16404478
000050 c2 0a 0b 3e 79 8e 0a 3e b4 f3 38 3c f2 fc 0d be
       0.13578323 0.13530912 0.011288572 -0.13866022
000060 e2 1b 67 3c 74 88 1c 3e dc 40 31 3e 84 51 45 be
       0.014105769 0.15286428 0.17309898 -0.19269377
000070 f3 d9 2f bf 2e bd 37 bf 3a d0 92 3e 44 d4 00 3f
       -0.6869194 -0.7177304 0.2867449 0.5032389
000080 c2 12 9a bf 95 03 52 bf 7c 5d c1 3e f2 a1 fc 3d
       -1.2036974 -0.82036716 0.37766635 0.12335576
000090 3a 9b 93 bf 61 ac b0 be ef 44 85 bf 4f f2 9f bf
       -1.1531746 -0.34506515 -1.0411662 -1.2495822
0000a0 ea be c5 be a8 3e 1c bd 3a 29 65 be 73 fd 53 3e
       -0.38622218 -0.03814569 -0.22379008 0.20702152
0000b0 ca 33 a3 3d 4d 90 e6 bd dd b2 a1 be bd 68 4a be
       0.07968862 -0.11257992 -0.31581774 -0.19766517
0000c0 86 32 1e bf b9 d8 04 bf f0 8c 42 3e 75 9f 96 3d
       -0.6179584 -0.5189319 0.18999076 0.07354633
0000d0 fe de a7 be 13 73 91 be 76 0b 02 bf df de 19 bf
       -0.32787317 -0.28408107 -0.5079874 -0.601057
0000e0 ac 55 88 be ad 4c 8d be 04 50 ae be f7 97 b8 3e
       -0.26627862 -0.2759756 -0.34045422 0.3605344
0000f0 5e f9 56 be 0e 8a c3 be 9b 2d 25 bf f0 15 06 bf
       -0.20993564 -0.38191265 -0.64522713 -0.52377224
000100 a9 c1 3a 3e b8 2a de 3d e7 3f b3 3f e6 8d d6 3e
       0.18237938 0.10847992 1.4003876 0.41905135
000110 94 55 2b 3e fb c6 cb 3e 31 cd 84 3d c0 2d 19 bf
       0.16731864 0.39800248 0.0648445 -0.59835434
000120 f9 aa 90 3f 74 5d 5d 3c df 09 e2 3e 03 7c 58 3d
       1.1302177 0.0135110505 0.44148156 0.05285264
000130 7b f0 4c 3d 69 c9 63 3f fc 2d b1 3d cc a3 1b bf
       0.050034028 0.889792 0.08651349 -0.6079681
000140 51 d1 0f be e8 37 58 be b2 1c 2b 3d 4f 7e f8 3d
       -0.14044692 -0.21115077 0.041775413 0.121334665
000150 91 68 c0 bc 24 bf ea 3d 3a 1a 66 be 4d f8 ef be
       -0.023487361 0.114622384 -0.22470942 -0.46869126
000160 e3 6c f7 bd 59 38 91 bd a6 64 de bd 4a 81 42 be
       -0.12081315 -0.070908256 -0.10859041 -0.18994632
000170 a7 6f fd 3c 46 48 ff 3c 30 c4 6a bd c8 95 d7 bd
       0.030937029 0.031162392 -0.057316005 -0.105266154
000180 f8 55 b8 3e aa 2e dd 3c 5b 6e 9e 3d 46 aa 9a be
       0.3600309 0.02699979 0.077358924 -0.30208033
000190 5a d2 04 bf b7 b6 04 bf 8a 89 db bd 88 0a 33 3e
       -0.5188347 -0.518413 -0.10719593 0.17484486
0001a0 27 6b a7 3d 99 31 38 3e d2 3b 83 3e ce 1f 0f 3f
       0.081747346 0.1798767 0.25631577 0.55907905
0001b0 bd 47 ca 3d 20 1e 5d 3e 6d e3 b9 3e 8b d0 da 3e
       0.09876964 0.21593523 0.36306325 0.4273723
0001c0 66 77 a8 bc 02 98 2e bf b9 bd 14 be df 9a 49 be
       -0.020564746 -0.68200696 -0.14525498 -0.19687985
0001d0 dd 57 37 bf d5 3d 37 bf a1 74 85 bf d9 d1 69 bf
       -0.71618444 -0.71578723 -1.0426217 -0.9133583
0001e0 75 38 cf be 21 ab c4 3e 20 b0 d4 bd 62 05 65 3e
       -0.4047276 0.3841181 -0.10385156 0.22365335
0001f0 29 4c 1a 3c b7 1c ea bc ce cd a8 bd 90 34 14 be
       0.009417572 -0.028578145 -0.08242379 -0.14473176

decoder.4.bias f4 [16]
000000 74 58 9e 3e a0 76 b0 3e 16 36 f6 bd c3 3f 09 3f
       0.3092686 0.34465504 -0.12022035 0.5361292
000010 ec 34 37 3f f7 2c d1 bd 79 f0 9c 3e 54 0e a5 3e
       0.7156513 -0.102136545 0.30652216 0.32237494
000020 27 46 95 be c8 65 eb be 6c e4 47 3c ac 0b 1a bd
       -0.29155084 -0.4597609 0.012200456 -0.037608787
000030 02 11 e2 3e 8d 00 e1 bd 3a e6 06 3f f8 f4 2a bd
       0.441536 -0.10986433 0.5269505 -0.041737527

decoder.6.weight f4 [3, 16]
000000 f3 4f 97 be 50 79 03 bf 93 9b 10 3f c0 09 0e bf
       -0.29553184 -0.51356983 0.5648739 -0.5548363
000010 d8 86 68 3e 1d 8e 0f bd 26 97 09 be 0b 80 81 be
       0.22707689 -0.03504764 -0.13436565 -0.25293002
000020 6b 01 43 3c e6 85 b1 3e 41 3c 99 3d c3 5f c0 3e
       0.011902194 0.3467247 0.07482196 0.3757306
000030 a8 da d3 be 19 37 02 be c6 51 2f 3d 83 cd 54 3e
       -0.4137776 -0.1271633 0.042802595 0.20781521
000040 02 e5 a7 be 3e fc 18 3f cc 5c c9 bd cd a1 37 be
       -0.32791907 0.5975989 -0.09832153 -0.17932816
000050 44 d7 11 3f ed e5 6b 3e c9 20 12 3f 71 89 21 3f
       0.56969094 0.23036928 0.57081276 0.63100344
000060 13 7d cb 3d 42 1d d0 be 34 d3 af 3e 31 30 85 be
       0.099359654 -0.40647322 0.34340823 -0.2601333
000070 e7 b3 6c be 75 ae 28 be 93 ee 84 3e 7c 6b 5f 3e
       -0.23115502 -0.164728 0.25963268 0.21818346
000080 ad 3d 1d 3e c9 66 19 3d 59 e8 96 3c fc c0 e2 3e
       0.15355559 0.03745154 0.018421339 0.4428786
000090 fa 7e 20 3f 20 ab 5c be 4d 0c 96 3d 94 eb d0 bc
       0.6269375 -0.21549654 0.07326565 -0.025502957
0000a0 4d d1 ae be 13 03 69 be ae a4 55 be 7b 4f b1 b9
       -0.3414406 -0.22755079 -0.20863602 -0.00033819288
0000b0 00 d9 f8 3e 1f 6a 99 be ac f0 78 3f 78 95 9c bb
       0.48603058 -0.29963776 0.97242236 -0.0047785603

decoder.6.bias f4 [3]
000000 71 eb 0b bf b5 b9 5f 3e ad a0 82 3e
       -0.5465613 0.21848185 0.2551321
