autoencoders/best_models/best_model_bone9.pth (torch, 7993 bytes, 15 tensors)

encoder.0.weight f4 [16, 3]
000000 33 c1 aa be b0 91 05 3c f5 3e 35 3e 2c ec 01 3e
       -0.33350524 0.00815241 0.17699797 0.12687749
000010 48 d3 1e bc df 88 80 3b 9f b4 54 3e 49 d6 fb 3a
       -0.009693928 0.0039225663 0.20772026 0.0019213642
000020 6a e9 99 3d 27 d5 a7 be 0d e1 04 bf 8d 21 a5 be
       0.07515223 -0.3277981 -0.519059 -0.3225216
000030 3e fe b2 3f 6a ad f2 be 72 d8 3c bf f6 6e b8 be
       1.3983839 -0.4739793 -0.7376777 -0.36022156
000040 2e 67 bd 3c 5a ca 16 be ac 5b f0 3e 25 e4 6a 3d
       0.023120489 -0.14725628 0.4694494 0.05734648
000050 b4 93 d2 be 15 b5 35 be d4 2f 3b 3d 98 80 65 3e
       -0.41128314 -0.17744859 0.04569991 0.22412336
000060 d7 9e e9 3e 52 7a 36 bd 1c 93 d3 3e 34 46 78 be
       0.45628998 -0.044550247 0.41323173 -0.2424553
000070 09 14 47 bd 7e 3d b2 3e ee 01 ca 3e ad a6 bd 3b
       -0.04860309 0.3481254 0.39454597 0.0057876916
000080 e6 bf 0d 3e 34 32 a6 be c3 2a 8d 3d 8a 7c 1e 3d
       0.13842735 -0.32460177 0.06892922 0.03869299
000090 de 89 10 bf f9 78 24 bc 5d eb 20 3f d8 8d 30 bd
       -0.5646037 -0.010038608 0.62859136 -0.043104023
0000a0 1e 77 19 be e5 fa 0b bf 50 df 08 bf e1 79 49 be
       -0.14986846 -0.5467971 -0.5346575 -0.196754
0000b0 f2 5d d3 be 16 5f d2 3d 77 d3 0d 3d b2 9a c9 3e
       -0.41282612 0.102720425 0.034625497 0.39375836

encoder.0.bias f4 [16]
000000 ba 56 ad bc 35 c8 26 bd 2b 6e 30 bd 37 85 d6 bc
       -0.021159519 -0.040718276 -0.043073814 -0.026186569
000010 13 f2 f7 bd 72 c8 4e bc d3 94 72 bd bc 61 90 bd
       -0.12106719 -0.012621032 -0.05922396 -0.07049891
000020 b5 5b 4e bd a6 7b 9f 3d 53 62 6e bd 5a 93 84 3d
       -0.050380427 0.07787256 -0.058199238 0.064734176
000030 9f 2f 19 3e 96 b9 a0 3d 5f 7e 18 3e 3e 22 67 bd
       0.14959572 0.07847898 0.14891957 -0.05642914

encoder.2.weight f4 [8, 16]
000000 e4 0c 23 3e c8 0b 0e 3e 1a 04 16 be cd fa 0c 3f
       0.15922886 0.13871682 -0.14650002 0.5507019
000010 86 10 6f 3e 37 a8 f6 bd ed ff 8c be 0e 7a e1 bd
       0.23346147 -0.12043803 -0.27539006 -0.11009608
000020 4c 2f 34 3d 57 b4 51 bd 7e 26 18 be 8b 7c 25 be
       0.04399042 -0.051197376 -0.14858434 -0.1616079
000030 a2 e7 16 be 0e d8 b1 be 83 a0 c0 bd dd 40 13 bd
       -0.14736798 -0.3473515 -0.09405615 -0.03595053
000040 b3 e4 ee bd 47 e6 cc 3d 7c ed 77 3e c6 82 4a 3d
       -0.11664715 0.100048594 0.24211687 0.04944112
000050 d5 c7 95 3d a1 d1 a8 be 01 20 f6 bd 7a d5 12 3c
       0.073135056 -0.32972434 -0.12017823 0.00896203
000060 af 88 b4 3e cd cf c3 3b a7 cf b1 3e 25 2a 85 3d
       0.3526053 0.0059756995 0.3472874 0.06502179
000070 e6 bd b1 bd ca ea 54 3e 90 47 5a be 99 00 23 3e
       -0.086787984 0.2079269 -0.21316361 0.15918197
000080 7a 06 ab 3e 9f 16 13 be 97 b2 2c 3b 03 4c e3 be
       0.3340338 -0.14364098 0.0026351565 -0.4439393
000090 e8 a9 77 be 31 f2 0c be 30 e4 80 3c 6b 43 52 3d
       -0.24185908 -0.13764264 0.015733808 0.051333826
0000a0 ae 86 9a 3e c7 12 69 3d a1 54 63 be 71 ea f9 3e
       0.30180877 0.056902673 -0.22200252 0.48811677
0000b0 fb e8 62 3e 7e cc 26 bd 67 fc 16 3e 48 10 41 be
       0.22159187 -0.040722363 0.14744721 -0.18853867
0000c0 43 fb 63 bd 78 74 5a be 31 dd 98 3e e2 a0 f1 bd
       -0.055659544 -0.21333492 0.29856256 -0.11798264
0000d0 12 93 71 be 4a f1 02 3e 96 86 24 3e 5d a2 62 be
       -0.23591259 0.12787357 0.16066965 -0.22132249
0000e0 32 7b 2f 3d 32 3a 65 3e e8 e0 8e be 78 c4 f8 bd
       0.042842098 0.22385481 -0.27905965 -0.121468484
0000f0 d0 2d c7 3e 0b 52 72 bd c2 4e 3d 3e a6 7a 8a bd
       0.3890214 -0.059160274 0.18487075 -0.067616746
000100 c4 d5 b8 be 44 b0 ad 3c 8d 68 7d bd 78 80 30 be
       -0.3610059 0.021202214 -0.061867286 -0.17236507
000110 10 f0 68 3e 7a 2b 15 be 38 f2 96 3e ca fc 0e be
       0.22747827 -0.14567366 0.29481673 -0.13963619
000120 a0 03 17 be c2 c9 91 bd 01 bc 1c be 64 28 5b be
       -0.14747477 -0.071185604 -0.15306093 -0.21402127
000130 a5 9a b4 bd c5 40 60 be 77 82 ce bd 59 33 06 be
       -0.088185586 -0.21899708 -0.10083478 -0.13105525
000140 2f bf 38 3e cd 4e 85 be e3 e4 e5 bd 47 66 a8 3e
       0.18041681 -0.26036683 -0.11225297 0.3289053
000150 96 24 02 3f 99 d2 c3 3d bd b6 58 3e ef 73 27 3d
       0.50837076 0.09561653 0.21163459 0.040882047
000160 8f bd 7d be a1 20 24 bf 6f 22 4e bd d4 ba 8e 3d
       -0.24779342 -0.6411229 -0.050325807 0.069692284
000170 2e 6d 91 3e 79 33 9d 3d 61 0c 89 3e 95 e9 2e 3c
       0.2840361 0.07675833 0.26767257 0.0106758075
000180 e4 74 e3 3d 3b ac 37 3e fe 03 74 3e 02 fe 72 be
       0.111062795 0.17936794 0.23829648 -0.23729709
000190 5e 1d 10 bf 70 90 08 3e fc 20 93 bd f2 2a 21 bd
       -0.5629481 0.13336349 -0.07184026 -0.039347596
0001a0 70 71 b9 be 95 ff 14 be 69 c8 da bd 07 e4 10 3e
       -0.36219358 -0.14550622 -0.106827565 0.14149486
0001b0 02 c6 f6 bd f4 59 1d 3d e2 50 d7 bd a1 97 37 3e
       -0.12049486 0.038415864 -0.10513474 0.17928936
0001c0 ed 3b 9d be bb 92 d2 bd c5 41 e9 be e2 fd 20 3d
       -0.30709782 -0.10281893 -0.4555799 0.03930462
0001d0 0f 95 69 be db ea 15 3e d5 4c 95 be 57 1d 19 bf
       -0.22810768 0.14640372 -0.2916018 -0.59810394
0001e0 92 fe c7 be a5 c5 39 be de fa b6 be 23 c4 80 3e
       -0.3906141 -0.18141802 -0.3573827 0.2514964
0001f0 be c6 30 bd ea d1 31 bd 1e c6 93 3e 96 4c c0 be
       -0.043158285 -0.04341308 0.2886209 -0.3755843

encoder.2.bias f4 [8]
000000 d1 a9 a9 3c 6e 6a 64 bd 7d 31 97 3d 5c 5f 0d 3c
       0.020710858 -0.05576556 0.07382486 0.0086286925
000010 fe 07 b3 3d 6c de 0c 3e a8 2e db bc 5d 05 75 3e
       0.08741759 0.13756722 -0.026755646 0.23927827

encoder.4.weight f4 [4, 8]
000000 94 2f 6a be 35 79 0e 3f 9a bd 95 3e 1c 41 6c 3e
       -0.22869712 0.556537 0.29246217 0.23071712
000010 35 3d c2 3e 2b f8 ae 3c c2 ef 83 be 58 1a e1 3e
       0.37937322 0.02135857 -0.25768858 0.4396541
000020 c5 5b 9f 3d 06 28 f6 bd 44 fd 05 be 2f e0 78 be
       0.077811755 -0.120193526 -0.13084894 -0.24304269
000030 df 7e 96 be 9b 3a f1 3e 2e b4 9f bd e9 57 1e 3e
       -0.2939367 0.47115025 -0.077980384 0.15463223
000040 4b ae 99 be 3d bf 67 be 29 a2 da be 25 6e 9e 3d
       -0.30015787 -0.22631545 -0.42701843 0.07735852
000050 5a 1d 27 be d6 5f c2 3e 0e a7 ae 3c aa 9c 09 bf
       -0.1631979 0.37963742 0.021319892 -0.53754675
000060 7a 53 e0 be c3 e8 3a be 32 38 90 3d 5e 52 c6 bc
       -0.43813688 -0.18252854 0.070419684 -0.024209198
000070 50 0a 9a 3d 47 96 8c 3d 40 30 e6 3d 74 3e 13 3f
       0.07521498 0.06864601 0.11239672 0.5751717

encoder.4.bias f4 [4]
000000 94 6d 81 bd c3 3d fa 3d 74 db b9 3d 9e 51 10 3e
       -0.063197285 0.12218811 0.090750605 0.14093634

encoder.6.weight f4 [1, 4]
000000 ef cf 19 3f 0d d9 32 be c1 4b 00 bf 1c a8 bb be
       0.60082906 -0.17465611 -0.5011559 -0.36651695

decoder.0.weight f4 [4, 1]
000000 85 a1 ce be 33 64 04 c0 c7 e1 6d 3f 10 af d5 3d
       -0.40357605 -2.0686157 0.92922634 0.10433781

decoder.0.bias f4 [4]
000000 47 56 66 be 2c fc 54 bd d3 40 a4 be b0 a7 23 bf
       -0.2249385 -0.051998302 -0.32080707 -0.63927746

decoder.2.weight f4 [8, 4]
000000 38 ff 12 be 74 c3 84 3e f2 74 c5 be 36 c8 87 be
       -0.1435517 0.2593037 -0.38565785 -0.26519936
000010 9a 6c c2 3e 9c 27 26 3f c1 22 31 bc bf 77 4a 3e
       0.3797348 0.6490419 -0.010811509 0.19772242
000020 59 7d 4a 3f 46 7b ed 3e 88 17 db bd 0a e2 7d 3d
       0.79097515 0.46383113 -0.106978476 0.061983146
000030 e4 10 9f be f0 0d 68 be 09 1b 2a 3f b6 86 25 3d
       -0.31067574 -0.22661567 0.664475 0.040411673
000040 07 1e 8a bd c0 bb b0 bd b6 87 d3 3d f9 9e 9c be
       -0.067440085 -0.086295605 0.10328619 -0.30590037
000050 01 bb 3e 3f 97 87 ba bd 65 72 31 3e 33 29 25 3f
       0.74504095 -0.09107893 0.17328794 0.6451599
000060 17 61 89 ba 91 aa 11 be 4b 30 dc be 4f 90 f8 3e
       -0.0010481206 -0.14225222 -0.43005595 0.485476
000070 08 ed b5 be c5 00 be bc e8 42 12 bf 69 01 c2 bd
       -0.35532403 -0.023193726 -0.5713334 -0.09472925

decoder.2.bias f4 [8]
000000 bd 3f 5e 3e 03 dc 26 3d 11 48 00 3e 4e 4e cc 3c
       0.21704002 0.040737163 0.12527491 0.024939682
000010 97 2e 9b 3e 8c 79 11 bf 00 76 ab be ec 35 e2 3d
       0.30308983 -0.5682609 -0.33488464 0.11045441

decoder.4.weight f4 [16, 8]
000000 de 78 4b 3d 7c 55 38 3e 7a 62 e9 3d 1b 64 a9 3d
       0.049675815 0.1800136 0.11395736 0.08271047
000010 13 2c 8d bc bd 01 f3 bd 79 69 33 bd 52 4d 95 bd
       -0.01723293 -0.11865566 -0.04380176 -0.07290138
000020 0a 90 3a 3e e8 0e da 3e d5 7d 04 3f 5c d0 4a be
       0.18219009 0.42589498 0.51754504 -0.19806045
000030 07 0d 83 3e 58 a4 33 3d e3 23 9a be 39 be ae 3d
       0.25595877 0.043857902 -0.30105504 0.08532376
000040 5c 43 09 3f 7e 12 c2 3e 3e 80 6b 3f 57 10 7c 3c
       0.5361841 0.37904733 0.9199256 0.015384755
000050 b5 19 8c 3d 0f 9b 88 be 67 49 85 be 49 bd 58 3e
       0.06840841 -0.266808 -0.26032564 0.21165957
000060 78 74 ed 3e f9 e1 81 bd 75 df 99 ba 8b e6 1e be
       0.4637792 -0.06341929 -0.0011739569 -0.15517633
000070 a3 2c 1f be c4 fe 88 be 34 2c 1f be 4e b1 07 be
       -0.15544371 -0.2675687 -0.15544206 -0.1325123
000080 a4 34 d2 3e 9e 73 98 3d 36 b3 9c be 51 5f c0 3e
       0.41055787 0.07443927 -0.30605477 0.3757272
000090 af b6 19 3f 84 07 31 bf 8a 30 83 bf e2 77 5c be
       0.6004438 -0.6915209 -1.0249188 -0.21530107
0000a0 0b 96 8f be 32 08 e5 bd 2b 39 d4 3d 87 4e f4 3e
       -0.2804416 -0.11183204 0.103624664 0.47716162
0000b0 b7 52 13 bc 90 44 8c bd 4a 2c 0d 39 73 a3 1c be
       -0.008991889 -0.06849015 0.00013463307 -0.15296726
0000c0 db f1 e4 3d 8c 61 1d 3f 99 a8 40 3e 67 27 f0 be
       0.11178943 0.6147697 0.18814315 -0.46905062
0000d0 2f ae 69 be a8 5d 8e be f5 72 d9 3d 93 49 b8 3d
       -0.22820352 -0.2780583 0.106176294 0.08998408
0000e0 d6 1e b8 bc 4b da bb bc d7 95 85 bd 7f 95 4e 3e
       -0.022475641 -0.022931239 -0.0652272 0.20174216
0000f0 0a 21 c1 bd 2e cb 31 3e 76 ad 08 3e 22 cf ea bd
       -0.0943013 0.17362663 0.1334742 -0.11465289
000100 66 14 f2 3e 27 ab ff 39 ba 6d bd 3c 12 0f 98 be
       0.47281188 0.0004876491 0.02312361 -0.29698998
000110 1f 6d 5b bd 3f 98 a8 be 16 2b bb bd df 5d 86 3d
       -0.053570863 -0.32928655 -0.09139077 0.06560873
000120 5d 93 c5 be 0e ea b4 bd 6e 4c 7c be 60 f9 90 3e
       -0.38588992 -0.08833705 -0.2463853 0.28315258
000130 bf 70 6c 3e 9a dc 2d bf 69 d5 0e bf a6 eb 52 be
       0.23089884 -0.67914736 -0.5579439 -0.20597705
000140 02 a7 78 3e 4c d7 51 3d 4f f7 20 3e 2e c6 8f be
       0.24282458 0.051230714 0.1571934 -0.28080887
000150 84 8f b9 bd ef 0d 7b 3e 2d fa ad 3d c1 31 c5 bd
       -0.090605766 0.24517034 0.08494983 -0.096286304
000160 f5 cf 70 3e 04 63 34 3f a6 ea fe be e5 28 82 bd
       0.2351683 0.70463586 -0.49788398 -0.06355456
000170 98 1c b6 3e e5 70 e4 3d 86 c3 05 3d 19 8d 3e 3e
       0.3556869 0.111543454 0.03265717 0.18608512
000180 49 36 af be 29 21 a7 3d cc 79 6a 3f bd 0d 37 be
       -0.34221104 0.08160622 0.915921 -0.17876334
000190 35 0c 1d 3e 5b 43 b8 be d1 00 5b be 8d ad de ba
       0.15336688 -0.35988888 -0.2138703 -0.0016988978
0001a0 83 9d b7 bd 4c b0 55 be b6 bb 6c be 9b 5b 80 3e
       -0.0896559 -0.20868033 -0.23118481 0.2506989
0001b0 ec 4a 83 3d 06 61 94 bd 33 e3 6e bd 15 a6 26 bd
       0.064107746 -0.07245068 -0.058322143 -0.040685732
0001c0 86 8b d8 3c fb 15 c0 bd 1a 6c fc bc 38 64 5c bd
       0.026433717 -0.093791924 -0.030813266 -0.053806514
0001d0 08 93 91 3c 94 d1 1d be 9a ae 15 be d8 a2 29 3c
       0.017770305 -0.15411979 -0.14617386 0.010353766
0001e0 5c 9d df bd 5a b9 32 be d2 a4 65 be ae 69 bc 3e
       -0.10918686 -0.17453519 -0.22426155 0.36799377
0001f0 66 96 b4 3d c5 63 31 3d 5f 21 18 be 8a 21 4d be
       0.08817749 0.04330804 -0.1485648 -0.20032325

decoder.4.bias f4 [16]
000000 ee f2 e9 3c a1 f6 e7 bc 51 65 b9 3d ff 49 6a 3d
       0.02855822 -0.028315844 0.09052528 0.057199474
000010 2f 1d 2e 3f 52 89 45 bd 94 b1 b1 3d 88 02 08 be
       0.6801328 -0.048226662 0.086764485 -0.13282216
000020 30 75 92 3e 93 d7 da 3e 97 d8 1d bd 83 cb 94 bc
       0.28605032 0.42742595 -0.038536634 -0.018163448
000030 d2 eb 0b 3e a7 89 ef 3c ad 0e e8 3d 6b f9 a4 3d
       0.13664177 0.029240442 0.11330924 0.08055385

decoder.6.weight f4 [3, 16]
000000 f8 76 8c 3d 6a fc be 3d 63 d1 c2 bd 6e 26 93 be
       0.06858629 0.09325488 -0.095125936 -0.28740257
000010 9e c3 64 bf 62 ae a9 3e 7b 7b 2e 3e 77 c7 b5 3e
       -0.8936099 0.33140856 0.17039292 0.35503742
000020 75 cc 02 bf 10 76 81 be cb 9d 0d 3d ac 6f 08 3e
       -0.51093227 -0.25285387 0.03457431 0.1332385
000030 78 00 c4 be 01 b9 9b 3e 9f 06 a0 bd 5f 6d 5d 3e
       -0.38281608 0.30414584 -0.07813763 0.21623753
000040 79 82 29 be 04 0e 2f 3e 65 6d 89 3e 4d 84 b0 be
       -0.16553678 0.1709519 0.26841274 -0.34475937
000050 9d bb bb bd 2b e3 11 3d 10 ce 15 be 08 ab 1b bd
       -0.09166644 0.035617035 -0.14629388 -0.038004905
000060 11 c6 8a bc 07 af 03 3e 3e 56 b6 bc e4 db 3c 3e
       -0.016940149 0.12859736 -0.02225792 0.18443257
000070 7f 5f 8a be 4d a2 37 3c d7 7d b4 3e 4a 4d cd bc
       -0.27025983 0.011208129 0.35252258 -0.025061268
000080 bb 27 5f 3d 47 f0 a4 be 56 e5 15 bf 6a ae 2c be
       0.05448125 -0.32214567 -0.58553064 -0.16863409
000090 d4 82 18 3f 4b b2 1b 3f d7 64 2c bf e3 15 a9 3e
       0.5957463 0.6081893 -0.6734137 0.3302451
0000a0 3e b2 24 be 31 a3 26 3f d4 3a ed be 8f 38 a7 be
       -0.16083619 0.6509276 -0.46333945 -0.32660338
0000b0 ab 51 aa be 95 ae 42 3e 36 85 9e 3d b0 c1 d6 3e
       -0.33265433 0.1901191 0.07740252 0.41944647

decoder.6.bias f4 [3]
000000 6e 95 bd be e2 e4 b7 3d 4b e0 5e 3d
       -0.37028068 0.08979203 0.05441312
