autoencoders/best_models/best_model_bone0.pth (torch, 7993 bytes, 15 tensors)

encoder.0.weight f4 [16, 3]
0	0xbb6d521b	-0.0036212269
1	0xbf953f81	-1.1660005
2	0xbede5432	-0.4342361
3	0x3da8127a	0.08206649
4	0xbadaf222	-0.0016704241
5	0x3f2dea92	0.6793605
6	0xbda979e4	-0.08275202
7	0xbf868bcf	-1.0511416
8	0xbefcb879	-0.4935949
9	0x3f0911ac	0.5354259
10	0x3e21f03d	0.158143
11	0xbe4e429b	-0.20142595
12	0x3f1a7274	0.6033089
13	0xbda7da20	-0.08195901
14	0xbccc6d9b	-0.024954608
15	0x3d82a14c	0.06378421
16	0xbe0705b5	-0.13185771
17	0xbf70619d	-0.93898946
18	0x3f2f5a22	0.68496907
19	0x3e8d811d	0.27637568
20	0x3d4bf4ec	0.049794123
21	0x3f425383	0.7590868
22	0x3e76c243	0.24097542
23	0xbea7a152	-0.32740265
24	0xbf2279c1	-0.6346703
25	0xbf0af249	-0.5427595
26	0x3eab76b8	0.33489013
27	0x3ea1af38	0.31578994
28	0xbeb2605e	-0.34839147
29	0x3ebdf06e	0.37097496
30	0x3e04f39b	0.12983553
31	0x3db35f16	0.087583706
32	0xbd3d0953	-0.04615147
33	0x3d0e5368	0.03474751
34	0xbcbda879	-0.023151623
35	0x3e50568a	0.20345512
36	0xbef90645	-0.48637596
37	0x3ce9e451	0.028551253
38	0xbf9f7b9d	-1.2459599
39	0xbe911c6b	-0.28341994
40	0x3d0e570b	0.03475098
41	0x3ec2a861	0.38019088
42	0xbe127b08	-0.14304745
43	0xbd87f112	-0.066377774
44	0xbd7f99bb	-0.06240247
45	0x3e685888	0.22690022
46	0x3e95c75e	0.29253668
47	0xbf9e6c76	-1.237685

encoder.0.bias f4 [16]
0	0x3dc6e0bd	0.09710834
1	0xbdefa990	-0.11702263
2	0x3dfad55f	0.122477286
3	0x3e033909	0.12814726
4	0xbd6688a5	-0.056282658
5	0xbd9fe10b	-0.078065954
6	0x3e0582b8	0.13038146
7	0x3e1342b0	0.14380908
8	0xbe1c7a80	-0.15281105
9	0x3dbb077a	0.091322854
10	0x3a89a269	0.0010500673
11	0xbd480b37	-0.04883882
12	0x3d4c3bcc	0.049861714
13	0xbc00ffb0	-0.007873461
14	0x3b96798e	0.004592127
15	0x3dc2d722	0.095136896

encoder.2.weight f4 [8, 16]
0	0x3d3baaa8	0.045817047
1	0xbcd65548	-0.026163712
2	0x3e682872	0.22671679
3	0xbf1cedb1	-0.6130019
4	0xbed8a73a	-0.42315084
5	0xbe370b1f	-0.17875336
6	0xbef0d986	-0.47040957
7	0xbefe22ed	-0.4963602
8	0x3eb2ac6c	0.34897172
9	0x3e811fd3	0.25219592
10	0x3e1a05f6	0.15041336
11	0xbe04947a	-0.12947264
12	0xbe817b58	-0.25289416
13	0x3eb062b2	0.344503
14	0xbd014ab2	-0.031565376
15	0x3e8349d2	0.25642258
16	0x3db84960	0.0899837
17	0xbe482b08	-0.19547665
18	0x3e7128af	0.23550676
19	0x3d8c5c81	0.06853581
20	0x3dbaca58	0.09120625
21	0xbeda1865	-0.42596737
22	0xbe0a5dfc	-0.13512415
23	0x3ed1dfdd	0.40991107
24	0x3d2b1e24	0.04177679
25	0x3e52b304	0.20576102
26	0xbd9fa419	-0.07794971
27	0xbc2b11bf	-0.010441243
28	0x3edb0734	0.42778933
29	0xbebcc5e3	-0.36869726
30	0xbd5cc177	-0.05389544
31	0x3ecae068	0.39624333
32	0x3d27d178	0.04097125
33	0x3c7d5e34	0.015464354
34	0xbd8f3ae6	-0.06993656
35	0xbe402b0b	-0.1876642
36	0x3e9a2ab8	0.30110717
37	0xbdb37261	-0.087620504
38	0x3ea0751f	0.31339356
39	0xbb851bb8	-0.004062142
40	0x3e762e30	0.24041057
41	0x3d222130	0.03958243
42	0x3d9904d0	0.07471621
43	0xbe18f0a6	-0.1493555
44	0x3e8daaa9	0.27669266
45	0x3e88fe48	0.267565
46	0xbaa4eddc	-0.0012583095
47	0x3f24c5ef	0.6436452
48	0x3dc9e5d7	0.098582916
49	0x3e857133	0.26062927
50	0x3dc05099	0.09390373
51	0xbdb187cc	-0.08668479
52	0xbdc58970	-0.09645355
53	0xbe06f9d1	-0.13181235
54	0xbe31429e	-0.17310569
55	0xbe008dfe	-0.12554166
56	0x3bc17cfb	0.0059047914
57	0x3e06932e	0.13142082
58	0xbe989061	-0.29797652
59	0x3c316928	0.010828294
60	0xbce754f7	-0.028238757
61	0x3d89c60f	0.0672723
62	0x3e0bb466	0.13643035
63	0x3c110d90	0.008853331
64	0x3d9478c7	0.07249599
65	0x3d7748dd	0.060372222
66	0x3eb5ad98	0.35484004
67	0x3de6c769	0.11268503
68	0xbf0e5004	-0.55590844
69	0xbcb9e906	-0.022694122
70	0xbd542793	-0.051795553
71	0x3e4916bd	0.1963758
72	0xbe11683e	-0.14199921
73	0x3e43d0e9	0.19122662
74	0xbe0b23f0	-0.13587928
75	0x3c858993	0.016300952
76	0xbdb09d70	-0.08623779
77	0xbebd68ef	-0.3699412
78	0x3ecc40cb	0.39893183
79	0x3e45c963	0.19315104
80	0x3ea97d43	0.3310338
81	0xbd05f227	-0.032701638
82	0x3deaa331	0.114569075
83	0x3c68af2f	0.014201923
84	0x3e90a019	0.28247145
85	0xbe9e0b30	-0.3086791
86	0xbee760ce	-0.45191044
87	0xbde17fc6	-0.11010699
88	0x3d1f2345	0.038851995
89	0x3ed7a39b	0.4211701
90	0xbea04979	-0.31306055
91	0x3d067797	0.032828894
92	0x3cae35df	0.021265922
93	0xbe9e3fba	-0.30907995
94	0xbe943906	-0.28949755
95	0x3d1d6057	0.038421955
96	0x3e576814	0.21035796
97	0xbe67093f	-0.22562121
98	0x3ef1b2e5	0.47206798
99	0xbc0d1037	-0.008609823
100	0xbe79913c	-0.24371809
101	0xbe0f7301	-0.14008714
102	0x3f22f22a	0.63650763
103	0xbf0b0375	-0.5430215
104	0xbe22b8ef	-0.15890859
105	0xbc70d21a	-0.01469853
106	0xbe178f24	-0.14800698
107	0xbd7aa3ec	-0.061191484
108	0xbe4409e7	-0.19144402
109	0xbea69f0c	-0.32543218
110	0xbec1df92	-0.37865883
111	0xbea8490d	-0.32868233
112	0xbe8a9074	-0.27063334
113	0x3c1b0c23	0.009463343
114	0x3e50c65c	0.20388168
115	0xba956d7c	-0.0011400427
116	0xbd1d6ff0	-0.03843683
117	0x3c2de58b	0.010613809
118	0x3c2451f8	0.0100293085
119	0xbd60dbdf	-0.054897185
120	0x3b107b2d	0.0022046075
121	0xbdc64b2c	-0.09682307
122	0xba04f5fe	-0.0005072056
123	0x3be8e435	0.0071072825
124	0xbc63cd53	-0.013903934
125	0x3c1f2c4c	0.009715151
126	0xba1b9b2d	-0.0005935904
127	0x3e1fe3d5	0.15614255

encoder.2.bias f4 [8]
0	0xbe2bc027	-0.16772519
1	0x3e00cfc7	0.12579261
2	0x3e1d2ccf	0.15349124
3	0xbcfa6e00	-0.03057003
4	0x3e282c93	0.16423254
5	0x3e079108	0.13238919
6	0x3e4d9cc6	0.20079336
7	0xbba719e2	-0.005099521

encoder.4.weight f4 [4, 8]
0	0xbe1c4243	-0.15259652
1	0xbe210496	-0.15724406
2	0xbe0519f5	-0.12998183
3	0x3df095ed	0.11747346
4	0xbe4de078	-0.2010516
5	0x3e6b600a	0.22985855
6	0xbd32db97	-0.04366645
7	0xbd94608e	-0.07244979
8	0xbe864115	-0.2622153
9	0x3dab7e39	0.083736844
10	0x3de5dea3	0.11224105
11	0xbe9143ee	-0.2837214
12	0x3de1433e	0.109991536
13	0xbdc09fd2	-0.09405483
14	0xbd6ed82c	-0.058311626
15	0xbf0b95d4	-0.54525495
16	0x3c3fb597	0.011701009
17	0x3ddb6731	0.107130416
18	0x3e0f079d	0.13967748
19	0xbeac5736	-0.33660287
20	0x3e830801	0.25592044
21	0xbe3201e3	-0.17383532
22	0xbd8c2bbf	-0.068442814
23	0x3ebb52e3	0.36586675
24	0xbf06f4af	-0.5271711
25	0x3e52aad4	0.20572978
26	0x3ee91cfd	0.4552993
27	0xbf2e6f5d	-0.68138677
28	0x3f345dfa	0.70455897
29	0x3e7c8a94	0.24662238
30	0x3e83c8f5	0.25739256
31	0xbeb0b191	-0.34510472

encoder.4.bias f4 [4]
0	0x3d414815	0.047187883
1	0x3e221bfc	0.15830988
2	0xbd48498d	-0.04889827
3	0x3e2ba2d3	0.16761331

encoder.6.weight f4 [1, 4]
0	0xbd8a0b90	-0.067404866
1	0xbe8aa42a	-0.27078372
2	0x3e673254	0.22577792
3	0xbf499fef	-0.78759664

decoder.0.weight f4 [4, 1]
0	0x3f197482	0.599434
1	0xbfd1a628	-1.6378832
2	0xbf7f0cc9	-0.99628884
3	0x3f2cb225	0.67459327

decoder.0.bias f4 [4]
0	0xbd931304	-0.07181361
1	0x3e91038d	0.28323022
2	0xbeb1e4fb	-0.3474501
3	0xbdb34b3e	-0.08754586

decoder.2.weight f4 [8, 4]
0	0x3d0616db	0.03273664
1	0xbe91d85a	-0.28485376
2	0xbe258299	-0.161631
3	0x3d06f801	0.03295136
4	0x3d009e2f	0.031400856
5	0xbe8da76f	-0.27666804
6	0xbe20b338	-0.15693367
7	0x3d01732e	0.031603985
8	0xbfdbcff4	-1.7172837
9	0xbe4a8f1c	-0.19781154
10	0x3f39f034	0.72632146
11	0xbf5ef17c	-0.87087226
12	0x3f9c468e	1.2209032
13	0x3ec1932e	0.37807602
14	0x3ddd919a	0.10818787
15	0x3fb6223f	1.4229201
16	0xbea62dbf	-0.32456776
17	0x3d31079f	0.04322016
18	0xbdbc929d	-0.09207652
19	0xbfffbdc9	-1.9979793
20	0x3e9ae95a	0.30256158
21	0x3e08e9ab	0.13370387
22	0x3f2e9f02	0.68211377
23	0x3f0ef222	0.55838215
24	0x3e3706b0	0.17873645
25	0x3f961c80	1.1727448
26	0xbf5b8d75	-0.8576272
27	0xbf16c316	-0.5889143
28	0x3d044fb0	0.03230256
29	0xbe900ca5	-0.28134647
30	0xbe2363da	-0.15956059
31	0x3d052f54	0.03251584

decoder.2.bias f4 [8]
0	0xbc8b7ebf	-0.01702821
1	0xbc8512a9	-0.01624425
2	0x3f62864e	0.8848618
3	0xbf11daec	-0.56974673
4	0x3f4ef028	0.808352
5	0xbedfb974	-0.43696177
6	0x3eb63424	0.35586655
7	0xbc8965c4	-0.016772158

decoder.4.weight f4 [16, 8]
0	0x3ca6d5fb	0.020365706
1	0x3ca6adb4	0.0203465
2	0xbe05915b	-0.1304373
3	0xbd0f7378	-0.03502223
4	0xbd858a6f	-0.06520545
5	0xbdcba2fc	-0.09943196
6	0xbe3918c8	-0.1807586
7	0x3ca6c599	0.020357894
8	0x3ca6ec32	0.020376299
9	0x3ca6c6b0	0.020358413
10	0xbe072acc	-0.1319992
11	0xbd1c0e45	-0.038099546
12	0xbd853712	-0.065046445
13	0xbdd34700	-0.103162766
14	0xbe3d786a	-0.18502966
15	0x3ca6dcf8	0.020369038
16	0xbe584186	-0.21118745
17	0xbe59ac8a	-0.21257225
18	0x3e91a0b4	0.2844292
19	0x3e0fe20f	0.14051078
20	0x3e68d83d	0.22738738
21	0xbf18315f	-0.59450334
22	0x3f3beeea	0.7341143
23	0xbec3ebb1	-0.38265756
24	0xbd9caaa9	-0.07649738
25	0xbd281056	-0.041031204
26	0x3dfa60e7	0.12225514
27	0x3c857309	0.016290205
28	0x3f024ac6	0.50895345
29	0xbd03ef1d	-0.032210458
30	0xbdcfaeb1	-0.101407416
31	0xbd3965e5	-0.04526319
32	0xbfe8e2dc	-1.8194232
33	0xbfcd8d25	-1.6058699
34	0x3f23d168	0.63991404
35	0xbf1074dd	-0.5642832
36	0x4012f78d	2.2963593
37	0xbf0d9ad6	-0.55314386
38	0x3eed35ed	0.46330205
39	0xbffc21ab	-1.9697775
40	0x3e71102c	0.23541325
41	0xbbc98577	-0.0061499435
42	0xbf7b4001	-0.9814454
43	0x3f3df5fc	0.7420347
44	0xbe6855c3	-0.22688965
45	0x3f02087f	0.50794214
46	0x3e885429	0.2662671
47	0x3d8e5466	0.069496915
48	0xbf462070	-0.77393246
49	0xbe658fe9	-0.22418179
50	0x3f3c5323	0.73564357
51	0xbe09fc52	-0.13475159
52	0x3db7625d	0.08954308
53	0x3e92171f	0.28533265
54	0x3e2ba0c6	0.16760549
55	0xbd9fc285	-0.078007735
56	0x3cb914ab	0.022592863
57	0x3cb8e0ca	0.022568125
58	0xbe0d2838	-0.13784873
59	0xbcefb367	-0.02926035
60	0xbd9365a1	-0.071971186
61	0xbdc7b8dc	-0.09752056
62	0xbe3cef8a	-0.18450752
63	0x3cb8ffa1	0.02258283
64	0x3ca52164	0.020157523
65	0x3ca4f737	0.020137412
66	0xbe031f67	-0.12804948
67	0xbd04a62b	-0.032385033
68	0xbd84a025	-0.06475858
69	0xbdc3a047	-0.09552055
70	0xbe33f224	-0.17572838
71	0x3ca51044	0.020149358
72	0xbe2dbe80	-0.16967201
73	0xbea3db9e	-0.32003492
74	0xbe43ebf0	-0.19132972
75	0x3e3bcad4	0.18339092
76	0xbe1328c2	-0.14371017
77	0x3da22970	0.0791806
78	0xbc3992c5	-0.0113264965
79	0xbea85f06	-0.32884997
80	0x3cba18cc	0.022716902
81	0x3cb9ed43	0.022696143
82	0xbe122335	-0.14271243
83	0xbd193980	-0.037408352
84	0xbd92f0f7	-0.07174867
85	0xbdde66e1	-0.10859466
86	0xbe4a0c39	-0.19731225
87	0x3cba071f	0.022708474
88	0x3d3992e5	0.045306105
89	0x3e8952a1	0.26820853
90	0x3d74e8f1	0.059792463
91	0x3de01ff6	0.10943596
92	0xbe86b7de	-0.26312155
93	0x3dad2586	0.08454423
94	0x3ea6091f	0.32428834
95	0x3f0927b4	0.5357621
96	0xbf23f9d4	-0.6405308
97	0xbf2a9e8d	-0.6664818
98	0x3e9df0d3	0.30847797
99	0xbec7b8a9	-0.39008072
100	0x3da57312	0.080785885
101	0xbe064c91	-0.13115145
102	0x3e548c28	0.2075659
103	0xbeca4e42	-0.3951283
104	0x3c93acff	0.018026827
105	0x3c9387c6	0.018009078
106	0xbdefb9ce	-0.11705361
107	0xbcfda27e	-0.030961271
108	0xbd6fd69c	-0.058554277
109	0xbdb52269	-0.08844454
110	0xbe25a278	-0.16175258
111	0x3c939ddf	0.018019615
112	0x3def95bf	0.11698484
113	0x3eda790b	0.42670473
114	0x3d88748e	0.06662856
115	0x3cb4bc71	0.022062512
116	0xbd031619	-0.032003496
117	0x3e315321	0.17316867
118	0x3f1fe6db	0.6246163
119	0x3e1cd64b	0.15316121
120	0x3caff2a5	0.021478007
121	0x3cafc9d0	0.021458536
122	0xbe0c2c72	-0.1368883
123	0xbd19136e	-0.037372045
124	0xbd8bc96d	-0.06825528
125	0xbdd780a1	-0.10522581
126	0xbe42dd1b	-0.19029658
127	0x3cafe210	0.0214701

decoder.4.bias f4 [16]
0	0xbc247700	-0.010038137
1	0xbc25e3fd	-0.010125157
2	0x3e5f55d9	0.21810092
3	0x3df3f286	0.11911492
4	0x4000d027	2.0127046
5	0xbddb4f5c	-0.10708496
6	0x3e51870b	0.20461671
7	0xbc361874	-0.0111142285
8	0xbc21d592	-0.009877579
9	0x3d5105c4	0.05103089
10	0xbc393820	-0.011304885
11	0xbe5b8eca	-0.21441188
12	0x3ee1904e	0.44055408
13	0xbc0fc8ff	-0.008775949
14	0xbcd95550	-0.026529938
15	0xbc2eb992	-0.010664361

decoder.6.weight f4 [3, 16]
0	0xbed633bd	-0.41836348
1	0xbf70be4c	-0.9404037
2	0x3ef01869	0.46893623
3	0xbfe3963b	-1.7780222
4	0x3e9dc8c9	0.3081725
5	0x3d074d6d	0.033032823
6	0x3e127aeb	0.14304702
7	0xbeb569f5	-0.354324
8	0xbea45045	-0.3209249
9	0xbdda4d14	-0.10659233
10	0xbd99c03a	-0.075073674
11	0xbcd4d7cf	-0.025981812
12	0x3ee7f02f	0.45300433
13	0xbe4671b3	-0.1937931
14	0x3c592958	0.013254486
15	0xbf1b0c1e	-0.60565364
16	0x3eb9fb88	0.36324716
17	0x3f0df1cf	0.55447096
18	0xbf1a163b	-0.6019017
19	0xc01f0192	-2.4844708
20	0xbf6aa5fc	-0.9165952
21	0x3d71bcc1	0.0590179
22	0xbef8b92a	-0.4857877
23	0x3ea3a92e	0.3196501
24	0x3e878cbd	0.26474562
25	0xbd5c4e8c	-0.053785846
26	0x3f25e7bf	0.6480674
27	0xbdedacde	-0.116052374
28	0xbeeb3203	-0.45936593
29	0x3e0fb49c	0.14033741
30	0x3d9eab6a	0.077475384
31	0x3f1498cc	0.5804565
32	0xbf2f28fd	-0.6842192
33	0xbf02eb26	-0.5114006
34	0xbebc31f3	-0.36756858
35	0x3e9d33b5	0.30703512
36	0x3f24065e	0.64072216
37	0xbf020942	-0.50795376
38	0xbd8c8741	-0.06861735
39	0xbfa13078	-1.2592916
40	0xbf45c490	-0.77253056
41	0xbde056b5	-0.10954038
42	0xbf332084	-0.6997149
43	0xbecf2727	-0.40459558
44	0x3de5fe18	0.11230105
45	0xbf133855	-0.5750783
46	0xbd0fabea	-0.03507606
47	0xbf207fde	-0.6269511

decoder.6.bias f4 [3]
0	0x3eaf65dd	0.34257403
1	0xbe5704f3	-0.20997982
2	0x3f2e96e0	0.68198967
