autoencoders/best_models/best_model_bone5.pth (torch, 7993 bytes, 15 tensors)

encoder.0.weight f4 [16, 3]
-0.29060817 0.3731566 -0.39417654 0.045837063 -0.013059953 0.019054895 -0.066366546 0.017613798
0.12104042 0.0052280277 -0.002091868 0.0041193697 -0.0053853565 0.001610222 -0.008885241 -0.14788064
0.0011329636 -0.36634898 0.49029705 -0.5549052 -0.75523084 -0.026591836 0.007313479 0.092511564
-0.056829214 0.12909149 -0.5843349 0.00081834383 -0.00031811942 0.01335742 -0.11217062 0.03559202
0.13925545 -0.22715193 0.08804769 -0.8501079 0.014454543 -0.009912539 0.015733805 -0.04031172
0.011147564 0.10104873 -0.083715074 0.020559272 0.13503446 -0.29665843 -0.005976167 -0.24317528
00000000: 98ca 94be 620e bf3e 82d1 c9be a5bf 3b3d
00000010: 6af9 55bc 0319 9c3c 2feb 87bd d04a 903c
00000020: 0ae4 f73d e04f ab3b b917 09bb c7fb 863b
00000030: a577 b0bb 160e d33a 6793 11bc 066e 17be
00000040: f37f 943a 1892 bbbe 3708 fb3e 440e 0ebf
00000050: cf56 41bf 1fd7 d9bc e9a5 ef3b b476 bd3d
00000060: c0c5 68bd 8f30 043e f996 15bf 2086 563a
00000070: 44c9 a6b9 15d9 5a3c b6b9 e5bd f0c8 113d
00000080: fb98 0e3e 849a 68be 5952 b43d aca0 59bf
00000090: bfd2 6c3c 3468 22bc 2ee4 803c e71d 25bd
000000a0: 46a4 363c a3f2 ce3d cf72 abbd eb6b a83c
000000b0: 7946 0a3e 9de3 97be b9d3 c3bb f102 79be

encoder.0.bias f4 [16]
-0.022492614 -0.016127763 0.021574924 -0.0031597666 0.0020242715 0.0046214536 -0.039987657 0.0089526465
-0.038198244 -0.00047365157 0.042819787 -0.028660206 -0.010990228 0.013573506 0.025077922 -0.0030974594
00000000: 6e42 b8bc 5f1e 84bc e5bd b03c 1614 4fbb
00000010: a4a9 043b 906f 973b 19ca 23bd 1fae 123c
00000020: c375 1cbd 7054 f8b9 cd63 2f3d cfc8 eabc
00000030: 5b10 34bc 6963 5e3c 3770 cd3c bffe 4abb

encoder.2.weight f4 [8, 16]
0.54230684 0.24347873 -0.12050771 0.080244 0.103212975 0.06207981 0.38777778 -0.021218348
-0.020569585 -0.09163687 0.12637301 0.17123763 0.025039975 -0.08116897 -0.06310353 0.026846511
0.16007443 -0.052199718 0.16674748 -0.037343748 -0.11130624 0.24432713 -0.0028058563 0.13801476
0.29384658 0.011878271 0.16337387 0.312387 7.2343515e-05 -0.00464119 -0.040958546 0.5042484
-0.01793954 0.01821954 0.05307331 -0.007911828 -0.12904577 0.3120089 0.5960609 -0.17945024
-0.11732642 0.07868864 -0.0153679345 -0.42668587 -0.05210534 -0.09304561 0.03072047 0.030823851
-0.07307447 0.10993902 0.002851319 -0.01390487 -0.13764061 -0.05479094 0.2224393 0.11236943
0.31338093 0.13416821 0.10123268 0.22390448 0.21596119 0.14443229 0.17855568 -0.30231345
-0.08203445 -0.18461287 -0.20617895 -0.096206315 0.05039237 0.19907427 -0.13353215 -0.21793672
-0.039917137 -0.22199616 -0.021731505 -0.047099374 -0.19768378 -0.045936868 -0.029716715 0.39396214
0.47357833 -0.30738792 0.046267238 -0.028263379 0.13322952 0.08237599 0.29439858 0.0016250019
0.24450603 -0.063418336 0.14531922 0.34002107 -0.17942911 0.09742779 0.12689888 0.12826706
-0.070924364 -0.3383056 -0.38801408 0.013613862 0.20502499 0.44828796 -0.051702864 -0.053025138
0.17466062 0.025158327 -0.17580427 -0.26409742 0.0061869854 -0.2203882 -0.44102204 0.019296661
0.0913674 -0.018923631 -0.033631768 -0.0020769546 0.004277327 0.18245155 0.01089873 -0.02307275
-0.4575342 -0.008259868 -0.023535693 0.14863373 -0.0075886184 -0.021169625 -0.03463419 -0.0014612401
00000000: 9fd4 0a3f 7d52 793e bfcc f6bd f756 a43d
00000010: 5361 d33d 6647 7e3d cf8a c63e 1ad2 adbc
00000020: 8c81 a8bc 1cac bbbd ed67 013e eb58 2f3e
00000030: a220 cd3c eb3b a6bd 6c3c 81bd 37ed db3c
00000040: 8dea 233e 5fcf 55bd dabf 2a3e c2f5 18bd
00000050: 87f4 e3bd e430 7a3e 75e2 37bb be53 0d3e
00000060: 0f73 963e 149d 423c 7b4b 273e 30f1 9f3e
00000070: 21b7 9738 2015 98bb 26c4 27bd 6c16 013f
00000080: f1f5 92bc 2541 953c 6663 593d 9da0 01bc
00000090: 9324 04be a1bf 9f3e 7297 183f cec1 37be
000000a0: d648 f0bd 8227 a13d cac9 7bbc 9276 dabe
000000b0: 696c 55bd b28e bebd 7fa9 fb3c 4d82 fc3c
000000c0: 11a8 95bd b527 e13d 32dd 3a3b 40d1 63bc
000000d0: a9f1 0cbe 776c 60bd 21c7 633e f221 e63d
000000e0: 7773 a03e 6463 093e 1453 cf3d 3747 653e
000000f0: ee24 5d3e 0fe6 133e 4dd7 363e d4c8 9abe
00000100: ad01 a8bd 280b 3dbe 9320 53be d107 c5bd
00000110: 3b68 4e3d 20da 4b3e a7bc 08be ce2a 5fbe
00000120: 2780 23bd f652 63be 4506 b2bc 46eb 40bd
00000130: 9e6d 4abe 4c28 3cbd 7870 f3bc 68b5 c93e
00000140: dc78 f23e f361 9dbe b782 3d3d 9a88 e7bc
00000150: 526d 083e beb4 a83d 69bb 963e 04fe d43a
00000160: ca5f 7a3e 79e1 81bd 90ce 143e 3e17 ae3e
00000170: 44bc 37be 3988 c73d c8f1 013e 7158 033e
00000180: cb40 91bd 6436 adbe c8a9 c6be ad0c 5f3c
00000190: 12f2 513e 0086 e53e 62c6 53bd e330 59bd
000001a0: 3cda 323e d618 ce3c 0906 34be c737 87be
000001b0: 32bc ca3b 72ad 61be a4cd e1be 0814 9e3c
000001c0: d51e bb3d bb05 9bbc 77c1 09bd 841d 08bb
000001d0: d228 8c3b 94d4 3a3e 9690 323c 1003 bdbc
000001e0: ec41 eabe 6654 07bc edcd c0bc 7133 183e
000001f0: f2a9 f8bb ec6b adbc 95dc 0dbd 1587 bfba

encoder.2.bias f4 [8]
-0.016098227 -0.025134604 -0.016466213 -0.06112111 0.15819226 -0.012985721 0.11182216 0.005869416
00000000: 6ee0 83bc 16e7 cdbc 27e4 86bc 215a 7abd
00000010: 27fd 213e 10c2 54bc 0403 e53d 3b54 c03b

encoder.4.weight f4 [4, 8]
-0.022135617 0.27108592 0.1164301 -0.1611499 0.052547313 -0.15559714 0.18649368 -0.06374666
0.4852675 0.32623026 0.15110894 0.32488704 -0.057063933 0.29570916 -0.09867256 -0.11086069
-0.03764166 0.15336117 0.15714665 -0.14829043 -0.15901159 0.81020665 -0.09083068 0.07060226
-0.042217735 -0.01691974 -0.15996675 -0.086959414 0.0720788 -0.061656404 0.023546569 0.02732268
00000000: c155 b5bc c6cb 8a3e e772 ee3d 7b04 25be
00000010: da3b 573d db54 1fbe 33f8 3e3e 9c8d 82bd
00000020: fb74 f83e a707 a73e 4dbc 1a3e 9857 a63e
00000030: dfbb 69bd 3167 973e d714 cabd ee0a e3bd
00000040: 242e 1abd b60a 1d3e 0deb 203e 72d9 17be
00000050: efd3 22be b469 4f3f 7005 babd eb97 903d
00000060: 81ec 2cbd 449b 8abc 53ce 23be c717 b2bd
00000070: 0d9e 933d 6d8b 7cbd bce4 c03c d0d3 df3c

encoder.4.bias f4 [4]
0.071804106 -0.0074597425 -0.012410082 0.083400466
00000000: 080e 933d db70 f4bb a853 4bbc ddcd aa3d

encoder.6.weight f4 [1, 4]
0.023730414 -0.5264675 -0.45605537 -0.37783742
00000000: 4966 c23c 93c6 06bf 1780 e9be e873 c1be

decoder.0.weight f4 [4, 1]
-1.2847936 -0.35942897 0.18334101 -0.16649151
00000000: 1e74 a4bf 1307 b8be bfbd 3b3e c07c 2abe

decoder.0.bias f4 [4]
0.061640553 -0.19920927 0.16642706 0.0936487
00000000: ce7a 7c3d 84fd 4bbe db6b 2a3e e4ca bf3d

decoder.2.weight f4 [8, 4]
-0.079331145 0.069562405 -0.07743784 -0.0387184 -0.087614805 0.027130043 -0.01453835 -0.0051320666
0.35339522 0.9373245 -0.5527226 -0.49549207 0.4021851 -0.3789642 0.07314848 -0.48666748
-0.11279182 0.06575018 -0.08159361 -0.044262614 0.5215768 -0.31093657 -0.12217531 0.07860206
-0.039538246 0.042478964 0.005844113 0.0075309672 -0.053808097 0.00080251624 0.0108684525 0.0015384437
00000000: 5e78 a2bd bc76 8e3d bb97 9ebd 2f97 1ebd
00000010: 646f b3bd d33f de3c 4232 6ebc e52a a8bb
00000020: 38f0 b43e 80f4 6f3f 3a7f 0dbf 23b1 fdbe
00000030: 35eb cd3e 9807 c2be dfce 953d 7b2c f9be
00000040: 66ff e6bd 08a8 863d 8d1a a7bd b74c 35bd
00000050: 0f86 053f 1433 9fbe 0d37 fabd 1efa a03d
00000060: dbf2 21bd 6cfe 2d3d f97f bf3b 55c6 f63b
00000070: e165 5cbd f45f 523a 9811 323c 9ba5 c93a

decoder.2.bias f4 [8]
-0.43127394 -0.04993187 -0.1311182 -0.0024925652 -0.40296534 0.11031156 0.055671073 0.08470793
00000000: f0cf dcbe 5c85 4cbd d943 06be 4e5a 23bb
00000010: 7951 cebe 07eb e13d 5a07 643d 5a7b ad3d

decoder.4.weight f4 [16, 8]
0.2219378 -0.17567235 0.8794295 0.20835342 0.28385633 0.045069065 0.005864372 -0.11868818
-0.6056369 0.08065141 0.334695 -0.013474766 -0.14443137 1.0810226 -0.17798135 0.4563837
0.054541416 0.013699821 0.059079897 0.0036349099 0.05513243 -0.06967657 -0.010074281 -0.008081873
-0.11737403 -0.0039071897 -0.17391579 0.0023202277 -0.11820734 0.021792244 0.013764567 0.022629447
0.15850374 0.03766278 -0.009158665 -0.050780963 0.15570591 -0.09329399 -0.009605275 -0.016491571
0.11951843 0.028129501 -0.026042806 -0.049335435 0.11578694 -0.09091834 -0.0055413703 -0.010343151
-0.29751042 0.057786748 -0.13393721 0.25597438 -0.22870032 0.71317405 0.16542344 0.018578423
-0.049532447 0.019467508 -0.20544285 0.018656608 -0.038902167 0.043927174 0.0079098875 0.013259604
-0.025070338 0.075194396 0.13844621 -0.04969848 0.221011 0.35055375 0.0514674 0.1501019
0.36303207 -0.13444561 0.42233902 0.56198347 0.040764008 0.08250276 0.24163464 -0.3926361
0.0907135 -0.004561154 0.3706289 -0.25541952 0.051939875 -0.25660545 -0.14820771 0.023468247
0.18274216 0.040448997 -0.0037658506 -0.06251735 0.17676955 -0.112744264 -0.009796067 -0.019356435
0.21012619 0.04753502 0.013335931 -0.064557485 0.20467272 -0.122277655 -0.012171332 -0.023011135
-0.06856455 -0.03444289 0.46725833 0.10827916 0.039758418 0.27314797 -0.04955786 -0.050357632
0.19770755 0.091008 0.306565 0.026339836 0.22464147 -0.407571 -0.04742694 -0.028363686
-0.07919984 -0.0202312 -0.05454021 0.004459056 -0.07597846 -0.0062747817 -0.0015456018 0.0032238653
00000000: aa43 633e 74e3 33be 4b22 613f 995a 553e
00000010: 9e55 913e 579a 383d eb29 c03b ca12 f3bd
00000020: 050b 1bbf 912c a53d 255d ab3e 44c5 5cbc
00000030: d1e5 13be f35e 8a3f be40 36be 20ab e93e
00000040: d266 5f3d 3775 603c c3fd 713d ab37 6e3b
00000050: 8bd2 613d 97b2 8ebd 990e 25bc d569 04bc
00000060: cc61 f0bd e207 80bb fb16 32be f60e 183b
00000070: b116 f2bd a685 b23c c784 613c 6461 b93c
00000080: ce4e 223e 4a44 1a3d 3a0e 16bc b3ff 4fbd
00000090: 5f71 1f3e eb10 bfbd 715f 1dbc 5519 87bc
000000a0: 14c6 f43d d76f e63c b957 d5bc f413 4abd
000000b0: b421 ed3d 6533 babd 6294 b5bb 5276 29bc
000000c0: 4953 98be ccb1 6c3d d626 09be 130f 833e
000000d0: 6b30 6abe 9392 363f c364 293e c731 983c
000000e0: 89e2 4abd 537a 9f3c 9c5f 52be bed5 983c
000000f0: e157 1fbd fbec 333d 7998 013c cf3e 593c
00000100: 4f60 cdbc 85ff 993d d8c4 0d3e a290 4bbd
00000110: b550 623e c87b b33e 7bcf 523d 50b4 193e
00000120: 57df b93e 1cac 09be d23c d83e 26de 0f3f
00000130: 29f8 263d 35f7 a83d 126f 773e 9907 c9be
00000140: 00c8 b93d bc75 95bb 12c3 bd3e 59c6 82be
00000150: e8be 543d ca61 83be c3c3 17be 7b40 c03c
00000160: c320 3b3e d9ad 253d 7dcc 76bb 1909 80bd
00000170: 1403 353e 77e6 e6bd af7f 20bc 6391 9ebc
00000180: 522b 573e 15b4 423d f37e 5a3c b736 84bd
00000190: ba95 513e b56c fabd 446a 47bc d981 bcbc
000001a0: 926b 8cbd fd13 0dbd 7c3c ef3e 77c1 dd3d
000001b0: b9d9 223d 0dda 8b3e 2ffd 4abd ce43 4ebd
000001c0: d973 4a3e 6762 ba3d 16f6 9c3e a4c6 d73c
000001d0: 6a08 663e 25ad d0be c042 42bd f65a e8bc
000001e0: 8733 a2bd e7bb a5bc 8e65 5fbd 461d 923b
000001f0: 989a 9bbd af9c cdbb ca95 caba 7c47 533b

decoder.4.bias f4 [16]
-0.07992012 -0.015254848 -0.07648642 0.17019661 -0.23193346 -0.17262477 0.16691919 0.078268796
-0.06523008 -0.060134754 -0.058754757 -0.2660267 -0.30706942 -0.06260038 -0.28223306 0.112967305
00000000: 29ad a3bd 78ef 79bc eaa4 9cbd 0548 2e3e
00000010: f77f 6dbe 8cc4 30be ddec 2a3e 644b a03d
00000020: 5997 85bd dc4f 76bd d4a8 70bd a734 88be
00000030: 3438 9dbe a134 80bd da80 90be 675b e73d

decoder.6.weight f4 [3, 16]
0.09099215 -0.02691668 0.08241969 -0.34242016 0.2970834 0.22762711 -0.27412635 -0.23498635
0.07680647 -0.0034661803 0.10184799 0.43592814 0.51286614 0.079840876 0.5757948 -0.17660904
-0.14778087 0.1248324 0.039029688 0.051737465 -0.2320808 -0.0027823588 0.30252218 -0.08531218
0.28788987 -0.4582394 0.1350355 0.06972495 -0.08477341 0.053766433 0.0033564097 -0.012204978
-0.33780396 -0.32260585 0.005976517 0.20751381 -0.012604341 -0.10811179 0.019612692 0.4099725
-0.09495028 -0.357632 -0.11586331 -0.097832754 -0.011059618 -0.24346176 0.19073349 -0.06870323
00000000: 185a ba3d 5f80 dcbc a8cb a83d b251 afbe
00000010: 511b 983e 1517 693e 4a5a 8cbe 43a0 70be
00000020: b64c 9d3d db28 63bb ae95 d03d f931 df3e
00000030: 324b 033f 9d83 a33d 4a67 133f 00d9 34be
00000040: de53 17be 21a8 ff3d 98dd 1f3d aaea 533d
00000050: 97a6 6dbe 3c58 36bb 30e4 9a3e 27b8 aebd
00000060: 4d66 933e 5b9e eabe bf46 0a3e f4cb 8e3d
00000070: ae9d adbd 313a 5c3d 36f7 5b3b 63f7 47bc
00000080: a4f4 acbe 982c a5be a9d6 c33b 807e 543e
00000090: 7082 4ebc b769 ddbd ccaa a03c eae7 d13e
000000a0: 4b75 c2bd 8b1b b7be be49 edbd 8a5c c8bd
000000b0: 6633 35bc 0a4e 79be a44f 433e 47b4 8cbd

decoder.6.bias f4 [3]
-0.51610744 0.12269304 0.021511158
00000000: 9e1f 04bf 7d46 fb3d 2b38 b03c
