autoencoders/best_models/best_model_bone11.pth (torch, 8015 bytes, 15 tensors)

encoder.0.weight f4 [16, 3]
0	0x3c9f30d9	0.019432472
1	0xbe582858	-0.2110914
2	0xbf3d319b	-0.73903817
3	0xbe5d6480	-0.21620369
4	0x3ba108d8	0.0049143843
5	0xbee61d68	-0.4494431
6	0x3d9aa57e	0.075510964
7	0xbb8f9034	-0.004381204
8	0x3d9972a1	0.07492567
9	0xbef78147	-0.48340818
10	0x3d9ca4b5	0.07648603
11	0x3d058548	0.03259781
12	0x3c7a8924	0.015291486
13	0xbbec7de4	-0.007217156
14	0x3dd91e45	0.106014766
15	0x3c53bb90	0.012923136
16	0xbb11e59c	-0.0022262102
17	0x3d90dff0	0.07073963
18	0xbe0150f3	-0.12628536
19	0x3bd83af9	0.006598827
20	0x3dcd9875	0.100388445
21	0xbf33c585	-0.70223266
22	0xbc143b82	-0.009047391
23	0xbf080975	-0.5313943
24	0xbefc905b	-0.49328884
25	0xbe0f5f87	-0.14001285
26	0xbf572c79	-0.84052235
27	0x3d7e78e8	0.062127024
28	0xbb88c401	-0.004173756
29	0x3da824d3	0.08210149
30	0x3d3f8394	0.046756342
31	0xbb5ec0ad	-0.0033989355
32	0x3d934702	0.07191278
33	0xbeba5400	-0.36392212
34	0x3f410d6c	0.75411105
35	0xbf9d1f58	-1.227519
36	0x3cbd9c5e	0.02314585
37	0xbb70ace6	-0.003672415
38	0x3dfccc84	0.12343696
39	0x3d9ecbc3	0.07753708
40	0x3e9c08b1	0.3047538
41	0xbf813087	-1.0092934
42	0x3d9c7b9a	0.076407626
43	0x3e433772	0.1906412
44	0xbf813d5a	-1.0096848
45	0xbf20ba35	-0.6278413
46	0x3e29e1e2	0.16590074
47	0xbf8bfbdf	-1.093624

encoder.0.bias f4 [16]
0	0xbd0537d6	-0.032523952
1	0xbcf4209f	-0.029800711
2	0xbbf76941	-0.007550389
3	0x3e2f2b57	0.17106377
4	0xbca31dfd	-0.01991176
5	0xbb2dd465	-0.0026524302
6	0x3cb67fa8	0.022277668
7	0x3d7e9a3f	0.06215882
8	0xbd28c092	-0.041199274
9	0xbbd73932	-0.0065680975
10	0xbbba516c	-0.005685976
11	0xbda6b516	-0.08140008
12	0xbba46740	-0.005017191
13	0xbdf3a3cc	-0.11896476
14	0xbd53e71d	-0.05173408
15	0xbd608593	-0.054814886

encoder.2.weight f4 [8, 16]
0	0x3da74e50	0.08169234
1	0x3f34e21a	0.70657504
2	0xbed55eac	-0.4167379
3	0x3e4179bd	0.18894096
4	0xbeca750c	-0.39542425
5	0xbe544f62	-0.20733407
6	0xbd944401	-0.07239533
7	0x3ebe927e	0.3722114
8	0x3d9970ef	0.074922435
9	0xbef745ff	-0.4829559
10	0xbec45fb8	-0.38354278
11	0xbe3624a2	-0.17787412
12	0xbe3af2a3	-0.18256621
13	0xbedf1c0b	-0.43576083
14	0xbcc51438	-0.024057493
15	0x3bb06955	0.0053836503
16	0x3ec845b6	0.39115685
17	0x3e6e7343	0.23286156
18	0x3cf8a4ba	0.030351985
19	0xbdd3d27f	-0.10342883
20	0x3e853cee	0.26023048
21	0x3e589779	0.21151532
22	0x3e8b4f9d	0.27209178
23	0xbe97f149	-0.29676273
24	0x3f85391d	1.0408055
25	0xbde1a1e7	-0.110172085
26	0xbdcf61c8	-0.10126072
27	0x3e55c8d9	0.20877399
28	0x3e9814de	0.2970342
29	0x3cd16ff5	0.02556608
30	0x3b6d4b1c	0.0036208099
31	0x3ca5233d	0.020158404
32	0xbcfe0833	-0.031009769
33	0xbc585745	-0.0132044
34	0x3b26ba51	0.0025440643
35	0xbbb2ca67	-0.005456257
36	0x3b27d201	0.002560735
37	0x3ae91fb7	0.0017785941
38	0x3a1a29fb	0.00058808894
39	0xbc782aaf	-0.015146895
40	0xbcd36b8f	-0.025808124
41	0x3b1d57e3	0.0024008683
42	0x3b08817d	0.0020829134
43	0xbd3ccc21	-0.04609311
44	0x3b4dbe5e	0.0031393985
45	0xbd1a7392	-0.037707873
46	0xbd2bfc47	-0.041988637
47	0xbce3319a	-0.027733613
48	0x393f2885	0.00018230274
49	0x3a0ee510	0.0005451003
50	0xb9028d89	-0.00012450492
51	0x3a9ac2ec	0.0011807359
52	0x38a59d8d	7.897159e-05
53	0x385a64a0	5.2068965e-05
54	0x39d5971a	0.00040739105
55	0x3ac65e6f	0.0015134345
56	0x3b38196a	0.002809132
57	0xb88aefc4	-6.6250126e-05
58	0xb80f113e	-3.4109915e-05
59	0xbc21bbab	-0.009871404
60	0x38c00b3b	9.157365e-05
61	0x3b2930e2	0.002581649
62	0x3a9f423f	0.001215048
63	0x3b7d4319	0.003864473
64	0x3e4408e3	0.19144015
65	0x3f3d19a2	0.7386724
66	0x3dd6839d	0.10474322
67	0xbe0c6aa4	-0.13712555
68	0x3da9d6df	0.082929365
69	0xbe4b516e	-0.19855282
70	0x3e238194	0.15967399
71	0x3e0a6a2b	0.13517062
72	0x3e09dd70	0.13463378
73	0x3e247e1a	0.16063729
74	0x3cf5e4ba	0.030016292
75	0x3ef5b304	0.4798814
76	0x3e37a3b6	0.17933545
77	0x3d32257f	0.04349279
78	0xbddc8f0f	-0.10769474
79	0x3ea1df61	0.31615737
80	0x3e7b206b	0.24524085
81	0x3e844b64	0.25838768
82	0xbba1bce2	-0.0049358467
83	0x3aa79c6e	0.0012787709
84	0xbbb4920a	-0.0055105733
85	0xbb3cd5dd	-0.0028813996
86	0xbb19474f	-0.002338845
87	0x3a99fa51	0.0011747574
88	0xbd4c1f99	-0.04983482
89	0xbb3d65d1	-0.0028899799
90	0xbb9852db	-0.004648549
91	0xbe3108e4	-0.17288548
92	0xbb73b023	-0.0037183843
93	0x3cb32704	0.02186919
94	0xbd941fb4	-0.072326094
95	0x3c183ef8	0.009292357
96	0x3eb77154	0.3582865
97	0x3ede951b	0.43473133
98	0x3d5b0bbd	0.05347799
99	0xbdb1c0d0	-0.08679354
100	0x3d4a8106	0.049439453
101	0x3e7c0c8e	0.24614164
102	0xbd4fbe6b	-0.050718706
103	0xbd3e4c68	-0.046459585
104	0xbc987982	-0.018612627
105	0x3ea2b1b6	0.31776208
106	0x3dd362f4	0.10321608
107	0x3eef80cf	0.4677796
108	0x3edfd261	0.43715194
109	0x3ec1d33c	0.37856472
110	0x3e0c38d8	0.13693559
111	0x3ea6e0b1	0.325933
112	0x3e018165	0.12647016
113	0x3e800dd3	0.25010547
114	0x3e48031d	0.19532438
115	0xbd9b105a	-0.07571478
116	0x3e3a7e87	0.18212329
117	0xbd312b6a	-0.043254294
118	0x3e7aa623	0.24477439
119	0x3e993883	0.29925928
120	0x3e0966bc	0.13418096
121	0x3e265272	0.16242388
122	0x3dbbc382	0.091681495
123	0xbeb644cf	-0.35599372
124	0x3e0ed971	0.13950135
125	0xbdf764be	-0.12079762
126	0x3f376553	0.71638983
127	0x3e73d66f	0.23812269

encoder.2.bias f4 [8]
0	0x3e470ffb	0.1943969
1	0xbd218251	-0.03943092
2	0xbb5eed90	-0.003401611
3	0x3a0d7a13	0.00053969136
4	0xbd34a2b6	-0.044100486
5	0x3a92ceb1	0.0011200515
6	0xbd35c8b4	-0.04438086
7	0xbd165185	-0.036698837

encoder.4.weight f4 [4, 8]
0	0xbe7f883d	-0.24954315
1	0x3e600d7a	0.21880141
2	0x3eb5f835	0.3554093
3	0x3d32515a	0.043534614
4	0x3f02f04b	0.5114791
5	0x3dc6f477	0.09714597
6	0x3f10c4fd	0.5655058
7	0xbdee1db2	-0.11626758
8	0x3e9f0eee	0.31066078
9	0x3e699708	0.2281152
10	0xbda56a57	-0.08076923
11	0x3b1d2f38	0.0023984443
12	0xbce51a6e	-0.027966704
13	0xbc30bcde	-0.010787217
14	0xbea9d134	-0.33167422
15	0x3ec09bbe	0.37618822
16	0x3f2bdfa8	0.6713815
17	0xbdabaddc	-0.083827704
18	0xbf05e151	-0.5229693
19	0x3d42656f	0.047460016
20	0x3eb5a6d6	0.35478848
21	0x3d11ee2b	0.035627525
22	0xbd7dbaa0	-0.061945558
23	0xbebaab19	-0.36458662
24	0xbea9dd52	-0.33176666
25	0x3f15e593	0.5855343
26	0x3dded238	0.1087994
27	0x3b9bbf10	0.004753001
28	0x3f6ebb13	0.932542
29	0xbd493717	-0.049124803
30	0x3e5020f9	0.20325078
31	0x3ec2d491	0.380528

encoder.4.bias f4 [4]
0	0xbd25ae60	-0.0404495
1	0x3caa5412	0.020792041
2	0x3d3a124b	0.0454276
3	0xbd33f16b	-0.043931406

encoder.6.weight f4 [1, 4]
0	0xbed2483a	-0.4107073
1	0x3d96a9f0	0.07356632
2	0x3eda45f9	0.4263151
3	0xbf07718c	-0.52907634

decoder.0.weight f4 [4, 1]
0	0x3d963e4f	0.07336103
1	0xbf7139a0	-0.94228554
2	0x3c2763e5	0.010216688
3	0x3c1c7fe3	0.009551975

decoder.0.bias f4 [4]
0	0x3ea806ff	0.32817838
1	0x3d895bd6	0.067069694
2	0xbec97a6e	-0.3935122
3	0x3cd63f21	0.02615315

decoder.2.weight f4 [8, 4]
0	0x3d7b85b6	0.061406814
1	0xbda9a4b2	-0.08283366
2	0xbd507fcf	-0.050903138
3	0x3b972b5c	0.004613323
4	0xbddbd249	-0.10733468
5	0xbd2efd79	-0.0427222
6	0x3e22386f	0.1584184
7	0xbbeee79a	-0.0072907927
8	0xbe80aec2	-0.2513333
9	0x3dbe1839	0.09281964
10	0x3e45699d	0.1927857
11	0xbe08a5fd	-0.1334457
12	0x3e8ce26e	0.27516502
13	0x3e6fd338	0.23420417
14	0xbeea16cb	-0.45720515
15	0xbe4c5b2e	-0.19956657
16	0xbdebc597	-0.11512297
17	0xba933dbd	-0.0011233609
18	0x3d878d90	0.06618798
19	0xbcc6fcf8	-0.024290547
20	0xbe1db7fa	-0.15402213
21	0xbd6c0bc0	-0.057628393
22	0x3e81fb95	0.25387254
23	0xbc4d13c8	-0.012516923
24	0x3dd2bda7	0.102900796
25	0x3ec4e3d5	0.38455072
26	0xbe402529	-0.18764175
27	0x3da22345	0.079168834
28	0x3dc181a5	0.09448556
29	0x3e8ce753	0.27520236
30	0x3e609c89	0.21934713
31	0xbe27c840	-0.16384983

decoder.2.bias f4 [8]
0	0x3dbb6432	0.0914997
1	0xbe8e5332	-0.27797848
2	0xbea0cc4d	-0.3140587
3	0x3dae676c	0.0851582
4	0xbe14a3ec	-0.14515656
5	0xbee426e0	-0.4456091
6	0xbd06a6df	-0.032873984
7	0x3c0c1243	0.008549276

decoder.4.weight f4 [16, 8]
0	0x3c9ef16c	0.019402228
1	0x3cdc3f45	0.026885638
2	0x3ccef2a9	0.025262194
3	0xbbad1ad1	-0.005282738
4	0x3c0f11de	0.008732287
5	0x3d168e2d	0.036756683
6	0xbc7b1cc9	-0.015326687
7	0xbd71f3af	-0.059070285
8	0x3d52f3bc	0.051501974
9	0xbdaf30fc	-0.08554265
10	0xbdfeb350	-0.12436545
11	0x3ca105d1	0.019656094
12	0xbd69684d	-0.056984235
13	0xbe020042	-0.12695411
14	0xbd3aee8d	-0.045637656
15	0xbdead317	-0.114660434
16	0x3d08abdd	0.033367027
17	0xbd5a9511	-0.053364817
18	0xbda0fc2b	-0.07860597
19	0x3cee0eed	0.029059852
20	0xbd0b24db	-0.033970695
21	0xbd98c205	-0.07458881
22	0xbd6dc5b0	-0.058049858
23	0xbd8f4984	-0.06996444
24	0xbe326f53	-0.1742528
25	0x3c8b8678	0.017031893
26	0x3d52ed3e	0.051495783
27	0x3e082a65	0.13297422
28	0x3cbfbfdc	0.023406915
29	0x3ca7b8d7	0.02047388
30	0x3f2d799f	0.67763704
31	0x3c3039ee	0.010755999
32	0xbe8d8b7a	-0.27645475
33	0x3e9131d8	0.2835834
34	0x3eba536d	0.36391774
35	0x3f3a06e9	0.72666794
36	0xbcaa7c76	-0.0208113
37	0xbebaf8a6	-0.3651783
38	0x3dc686c4	0.09693673
39	0x3eecc127	0.46241114
40	0xbd42fa6d	-0.047602106
41	0x3ea750f2	0.32678944
42	0x3f17f22a	0.5935389
43	0x3f274018	0.65332174
44	0x3ca82068	0.020523265
45	0x3e4e2f85	0.20135315
46	0x3e483f13	0.19555311
47	0x3e12ebee	0.14347813
48	0xbcdc7f86	-0.026916277
49	0x3e37fbd2	0.17967156
50	0x3e389efa	0.18029395
51	0xbe379398	-0.17927396
52	0x3dd0a1bc	0.101870984
53	0x3e820605	0.25395218
54	0xbdb6fad9	-0.08934564
55	0x3822bc40	3.879913e-05
56	0x3ce302e5	0.027711341
57	0xbe262c18	-0.16227758
58	0xbdda791a	-0.106676295
59	0x3cef28cc	0.029194258
60	0xbd29e9d3	-0.041482758
61	0xbe25afd2	-0.16180351
62	0x3da48814	0.08033767
63	0xbe1be290	-0.15223145
64	0xbdb32b7e	-0.0874853
65	0xbe3eba20	-0.18625689
66	0x3e885805	0.26629654
67	0x3e59b7bd	0.21261497
68	0xbd1801ad	-0.037110973
69	0xbe7d49df	-0.24735211
70	0x3ee1e03b	0.44116387
71	0x3ef90ff5	0.48644987
72	0x3d18fd29	0.037350807
73	0xbd6c9d01	-0.057766918
74	0xbe58394f	-0.21115611
75	0xbdf57acf	-0.119863145
76	0x3c4678c8	0.012113757
77	0xbef7389b	-0.48285374
78	0x3d8a337f	0.06748103
79	0x3dcbb8f9	0.0994739
80	0x3d25d223	0.040483605
81	0xbe0101c3	-0.12598328
82	0xbe08b2fb	-0.13349526
83	0x3e601d47	0.21886168
84	0xbd81b8c7	-0.063340716
85	0xbe40edc1	-0.18840696
86	0xbe7c72a6	-0.2465311
87	0x3d2e7b49	0.042598043
88	0x3c5e88e6	0.013582444
89	0x3d28d86b	0.041222017
90	0x3cce29f8	0.025166497
91	0xbd632ee3	-0.055464637
92	0x3c63743b	0.013882692
93	0x3d6ce6ef	0.057837423
94	0xbdc365eb	-0.09540924
95	0xbcad8a6a	-0.021184165
96	0xbdd5ca4b	-0.10438975
97	0x3d151b1a	0.0364028
98	0x3e4ee6a3	0.20205168
99	0xbe06dcb2	-0.13170126
100	0x3d87d71e	0.06632827
101	0x3dd04d37	0.101709776
102	0x3be6c5bd	0.007042615
103	0xbc254aaf	-0.010088607
104	0x3ed75aed	0.42061558
105	0x3f193f17	0.5986189
106	0x3ef6573f	0.48113438
107	0x3d239d7c	0.03994511
108	0x3d468ad7	0.04847225
109	0x3f01c705	0.50694305
110	0xbe583b4d	-0.21116371
111	0x3e0782df	0.13233517
112	0xbe64ce52	-0.2234433
113	0xbcf43333	-0.02980957
114	0x3ee2ffcd	0.44335786
115	0xbe80e425	-0.2517406
116	0x3d80c224	0.062870294
117	0xbbbb6604	-0.0057189483
118	0x3ec98209	0.3935702
119	0xbf040b9f	-0.5158023
120	0xbd06475e	-0.032782905
121	0x3e3d2e4f	0.18474697
122	0x3e3f3322	0.1867185
123	0xbe3f02e0	-0.1865344
124	0x3ddaeb93	0.106894635
125	0x3e85b942	0.26117903
126	0xbdbc526a	-0.09195407
127	0x38d067d4	9.9375524e-05

decoder.4.bias f4 [16]
0	0xbd2363f3	-0.03989024
1	0x3e19e27f	0.15027808
2	0x3db4662b	0.088085495
3	0xbcbbc9fc	-0.022923462
4	0x3db14c2f	0.08657109
5	0xbdf09662	-0.11747433
6	0xbe96c1ec	-0.29444826
7	0x3e2fb2a1	0.17157985
8	0xbdc9a98d	-0.09846792
9	0x3dd1910b	0.10232743
10	0x3e48877e	0.19582936
11	0xbd85bb29	-0.065298386
12	0xbe23ab06	-0.15983209
13	0xbe52d378	-0.20588481
14	0xbdec7b36	-0.11546938
15	0xbe9b78b8	-0.3036554

decoder.6.weight f4 [3, 16]
0	0x3e263c0b	0.16233842
1	0xbe448296	-0.1919044
2	0xbde8503b	-0.11343428
3	0xbca6a65b	-0.020342996
4	0xbe9a2353	-0.30105075
5	0x3db05969	0.08610804
6	0x3f28be98	0.65915823
7	0xbe4d26ff	-0.20034407
8	0x3e6c7122	0.23090032
9	0xbe9166e4	-0.28398812
10	0xbe6d87af	-0.2319629
11	0x3e66f410	0.2255404
12	0x3eb0119b	0.34388432
13	0x3ee13f7f	0.43993756
14	0x3ec3737d	0.38174048
15	0x3f2afc60	0.66791344
16	0x3d2605f0	0.040533006
17	0x3dcf832a	0.101324394
18	0xbd26db7d	-0.040736664
19	0xbe5b58a3	-0.21420531
20	0x3cb14425	0.02163894
21	0xbd852318	-0.06500834
22	0xbdabe284	-0.08392814
23	0x3e16880b	0.14700334
24	0x3e62641d	0.22108503
25	0x3e01d4bf	0.12678812
26	0x3d620316	0.055178724
27	0x3d836c2e	0.06417118
28	0x3e3e67e4	0.18594319
29	0x3cab9af2	0.020947907
30	0x3bc20ea8	0.0059221573
31	0xbd83fd88	-0.064448416
32	0x3e6df450	0.23237729
33	0x3e0d28db	0.13785116
34	0x3de79f99	0.11309738
35	0xbe3a624b	-0.18201558
36	0xbe8c757d	-0.27433386
37	0xbe05329f	-0.13007592
38	0x3d5f7c5b	0.054561954
39	0xbc2409d7	-0.010012112
40	0xbea42ecc	-0.32066953
41	0x3e5a42dc	0.21314567
42	0x3e175d51	0.14781691
43	0x3e8ecca5	0.27890506
44	0xbbb83fe1	-0.0056228493
45	0xbe131102	-0.14361957
46	0x3d78ddd5	0.06075843
47	0xbc7a347c	-0.015271302

decoder.6.bias f4 [3]
0	0xbef62807	-0.48077413
1	0x3d273432	0.04082126
2	0x3ccd184b	0.025035998
