autoencoders/best_models/best_model_bone14.pth (torch, 8015 bytes, 16 tensors)

encoder.0.weight f4 [16, 3]
0.81546944 0.64230496 -0.30297726 0.95313644 -0.37521476 -0.2600456 -0.08818135 0.77276665
0.054132823 0.10048757 0.2392928 -0.6694289 0.45706597 0.21746969 -0.06324928 -0.48028487
0.3905112 0.029120117 0.16200149 0.18934362 -0.57918686 0.22872654 -0.3563264 -0.014643738
-1.6365004 -0.11501663 -0.46587417 -0.3198104 0.8242622 -0.2056132 -0.057141528 -1.2451605
0.30819583 1.2362514 -0.08640909 -0.47213665 0.58727396 0.006850616 0.109989576 0.7491957
0.06941166 0.29001412 -0.14656495 0.3014782 0.17705038 0.1557978 0.20522243 -0.58448696
00000000: 9bc2 503f 196e 243f d61f 9bbe c000 743f
00000010: 261c c0be b224 85be 6c98 b4bd 09d4 453f
00000020: 61ba 5d3d 6dcc cd3d 2c09 753e b15f 2bbf
00000030: 8d04 ea3e 60b0 5e3e d788 81bd e6e7 f5be
00000040: 16f1 c73e 508d ee3c b8e3 253e 4be3 413e
00000050: 9745 14bf 4a37 6a3e 6a70 b6be 4aec 6fbc
00000060: d878 d1bf d78d ebbd 0f87 eebe 30be a3be
00000070: d902 533f 448c 52be 3c0d 6abd 6b61 9fbf
00000080: d8cb 9d3e 7c3d 9e3f 40f7 b0bd e5bb f1be
00000090: 9657 163f 227b e03b 3742 e13d 4acb 3f3f
000000a0: b327 8e3d bb7c 943e 1f15 16be 5a5b 9a3e
000000b0: b24c 353e 7589 1f3e d425 523e f0a0 15bf

encoder.0.bias f4 [16]
0.3035724 0.5515389 -0.055427708 0.1523845 0.40025562 -0.1526669 -0.26442283 0.25877774
-0.24653292 -0.1260015 0.018898519 0.39270195 0.104226604 0.07816466 -0.032442924 0.1987905
00000000: d76d 9b3e a731 0d3f 2a08 63bd af0a 1c3e
00000010: 4eee cc3e b654 1cbe 6e62 87be 847e 843e
00000020: 2073 7cbe 8a06 01be 11d1 9a3c 3b10 c93e
00000030: c274 d53d cb14 a03d dfe2 04bd bd8f 4b3e

encoder.2.weight f4 [8, 16]
0.04945546 0.84135437 0.36440274 0.080002315 0.1285005 -0.12410967 0.21258685 0.093703896
-0.35251424 -0.46525854 0.445116 0.5246147 -0.009826269 0.23315798 -0.36889195 -0.26949
0.24856977 -0.18834361 0.22600545 -0.1287091 -0.096301526 -0.04888435 0.34871694 -0.28223345
0.16947965 -0.12410229 0.13887975 -0.060475856 0.10016211 0.007108299 -0.36894387 -0.0075620543
-0.21195309 0.20521519 0.27676827 -0.024506912 -0.121496305 0.25216436 -0.03567332 0.1545205
0.026035449 0.22333038 0.2505005 -0.6256213 -0.08934306 -0.09712562 0.1979208 -0.026746485
0.91794825 0.07277594 0.22223815 0.28025472 0.39098424 -0.23053138 -0.23087434 -0.12400979
-0.3320309 -0.08433501 -0.00053827 0.23620199 0.10851035 -0.32573467 -0.24720284 0.2814495
0.14714414 -0.16073808 -0.06987707 0.1417133 -0.10032176 -0.2156218 0.010853746 0.27909112
-0.082423255 -0.2534842 0.2626005 -0.40201735 0.16397147 0.2052693 0.16631822 0.10486626
-0.02707671 -0.31258363 -0.14887066 0.27707702 -0.27644488 0.135882 0.15280645 0.42514172
-0.26122534 -0.20523708 0.1744008 -0.06966316 0.40456167 0.2918552 0.43886474 0.17222077
0.14946122 0.4794632 0.18778166 0.060005914 0.1727161 0.2822122 0.02660456 0.6904995
-0.21350262 -0.43535262 0.52078277 0.33177292 -0.40669477 0.41313505 -0.10410117 -0.22384945
0.4783032 0.4582179 -0.024587473 0.07982004 0.6121155 0.0405827 0.25849137 0.30171546
0.49428633 -0.18182316 0.29076847 0.71117514 -0.26913106 0.07413044 0.20582101 0.41435787
00000000: cf91 4a3d 0063 573f ff92 ba3e 41d8 a33d
00000010: a395 033e 362d febd 5eb0 593e d4e7 bf3d
00000020: bf7c b4be 5e36 eebe 3fe6 e33e 264d 063f
00000030: 5cfe 20bc f7c0 6e3e 68df bcbe 98fa 89be
00000040: 1389 7e3e 26dd 40be f96d 673e 51cc 03be
00000050: bc39 c5bd f53a 48bd 078b b23e e780 90be
00000060: 138c 2d3e 5729 febd 7e36 0e3e 88b5 77bd
00000070: cb21 cd3d bcec e83b 36e6 bcbe 1ccb f7bb
00000080: 3b0a 59be ee23 523e 92b4 8d3e b8c2 c8bc
00000090: 0ed3 f8bd b01b 813e 301e 12bd 9f3a 1e3e
000000a0: 4b48 d53c b8b0 643e 9a41 803e b828 20bf
000000b0: 7ff9 b6bd cce9 c6bd c0ab 4a3e 721b dbbc
000000c0: a8fe 6a3f 8d0b 953d 6692 633e 8c7d 8f3e
000000d0: 162f c83e 6b10 6cbe 536a 6cbe d8f8 fdbd
000000e0: f4ff a9be d5b7 acbd b01a 0dba efde 713e
000000f0: ad3a de3d b2c6 a6be be22 7dbe 261a 903e
00000100: f4ac 163e 8698 24be b61b 8fbd 4b1d 113e
00000110: 7f75 cdbd f6cb 5cbe e9d3 313c 08e5 8e3e
00000120: 86cd a8bd aec8 81be 9373 863e 38d5 cdbe
00000130: 23e8 273e 1e32 523e 534f 2a3e 1fc4 d63d
00000140: facf ddbc f60a a0be 8d71 18be 0add 8d3e
00000150: 2f8a 8dbe a724 0b3e 4b79 1c3e 2dac d93e
00000160: 54bf 85be ab29 52be 2096 323e 8fab 8ebd
00000170: b522 cf3e 0b6e 953e e1b2 e03e a45a 303e
00000180: 5d0c 193e 337c f53e d649 403e c3c8 753d
00000190: 7ddc 303e 1e7e 903e cef1 d93c 93c4 303f
000001a0: 6ea0 5abe 8ae6 debe 0552 053f 24de a93e
000001b0: 4c3a d0be 7086 d33e ff32 d5bd ca38 65be
000001c0: 28e4 f43e 899b ea3e ab6b c9bc b078 a33d
000001d0: 9ab3 1c3f 0c3a 263d fb58 843e 737a 9a3e
000001e0: 1913 fd3e da2f 3abe 9bdf 943e 930f 363f
000001f0: 8ccb 89be b3d1 973d bec2 523e b726 d43e

encoder.2.bias f4 [8]
0.6454699 -0.2186458 -0.015215413 0.295549 0.02146043 -0.30633116 0.52737504 0.3637065
00000000: 843d 253f afe4 5fbe 114a 79bc 3352 973e
00000010: c9cd af3c 70d7 9cbe 0d02 073f bd37 ba3e

encoder.4.weight f4 [4, 8]
0.028199462 0.17974941 -0.32894424 -0.022112206 -0.006240251 -0.23676567 0.18098259 -0.23866762
-0.46217573 0.043380912 0.2949069 0.087407924 -0.061583877 0.15027893 0.078293934 -0.12120765
-0.20578517 -0.17170846 -0.51540166 0.48247266 -0.47548926 -0.15832219 0.22884564 0.35577706
0.53879726 -0.987929 -0.50185496 0.2248058 -0.034472972 -0.46559465 0.1690143 0.55383456
00000000: 8f02 e73c 3b10 383e 616b a8be a824 b5bc
00000010: 057b ccbb b372 72be 8053 393e 4965 74be
00000020: 4ca2 ecbe 2fb0 313d 0afe 963e ed02 b33d
00000030: 603f 7cbd b8e2 193e 9258 a03d b73b f8bd
00000040: 59b9 52be 58d4 2fbe 5df1 03bf a806 f73e
00000050: 5473 f3be 361f 22be 8356 6a3e 6928 b63e
00000060: 9eee 093f eae8 7cbf 9179 00bf 7e33 663e
00000070: 8833 0dbd 6c62 eebe 1612 2d3e 1ac8 0d3f

encoder.4.bias f4 [4]
-0.028844284 0.015818741 0.13522914 0.27226478
00000000: d94a ecbc 4e96 813c 8279 0a3e 4a66 8b3e

encoder.6.weight f4 [2, 4]
-0.456178 -0.87365997 -0.4562954 1.2300552 -0.05231959 0.1309005 -0.4226982 -0.9181322
00000000: 2a90 e9be 2ea8 5fbf 8d9f e9be 7372 9d3f
00000010: 114d 56bd c80a 063e e66b d8be b60a 6bbf

encoder.6.bias f4 [2]
0.42552495 0.027757775
00000000: 68de d93e 4664 e33c

decoder.0.weight f4 [4, 2]
-0.30799228 -0.93405724 0.35938 0.85871977 0.21073999 -0.801621 0.39835384 -0.19843908
00000000: 2ab1 9dbe 601e 6fbf a800 b83e 0fd5 5b3f
00000010: 39cc 573e 0937 4dbf 09f5 cb3e 9d33 4bbe

decoder.0.bias f4 [4]
-0.1876878 -0.18534394 0.24469136 0.14678898
00000000: 3b31 40be cdca 3dbe 5f90 7a3e da4f 163e

decoder.2.weight f4 [8, 4]
-0.56917 0.18342616 -0.30516532 0.07857895 -0.5818369 0.1875835 -0.30818108 0.08386223
-0.3160526 -0.32701704 0.5126689 0.713616 -0.6726785 -2.081423 0.17116016 0.7160491
0.88583034 -0.19136065 -0.13512811 -0.3849555 -0.5716536 -0.9051874 1.044338 -0.42820936
0.13028954 0.62368816 0.45698693 -0.20861591 0.42724067 -2.1727788 -0.060193997 -0.3846249
00000000: 20b5 11bf 11d4 3b3e a13e 9cbe 00ee a03d
00000010: 43f3 14bf e415 403e e9c9 9dbe f6bf ab3d
00000020: a5d1 a1be c76e a7be 453e 033f 8aaf 363f
00000030: a834 2cbf 0936 05c0 9c44 2f3e fe4e 373f
00000040: c7c5 623f 0cf4 43be 065f 0abe e318 c5be
00000050: e457 12bf 5dba 67bf deac 853f 423e dbbe
00000060: 9f6a 053e 07aa 1f3f 31fa e93e 699f 55be
00000070: 4abf da3e cf0e 0bc0 fb8d 76bd 8eed c4be

decoder.2.bias f4 [8]
-0.10488993 -0.10730778 0.004514239 0.9971004 -0.1720169 0.31967762 -0.17408615 1.0609436
00000000: 88d0 d6bd 2ec4 dbbd 2eec 933b f941 7f3f
00000010: 3325 30be c9ac a33e a443 32be 00cd 873f

decoder.4.weight f4 [16, 8]
-0.42205992 -0.6253572 0.7649766 -0.15422755 0.2690292 0.102555916 -0.127122 -0.72416556
0.07507716 0.07514241 -0.10033282 -0.089451164 -0.2216365 -0.15847403 -0.088321015 -0.314437
-0.4351615 -1.1601748 0.18893509 -0.3800745 0.09739479 0.087225944 -0.3677374 1.1207823
0.072670735 0.07273719 -0.08210366 -0.07143574 -0.22802164 -0.14682503 -0.08628453 -0.3136798
0.06836338 0.068421476 -0.10764037 -0.087068304 -0.20360123 -0.15348595 -0.08843379 -0.28434193
0.06917816 0.06923789 -0.10112801 -0.082719766 -0.2094198 -0.15141103 -0.08776507 -0.29093948
0.06665614 0.066712156 -0.112574086 -0.088099025 -0.19800803 -0.15379505 -0.08953443 -0.27527857
-0.01026757 -0.32195914 0.22302231 0.6387867 -0.25316948 0.11221613 -0.05956397 0.319625
0.6667269 0.6318439 0.2630953 -0.10571812 -0.023483235 0.35323757 0.2641307 0.13210076
-1.1376208 -0.70501673 -0.27845153 0.96214885 -0.52240163 0.2830182 0.13798591 1.118314
0.075315386 0.075389214 -0.064417385 -0.05669955 -0.2481743 -0.1423475 -0.0878724 -0.33361593
-0.21179438 0.09086241 0.7379325 -0.711887 0.85771096 0.15238607 0.40781888 0.689871
-0.15744175 0.25951567 0.46869436 0.24588992 -0.24022447 -0.18756731 0.18932883 -0.044580836
0.21230997 0.37830526 0.45218256 -0.61674327 -0.06043109 0.59464604 0.24482782 -0.074134
0.07000477 0.070063375 -0.11521932 -0.09614051 -0.20086417 -0.15912952 -0.08898608 -0.28625035
0.29409963 0.47265857 0.2189662 -0.27199078 0.13415404 0.3311039 0.19023302 -0.21746114
00000000: 3d18 d8be 6917 20bf 82d5 433f d4ed 1dbe
00000010: 32be 893e d608 d23d 452c 02be ea62 39bf
00000020: 0ec2 993d 44e4 993d 4b7b cdbd 2c32 b7bd
00000030: aef4 62be 0447 22be a6e1 b4bd e3fd a0be
00000040: 7dcd debe 9c80 94bf 3378 413e 2099 c2be
00000050: eb76 c73d 84a3 b23d 1448 bcbe cb75 8f3f
00000060: 65d4 943d 3cf7 943d f725 a8bd e74c 92bd
00000070: 817e 69be 4d59 16be f2b5 b0bd a49a a0be
00000080: 1a02 8c3d 8f20 8c3d 8e72 dcbd de50 b2bd
00000090: d77c 50be 6c2b 1dbe c61c b5bd 4495 91be
000000a0: 47ad 8d3d 98cc 8d3d 341c cfbd fb68 a9bd
000000b0: 2572 56be 7e0b 1bbe 2cbe b3bd 05f6 94be
000000c0: 0483 883d 62a0 883d 3e8d e6bd 436d b4bd
000000d0: 9ec2 4abe 737c 1dbe d45d b7bd 50f1 8cbe
000000e0: 4f39 28bc d4d7 a4be f65f 643e 8687 233f
000000f0: 6e9f 81be 92d1 e53d 59f9 73bd e3a5 a33e
00000100: 9dae 2a3f 86c0 213f 6db4 863e be82 d8bd
00000110: ea5f c0bc 8edb b43e 243c 873e 6c45 073e
00000120: 8f9d 91bf fa7b 34bf 3391 8ebe 634f 763f
00000130: 1dbc 05bf c3e7 903e 2e4c 0d3e ea24 8f3f
00000140: f43e 9a3d a965 9a3d 43ed 83bd ca3d 68bd
00000150: 6721 7ebe 8bc3 11be 72f6 b3bd b5cf aabe
00000160: a0e0 58be 1216 ba3d 25e9 3c3f 3a3e 36bf
00000170: f292 5b3f 180b 1c3e a3cd d03e 639b 303f
00000180: 6938 21be 3ddf 843e b5f8 ef3e 91ca 7b3e
00000190: 67fd 75be a511 40be 6bdf 413e 659a 36bd
000001a0: c967 593e 3ab1 c13e 7984 e73e e3e2 1dbf
000001b0: 9786 77bd b93a 183f 25b4 7a3e 91d3 97bd
000001c0: a95e 8f3d 637d 8f3d 1bf8 ebbd 51e5 c4bd
000001d0: 56af 4dbe d9f2 22be 553e b6bd 688f 92be
000001e0: 3a94 963e 4e00 f23e ad38 603e 6042 8bbe
000001f0: ad5f 093e 7386 a93e 72cc 423e 22ae 5ebe

decoder.4.bias f4 [16]
0.18385614 -0.042503323 0.33713743 -0.041068193 -0.038673926 -0.03910346 -0.037714556 0.063978635
-0.33169982 0.4947687 -0.04263747 0.07050889 -0.096741825 -0.050509494 -0.0396952 -0.046972264
00000000: c944 3c3e f717 2ebd 479d ac3e 1f37 28bd
00000010: 8d68 1ebd f32a 20bd 947a 1abd 3b07 833d
00000020: 8fd4 a9be 5352 fd3e a1a4 2ebd f766 903d
00000030: 9420 c6bd 0be3 4ebd 6f97 22bd fd65 40bd

decoder.6.weight f4 [3, 16]
0.1256762 -0.44620132 0.1895109 -0.2619962 -0.37465048 -0.3346099 -0.3978072 0.22647303
-0.36438808 0.16077611 -0.2334057 0.10870236 0.039349787 0.05895469 -0.47976968 -0.33202025
-0.28101784 -0.5690118 1.026546 -0.612253 -0.54116 -0.54722685 -0.60042465 -0.47782996
-0.18946989 0.2942096 -0.8571937 0.52541447 -0.8875875 -0.19221792 -0.48778707 -0.13820496
-0.26735845 -0.47817585 0.5787269 -0.44226494 -0.17790174 -0.2281968 -0.074546605 0.38896453
-0.45013565 1.2843999 -0.6454024 -0.30488363 0.039044924 -0.25011244 -0.23763089 -0.12891394
00000000: 43b1 003e 8074 e4be 250f 423e 5e24 86be
00000010: 30d2 bfbe fd51 abbe 63ad cbbe 8ce8 673e
00000020: 1391 babe 7ea2 243e e701 6fbe 589f de3d
00000030: 3e2d 213d 797a 713d 5fa4 f5be 8ffe a9be
00000040: 92e1 8fbe c2aa 11bf dc65 833f 9dbc 1cbf
00000050: 7689 0abf 0f17 0cbf 6eb5 19bf 21a6 f4be
00000060: 6504 42be a4a2 963e 0c71 5bbf 9081 063f
00000070: ef38 63bf c6d4 44be 3abf f9be 9a85 0dbe
00000080: 35e3 88be 77d3 f4be 7227 143f 8d70 e2be
00000090: e02b 36be 6cac 69be e4ab 98bd 5c26 c73e
000000a0: 2e78 e6be 3767 a43f 1739 25bf b519 9cbe
000000b0: 92ed 1f3d bd0e 80be 8355 73be 0402 04be

decoder.6.bias f4 [3]
0.20077492 0.37295532 0.22046344
00000000: f197 4d3e 00f4 be3e 2bc1 613e
