autoencoders/best_models/best_model_bone16.pth (torch, 8015 bytes, 15 tensors)

encoder.0.weight f4 [16, 3]
0	0xbf252627	-0.6451134
1	0x3ea36796	0.31914967
2	0xbf12f4d8	-0.5740485
3	0x3e50d2cb	0.20392911
4	0xbeddb297	-0.43300316
5	0x3a100e0c	0.0005495257
6	0x3b069b04	0.0020539174
7	0xbf2b9ca2	-0.6703588
8	0xbf09c05a	-0.5380913
9	0x3eb5d970	0.35517454
10	0xbf0171ee	-0.5056447
11	0x3a34b7ca	0.0006893842
12	0xbe2c56b2	-0.16829947
13	0x3ea9150c	0.3302387
14	0xbdc6f800	-0.09715271
15	0xbe8af692	-0.27141243
16	0xbcc37bde	-0.023862775
17	0xbf7e92a4	-0.99442506
18	0x3c45aaec	0.012064677
19	0xbd87b60c	-0.066265196
20	0x3e7cda06	0.24692544
21	0x3c50146e	0.012700183
22	0xbde9101f	-0.11380028
23	0x3e88494e	0.26618427
24	0xbd92b076	-0.071625635
25	0xbe53e0ae	-0.20691177
26	0x3c601d17	0.013678811
27	0x3b8b6d3f	0.0042549665
28	0x3ddec337	0.10877078
29	0x3e2602fc	0.16212076
30	0xbd8945b0	-0.06702745
31	0xbf168ea6	-0.58811414
32	0xbeb7ae63	-0.35875234
33	0x3ac31ade	0.0014885326
34	0x3dee6075	0.116394915
35	0x3d865646	0.06559424
36	0x39dbf3ca	0.00041952572
37	0xbead3a1e	-0.33833402
38	0xbe7b0944	-0.24515253
39	0x3c8107e2	0.01575083
40	0xbea3e58f	-0.32011077
41	0x3ed69cc6	0.41916484
42	0xbf2b7d03	-0.6698763
43	0xbf9b1ff5	-1.2119128
44	0x3db1979b	0.086714946
45	0xbd8bf197	-0.06833189
46	0xbd4b8e82	-0.049696453
47	0xbea97a12	-0.33100945

encoder.0.bias f4 [16]
0	0xbe090014	-0.13378936
1	0x3dc6bf7b	0.09704491
2	0x3d92a4fc	0.071603745
3	0x3e11db8c	0.14243907
4	0xbdb81c7e	-0.089898095
5	0xbe7e87de	-0.24856517
6	0x3d768c20	0.060192227
7	0x3d8c6ac8	0.068563044
8	0x3d95757d	0.072978
9	0xbc2414bb	-0.010014708
10	0x3dc61e36	0.09673731
11	0xbca597b9	-0.020213949
12	0x3e1fd95f	0.15610264
13	0xbb85a4fe	-0.0040785065
14	0x3e34642d	0.17616339
15	0xbc6bf6f0	-0.014402136

encoder.2.weight f4 [8, 16]
0	0xbcb3562d	-0.021891678
1	0x3c81064a	0.01575007
2	0xbe698823	-0.22805838
3	0x3c6cb127	0.014446533
4	0x399b8aee	0.00029667414
5	0xbd9c1e46	-0.07622962
6	0x3dca226f	0.09869849
7	0x3dd51271	0.10403908
8	0x3bc9bab5	0.0061562904
9	0x3da82d79	0.08211798
10	0xbddab467	-0.1067894
11	0x3cd33faa	0.025787193
12	0xbdbf4ab5	-0.09340421
13	0x3e1f7e5f	0.1557555
14	0xbd8e3b97	-0.069449596
15	0xbdf61b6a	-0.120169476
16	0xbf10ba41	-0.565342
17	0xbda64ad6	-0.081197426
18	0x3dde0e9c	0.1084263
19	0xbdbee0c2	-0.09320213
20	0xbe54c166	-0.207769
21	0xbd92e810	-0.07173169
22	0xbcf77020	-0.030204833
23	0x3df05b24	0.11736134
24	0x3e45f304	0.19330984
25	0xbe86ffd8	-0.26367068
26	0xbdb45d0e	-0.08806811
27	0xbd9c232e	-0.076238975
28	0x3f29d847	0.6634564
29	0x3e1a6990	0.15079331
30	0x3e2efafa	0.17087927
31	0xbdfa0f9f	-0.12210011
32	0x3f410ae6	0.75407255
33	0xbe8dfd8c	-0.27732503
34	0xbd3d0a2d	-0.046152283
35	0xbeae477b	-0.3403891
36	0x3dadc1d1	0.08484233
37	0x3c8274cf	0.01592484
38	0x3d9ebd2c	0.077509254
39	0x3ee62fac	0.44958246
40	0x3c229837	0.009923986
41	0x3ee1a84b	0.4407371
42	0xbdc3824a	-0.09546335
43	0xbd022d45	-0.031781454
44	0x3ec07905	0.3759233
45	0x3e2cd4b8	0.16878021
46	0xbeb9cb87	-0.36288092
47	0x3df4b4c9	0.119485445
48	0x3dbf6cfc	0.09346959
49	0xbe379ba8	-0.17930472
50	0x3d2329e1	0.03983486
51	0x3c0151d7	0.007893047
52	0x3e0cd18b	0.1375181
53	0x3ef19ba3	0.47189054
54	0x3d025aa6	0.03182473
55	0x3e3b1f21	0.18273593
56	0x3cf04a95	0.029332438
57	0x3ea9011f	0.33008668
58	0xbeb92449	-0.36160496
59	0x3e335f56	0.17516837
60	0xbb5205ff	-0.003204703
61	0x3e6c926f	0.23102735
62	0xbe4da4a9	-0.20082344
63	0x3d4f6b37	0.050639357
64	0xbe590829	-0.21194519
65	0x3e1d48db	0.15359823
66	0x3e902211	0.2815099
67	0x3e83b438	0.25723433
68	0xbd062218	-0.032747358
69	0xbeac017a	-0.33594877
70	0xbe381a8f	-0.17978881
71	0xbe180c93	-0.14848547
72	0x3e027673	0.12740497
73	0xbe253769	-0.16134419
74	0xbe6b5fdd	-0.22985788
75	0x3c98b732	0.018642042
76	0x3e4d77ef	0.20065282
77	0xbe42a9bd	-0.19010063
78	0x3e4c69b6	0.199622
79	0x3e8a62d1	0.27028516
80	0x3dda25e2	0.10651757
81	0xbe686d68	-0.22697985
82	0x3eb9cd76	0.36289567
83	0xbefda887	-0.4954264
84	0x3e552d05	0.20817955
85	0x3f16c041	0.58887106
86	0x3f060eb9	0.52366215
87	0x3e44b1b4	0.19208413
88	0xbe4dcd66	-0.20097885
89	0x3e04cf79	0.1296977
90	0x3ebf596f	0.3737292
91	0xbe0cca2e	-0.13749
92	0xbeb35e9d	-0.35033122
93	0x3de25a35	0.11052362
94	0xbe5df5c6	-0.21675786
95	0xbd0d8f18	-0.034560293
96	0xbea8d24d	-0.32972947
97	0x3c508e63	0.01272926
98	0x3e6a49e8	0.22879755
99	0xbcfb177b	-0.030650845
100	0xbe5f5a31	-0.21811749
101	0xbd13d515	-0.036091883
102	0xbe0debeb	-0.13859527
103	0xbe0ee7aa	-0.1395556
104	0x3e916bfd	0.284027
105	0xbe0d8ec8	-0.13823998
106	0x3eba5894	0.36395705
107	0xbe5e6c37	-0.21720968
108	0x3e572d0b	0.21013276
109	0x3c25fc0e	0.010130895
110	0x3ed08b61	0.40731338
111	0xbea8283a	-0.3284319
112	0x3ceaa597	0.028643413
113	0x3ed8fbef	0.4237971
114	0x3e8eac26	0.27865714
115	0x3ed15438	0.40884566
116	0xbdbba4db	-0.09162303
117	0xbda4a4e6	-0.080392644
118	0xbde88a92	-0.11354555
119	0xbd18df74	-0.037322477
120	0x3e0d3419	0.13789405
121	0xbe3c99fb	-0.18418114
122	0x3eddfcb1	0.4335685
123	0xbdaf34da	-0.085550025
124	0x3f07a5b6	0.5298723
125	0xbd248a18	-0.04017076
126	0xbe89b934	-0.2689911
127	0x3cf9e3eb	0.030504188

encoder.2.bias f4 [8]
0	0xbc217729	-0.00985507
1	0x3dfb0fdd	0.12258885
2	0xbe064af4	-0.1311453
3	0xbdeb9e5d	-0.11504815
4	0x3d0da7f0	0.034583986
5	0xbdba936d	-0.091101505
6	0x3d85ba10	0.06529629
7	0x3df5d415	0.12003342

encoder.4.weight f4 [4, 8]
0	0x3dad0d0b	0.084497534
1	0x3f20de34	0.62839055
2	0xbdedbc2c	-0.116081566
3	0x3da5dbb7	0.08098548
4	0xbf006af6	-0.5016321
5	0x3d73dbc0	0.05953574
6	0x3cc2e429	0.023790436
7	0xbecb004a	-0.39648658
8	0x3e381cb9	0.17979707
9	0x3ead8c6a	0.3389619
10	0x3ee7f5fa	0.45304853
11	0x3f297966	0.66200864
12	0xbdfa57a3	-0.12223747
13	0x3f152372	0.5825721
14	0xbe9d9407	-0.30776998
15	0xbef30625	-0.47465625
16	0x38c225e5	9.257699e-05
17	0xb8076d25	-3.2288157e-05
18	0xb7df7e63	-2.6642525e-05
19	0xb90c9d5d	-0.00013410063
20	0x384f42ff	4.941504e-05
21	0x38fb03bb	0.000119693075
22	0xb804a424	-3.162412e-05
23	0x3448f418	1.8715252e-07
24	0xbe61ba12	-0.22043636
25	0x3e990788	0.29888558
26	0x3ed85e56	0.42259473
27	0x3e3c5571	0.18391968
28	0xbe061165	-0.13092573
29	0x3e5d643c	0.21620268
30	0xbd945706	-0.07243161
31	0x3e38051e	0.17970702

encoder.4.bias f4 [4]
0	0xbd1b4767	-0.03790989
1	0xbdad6b3d	-0.0846772
2	0xb7c83ad9	-2.3869261e-05
3	0x3d56e641	0.05246568

encoder.6.weight f4 [1, 4]
0	0x3ed97e9f	0.42479417
1	0xbf1c3d53	-0.61031073
2	0xb5d2a1f9	-1.569336e-06
3	0xbf8d97c0	-1.1061935

decoder.0.weight f4 [4, 1]
0	0x3d1fab25	0.038981576
1	0xbe8422b3	-0.25807723
2	0x3f22ed8a	0.63643706
3	0x3f04373b	0.51646775

decoder.0.bias f4 [4]
0	0xbf206e22	-0.6266805
1	0x3eb6c056	0.35693616
2	0x3e636233	0.22205429
3	0x3e990410	0.29885912

decoder.2.weight f4 [8, 4]
0	0xbc8232df	-0.015893398
1	0xbdb43c1b	-0.08800527
2	0x3ea0492d	0.3130583
3	0xbc8d910d	-0.01728108
4	0x3eb28291	0.3486524
5	0xbe68249b	-0.22670214
6	0xbd88900b	-0.06668099
7	0xbca42382	-0.020036463
8	0x3e53ff12	0.2070277
9	0x3e9c7001	0.30554202
10	0x3e227d73	0.15868168
11	0x3e11870b	0.14211671
12	0xbf3699ca	-0.71328413
13	0xbcf8f47b	-0.030390015
14	0x3e1d2585	0.15346344
15	0x3c89c3cf	0.016817002
16	0x3e7bff0c	0.24609011
17	0x3f5d41e7	0.86428684
18	0xbefa955d	-0.4894208
19	0xbf80ee8b	-1.0072798
20	0x3e865b46	0.2624151
21	0x3f1a5e50	0.6030016
22	0xbf5015a7	-0.8128304
23	0x3e32113b	0.17389385
24	0xbe5e7f63	-0.21728282
25	0x3ea7cead	0.3277487
26	0xbeee3d67	-0.4653122
27	0xbeec6d22	-0.46177012
28	0xbe85e13a	-0.26148397
29	0x3f5640f2	0.8369285
30	0xbeb8eccf	-0.3611817
31	0xbccd20ef	-0.025040118

decoder.2.bias f4 [8]
0	0xbddafb4c	-0.10692462
1	0xbed7ad9e	-0.42124647
2	0xbe0f4206	-0.1399003
3	0x3ee67909	0.45014217
4	0x3e3bfafb	0.1835746
5	0x3e20dc79	0.15709104
6	0x3e713468	0.23555148
7	0x3e97e655	0.29667917

decoder.4.weight f4 [16, 8]
0	0x39858651	0.0002546781
1	0x3e98e12d	0.29859295
2	0x3de49ac3	0.11162331
3	0xbead9e64	-0.33909905
4	0xbcc03313	-0.023461854
5	0x3d8c3e67	0.0684784
6	0xbd2c7357	-0.042102184
7	0xbda36c8c	-0.07979688
8	0x3dec0fe6	0.1152647
9	0x3c4d1026	0.012516057
10	0xbc3c8649	-0.011506625
11	0xbd636c58	-0.055523247
12	0x3e0dfce4	0.13866001
13	0x3de57e6f	0.11205756
14	0x3ec0e94a	0.37677985
15	0x3ed35510	0.41275835
16	0x3de65629	0.112469025
17	0x3e7a0022	0.24414113
18	0x3e499e45	0.19689281
19	0xbec1ce22	-0.3785258
20	0x3e0c9371	0.1372812
21	0x3e885257	0.2662532
22	0xbe5fbb42	-0.21848777
23	0xbe7c024c	-0.24610251
24	0x3dc610c0	0.096711636
25	0x3d85e196	0.06537168
26	0x3d857e54	0.06518236
27	0x3e18f7ad	0.14938231
28	0xbe4f131e	-0.20222136
29	0xbe6cf75a	-0.23141232
30	0xbe90c9d8	-0.28278995
31	0xbe859336	-0.26088876
32	0x3b2d2a83	0.0026423044
33	0x3e83ad60	0.25718212
34	0x3bb4fd4e	0.0055233603
35	0xbe5ff11a	-0.21869317
36	0x3e6d66bd	0.23183723
37	0xbdf45985	-0.11931137
38	0xbe412fb7	-0.18865858
39	0xbdcdcc07	-0.10048681
40	0xbb1a84ca	-0.0023577684
41	0x3ea1b3f5	0.3158261
42	0x3de67fbc	0.11254832
43	0xbeb4e341	-0.3532963
44	0xbd4e51f2	-0.050371118
45	0x3da94223	0.08264568
46	0xbd0ec96c	-0.03486006
47	0xbd8cb4f9	-0.06870455
48	0xbf0d691e	-0.5523852
49	0xbd408e78	-0.04701087
50	0xbe2260b3	-0.158572
51	0x3dd19f1b	0.10235425
52	0x3f14ebdf	0.5817241
53	0x3f16652c	0.58748126
54	0x3f38f6cd	0.7225159
55	0xbe14ac47	-0.14518844
56	0xbe0e6c27	-0.13908444
57	0x3e1dfe01	0.15428926
58	0xbe712440	-0.23548985
59	0x3df9cc3b	0.12197157
60	0xbdb81825	-0.0898898
61	0x3d872ba7	0.06600123
62	0x3e8aa9ba	0.27082616
63	0xbea2f589	-0.31827953
64	0x3c19c553	0.009385425
65	0x3e66cc0f	0.2253878
66	0x3d79167d	0.060812462
67	0xbe42765d	-0.18990465
68	0xbdc01ef8	-0.09380907
69	0xbcf45c03	-0.02982903
70	0xbdb6207e	-0.08892916
71	0xbdea6b6a	-0.11446269
72	0xbcd07761	-0.02544755
73	0xbd926c68	-0.07149583
74	0xbc0ea900	-0.008707285
75	0x3bf5aa3e	0.007497101
76	0x3ea5e234	0.32399142
77	0x3d652e17	0.055952158
78	0xbd60d545	-0.05489089
79	0x3e4312e7	0.1905018
80	0xbd3dc832	-0.0463335
81	0x3daa3190	0.083102345
82	0xbda0ad1a	-0.078455165
83	0xbe051700	-0.12997055
84	0x3e5038d3	0.20334177
85	0x3e67f567	0.22652207
86	0xbd48700c	-0.04893498
87	0xbe9a41e6	-0.30128402
88	0xbdab7954	-0.08372751
89	0xbed5e50c	-0.4177631
90	0x3e4890b2	0.19586447
91	0xbdf7f3db	-0.121070586
92	0x3ea7c9fc	0.3277129
93	0xbe4d1194	-0.20026237
94	0x3e90a2ae	0.28249115
95	0x3ef449c7	0.47712538
96	0x3d1e0e31	0.038587753
97	0xbdf7fa5d	-0.121083
98	0xbd2fed7c	-0.042951092
99	0x3ea027bd	0.31280318
100	0xbe0397d1	-0.12850882
101	0xbe244b43	-0.16044335
102	0xbd9e4ad9	-0.0772912
103	0x3df4472e	0.11927639
104	0x3c8d2d27	0.017233444
105	0x3e8e29ee	0.27766365
106	0x3da599d9	0.08085985
107	0xbea0494a	-0.31305915
108	0x3c3ed078	0.0116463825
109	0x3d82cc0d	0.06386576
110	0xbddd2e66	-0.107998654
111	0xbe36dec5	-0.17858417
112	0xbdb15e25	-0.08660535
113	0x3e060a31	0.13089825
114	0x3e8e26c4	0.2776395
115	0x3e95f68c	0.29289663
116	0x3d13ce0c	0.036085173
117	0x3e43a85c	0.19107193
118	0x3f55ed5c	0.83565307
119	0x3ebf633c	0.37380397
120	0xbd935b97	-0.07195204
121	0x3ddf2aa4	0.10896805
122	0xbe0d41e4	-0.13794667
123	0x3d0926da	0.033484317
124	0x3f670724	0.9024527
125	0x3e92a667	0.2864258
126	0x3f18e737	0.59727806
127	0x3f6600fd	0.8984526

decoder.4.bias f4 [16]
0	0xbe9fe4b4	-0.31229174
1	0xbd8cd11c	-0.06875822
2	0xbe79c9d7	-0.24393402
3	0xbba4729b	-0.005018545
4	0xbe89bbe8	-0.26901174
5	0xbea5f0ca	-0.3241027
6	0x3e229a5a	0.15879193
7	0x3de4346f	0.111428134
8	0xbe48ded1	-0.19616248
9	0x3d2868ad	0.04111545
10	0xbe02740f	-0.12739585
11	0x3e0ec715	0.13943131
12	0x3e3797bf	0.1792898
13	0xbe94e56d	-0.29081288
14	0xbc1e440c	-0.009659778
15	0x3d963257	0.0733382

decoder.6.weight f4 [3, 16]
0	0xbdad78c0	-0.08470297
1	0x3e14c03f	0.14526461
2	0x3ee34bd9	0.44393805
3	0x3d57ecb0	0.052715957
4	0xbd134cb8	-0.035961837
5	0xbdb9ddd4	-0.090755135
6	0x3dc995ff	0.098430626
7	0xba83eca0	-0.0010065027
8	0xbc642c41	-0.013926567
9	0x3e0d9abe	0.1382856
10	0xbc7696ff	-0.015050649
11	0x3e637448	0.22212327
12	0x3e611d32	0.21983793
13	0xbd470a1a	-0.048593618
14	0xbe431b7c	-0.19053453
15	0xbe3ae8e4	-0.18252903
16	0x3f4372ff	0.76347345
17	0x3ea3481a	0.31890947
18	0x3efcb3b6	0.4935586
19	0xbd32e0cc	-0.043671414
20	0x3f0fef06	0.56224096
21	0x3f4614c7	0.77375454
22	0xbe15b6c4	-0.14620501
23	0xbe884aa2	-0.2661944
24	0x3f03485b	0.5128228
25	0x3d80d7c1	0.06291152
26	0x3ea49ce6	0.32150954
27	0xbe4ad9a3	-0.19809584
28	0xbea2b8ab	-0.31781515
29	0x3f507631	0.81430346
30	0x3df152d2	0.11783375
31	0xbb5fff70	-0.0034179352
32	0xbcfd0dad	-0.03089031
33	0xbe4a696e	-0.1976678
34	0x3ca30b32	0.0199028
35	0x3f06c224	0.52639985
36	0x3dfc308c	0.12313947
37	0xbdf43b40	-0.119253635
38	0xbf445ac9	-0.7670103
39	0xbec06d3c	-0.3758334
40	0x3e8b3c3c	0.27194393
41	0xbe1cd670	-0.15316176
42	0xbd167abb	-0.03673814
43	0xbecb2435	-0.3967606
44	0x3eadf970	0.33979368
45	0x3e852153	0.26001987
46	0xbec3a8f8	-0.3821485
47	0xbebba15c	-0.36646545

decoder.6.bias f4 [3]
0	0x3d93cf5f	0.07217287
1	0xbf27f21d	-0.6560381
2	0x3c900f23	0.017585343
