autoencoders/best_models/best_model_bone6.pth (torch, 7993 bytes, 15 tensors)

encoder.0.weight f4 [16, 3]
-0.042004064 0.11943682 0.20500724 -0.15601923 0.6609532 -1.0266868 0.040932648 -0.0636113
0.087494515 -0.24674416 0.47574145 0.023565888 -0.04149458 0.022273501 0.36093345 0.07632392
-0.13246784 0.13024077 0.13797356 -0.2172259 0.11132522 -0.050835762 0.41151184 0.32268175
0.16099009 -0.25650647 0.13216768 -0.00050543464 0.23944114 0.39783418 -0.020792069 0.05558064
0.10353354 0.10405365 -0.6138568 -0.80932087 -0.21788238 0.41040328 -0.6977838 -0.14414005
0.29600176 0.025325285 -0.22937281 0.46826568 -0.27361488 -0.06550376 0.049693666 -0.5090644
00000000: 740c 2cbd 4b9b f43d 6bed 513e 81c3 1fbe
00000010: 3b34 293f 796a 83bf fea8 273d a446 82bd
00000020: 5330 b33d 80aa 7cbe 6294 f33e 400d c13c
00000030: 39f6 29bd eb76 b63c 45cc b83e b74f 9c3d
00000040: a6a5 07be d65d 053e f148 0d3e 7770 5ebe
00000050: 7afe e33d 2939 50bd aeb1 d23e 8b36 a53e
00000060: 96da 243e d154 83be f756 073e 257f 04ba
00000070: 0f30 753e ecb0 cb3e 2154 aabc 86a8 633d
00000080: 6509 d43d 141a d53d b825 1dbf a72f 4fbf
00000090: 8f1c 5fbe 6120 d23e f6a1 32bf 7399 13be
000000a0: 8b8d 973e f976 cf3c b5e0 6abe 85c0 ef3e
000000b0: 4017 8cbe d626 86bd 968b 4b3d 0b52 02bf

encoder.0.bias f4 [16]
0.04907817 -0.029698258 -0.02790355 0.1590284 0.040651765 -0.0425097 -0.08127846 0.07226693
-0.09302892 0.048153743 -0.0030539834 -0.06684236 0.1288622 0.09295921 0.13766627 0.011911109
00000000: 3106 493d c349 f3bc fc95 e4bc 57d8 223e
00000010: 7782 263d a71e 2ebd 5275 a6bd af00 943d
00000020: f285 bebd dc3c 453d 5725 48bb a6e4 88bd
00000030: 74f4 033e 6661 be3d 63f8 0c3e d026 433c

encoder.2.weight f4 [8, 16]
-0.057327963 0.21252055 -0.1787961 0.369326 0.047100037 -0.094039366 -0.17620453 0.18234281
-0.17325246 -0.01699913 -0.08236449 -0.110817224 0.117159575 0.30355114 0.20267725 0.004956579
0.045183267 -0.10130012 0.020157976 0.22475854 -0.0653194 0.07559143 -0.085238844 0.13836327
-0.027734239 0.06890157 0.028964084 -0.27233744 -0.058265872 0.05489769 0.11937504 0.38618797
0.0363225 0.5315741 -0.026371267 0.037080307 0.04677135 -0.1000864 -0.10202377 0.08537718
-0.11503923 0.05262978 -0.04006041 -0.30618656 0.41984224 -0.031306308 0.08965784 0.23597783
0.07620068 0.17885552 -0.1579152 -0.17453443 0.09266234 -0.0025021296 -0.12396048 -0.01035562
0.09952959 0.13442847 -0.1163413 0.24728137 0.38459334 -0.13227007 0.28776464 0.3660653
-0.14296812 -0.25195622 -0.12600677 0.3137582 -0.006187548 -0.27532214 -0.31800508 0.284476
-0.3395129 -0.018842395 0.008700424 -0.08899323 0.2938684 0.084298894 0.18511356 0.07040838
0.10088659 0.12207888 0.04907109 -0.07518603 0.17151622 0.10879353 0.1495054 0.109883465
0.1844051 0.19669883 0.07055444 -0.056616865 -0.012300152 -0.02418208 -0.37208134 0.13959828
-0.322715 -0.24836518 -0.20926277 -0.008600322 -0.42569968 -0.31422898 -0.17976385 -0.16470723
-0.14838308 -0.52280325 -0.09182861 -0.13779227 0.43022847 -0.09345686 0.11285115 -0.06206428
0.021861276 0.00041661257 0.012589984 -0.0072705215 0.09901045 0.058304578 0.03113376 0.028384939
0.05065004 0.069605924 0.025538705 0.17056704 0.25942156 0.006474354 0.21919626 -0.019904627
00000000: bad0 6abd fd9e 593e 5316 37be 4c18 bd3e
00000010: f8eb 403d b697 c0bd f66e 34be 13b8 3a3e
00000020: 1869 31be c241 8bbc b7ae a8bd 24f4 e2bd
00000030: 5cf1 ef3d 0e6b 9b3e a08a 4f3e cc6a a23b
00000040: 1712 393d 7076 cfbd 5722 a53c 1a27 663e
00000050: 2dc6 85bd aecf 9a3d b491 aebd 1aaf 0d3e
00000060: ea32 e3bc 441c 8d3d 1646 ed3c d06f 8bbe
00000070: 32a8 6ebd 66dc 603d e77a f43d 6eba c53e
00000080: e7c6 143d 3d15 083f 8e08 d8bc 85e1 173d
00000090: 5193 3f3d 19fa ccbd d7f1 d0bd 3bda ae3d
000000a0: b099 ebbd 5392 573d 6216 24bd 7cc4 9cbe
000000b0: 90f5 d63e 0b3b 00bd 889e b73d 2ca4 713e
000000c0: 1a0f 9c3d e725 373e 86b4 21be 27b9 32be
000000d0: c1c5 bd3d c5fa 23bb fede fdbd 9eaa 29bc
000000e0: 2bd6 cb3d 9ea7 093e 5944 eebd 5437 7d3e
000000f0: 6be9 c43e ce71 07be e355 933e e96c bb3e
00000100: 3c66 12be 6800 81be eb07 01be eaa4 a03e
00000110: eac0 cabb 06f7 8cbe 90d1 a2be d7a6 913e
00000120: a3d4 adbe 5e5b 9abc 398c 0e3c 1542 b6bd
00000130: eb75 963e e6a4 ac3d 698e 3d3e 4532 903d
00000140: a19d ce3d 7e04 fa3d c4fe 483d 22fb 99bd
00000150: f3a1 2f3e 24cf de3d f217 193e 950a e13d
00000160: b1d4 3c3e 6b6b 493e d97e 903d 16e7 67bd
00000170: 9486 49bc 7f19 c6bc 7281 bebe daf2 0e3e
00000180: e73a a5be 7153 7ebe fb48 56be 5de8 0cbc
00000190: 4ff5 d9be 9fe2 a0be 0414 38be 03a9 28be
000001a0: bcf1 17be 6fd6 05bf a310 bcbd 6b19 0dbe
000001b0: e846 dc3e 4f66 bfbd 811e e73d 1d37 7ebd
000001c0: 6b16 b33c cb6c da39 3846 4e3c 8e3d eebb
000001d0: fec5 ca3d c8d0 6e3d 3a0c ff3c 8887 e83c
000001e0: 6b76 4f3d 8d8d 8e3d 8c36 d13c 20a9 2e3e
000001f0: e7d2 843e d126 d43b fc74 603e 070f a3bc

encoder.2.bias f4 [8]
0.17907953 -0.05133149 0.13719098 0.0060799336 0.19710678 -0.061563917 0.061663423 0.0011117699
00000000: a060 373e f840 52bd cb7b 0c3e 2e3a c73b
00000010: 5cd6 493e 722a 7cbd c992 7c3d cfb8 913a

encoder.4.weight f4 [4, 8]
0.1532281 -0.33028296 0.16752744 0.62423706 -0.46464473 -0.017024577 -0.27776045 0.28868714
-0.15622163 -0.02489203 -0.058641735 0.030179491 -0.24725911 0.42965925 0.067484096 -0.013442852
-0.8043252 0.32008702 0.06694281 0.7197503 -0.13571513 0.040761508 -0.82653344 -0.12454861
0.22960952 -0.17298636 0.26579067 -0.50655437 0.6224552 -0.39989907 -0.1346463 -0.17608796
00000000: d4e7 1c3e d91a a9be 508c 2b3e 00ce 1f3f
00000010: eae5 edbe 2077 8bbc 9e36 8ebe cdce 933e
00000020: 90f8 1fbe 5fea cbbc 5132 70bd fb3a f73c
00000030: 7e31 7dbe 4cfc db3e 1a35 8a3d 683f 5cbc
00000040: 42e8 4dbf 72e2 a33e 5019 893d 8e41 383f
00000050: e8f8 0abe 8af5 263d b297 53bf 5713 ffbd
00000060: c21e 6b3e 5623 31be b715 883e 8cad 01bf
00000070: 3959 1f3f 92bf ccbe b8e0 09be 6750 34be

encoder.4.bias f4 [4]
0.08642842 -0.055624105 -0.08467781 0.18195057
00000000: 6201 b13d 1ad6 63bd 8f6b adbd 4051 3a3e

encoder.6.weight f4 [1, 4]
0.70903003 -0.3834121 0.5440468 0.6993645
00000000: fe82 353f 974e c4be a746 0b3f 8d09 333f

decoder.0.weight f4 [4, 1]
0.47810423 -0.10564958 0.33713093 -0.0009869124
00000000: 14ca f43e cf5e d8bd 6d9c ac3e 495b 81ba

decoder.0.bias f4 [4]
-0.35305637 -0.8513862 -0.13053453 -0.46736562
00000000: cec3 b4be 72f4 59bf d8aa 05be 8c4a efbe

decoder.2.weight f4 [8, 4]
-0.36652794 -0.12838107 -0.20759986 -0.13153748 0.80528694 0.044480648 0.7030939 0.15686618
0.09070166 -0.07568827 0.53001624 -0.11892272 -0.2529437 -0.94471014 -0.3322658 -0.3371547
-0.14430659 -0.72126776 0.0046817167 -0.41184428 0.2708866 0.25350285 0.62683046 0.0838803
0.54713345 -0.049364876 0.9151584 -0.07144923 -0.1941559 -0.17670721 -0.2069071 -0.093134336
00000000: 8da9 bbbe 5476 03be 0f95 54be c3b1 06be
00000010: 4927 4e3f 5731 363d f6fd 333f 87a1 203e
00000020: cbc1 b93d 7402 9bbd 25af 073f c18d f3bd
00000030: d681 81be 86d8 71bf be1e aabe 8a9f acbe
00000040: 1bc5 13be 01a5 38bf 1669 993b 41dd d2be
00000050: a6b1 8a3e 20cb 813e f677 203f 6fc9 ab3d
00000060: f010 0c3f d332 4abd d247 6a3f f953 92bd
00000070: ced0 46be bcf2 34be 74df 53be 37bd bebd

decoder.2.bias f4 [8]
0.19238058 -0.027272053 -0.042602092 0.43395585 0.37402016 -0.07560534 0.008038694 0.14765723
00000000: 6aff 443e a469 dfbc 887f 2ebd 762f de3e
00000010: 927f bf3e f9d6 9abd bab4 033c 7533 173e

decoder.4.weight f4 [16, 8]
0.27891243 0.033510208 0.50858504 -0.09602472 0.084745534 0.34036407 0.40859905 -0.36744687
0.07302317 0.21362269 0.61553264 -0.15753931 -0.054166846 -0.08700809 0.25429773 0.12892166
-0.046805404 -0.06835994 0.011605713 -0.049400523 -0.017556217 0.0013908703 -0.030934636 -0.025889194
-0.15496255 0.5927549 -0.25187516 -0.104369566 -0.1767141 -0.36501127 0.28305104 -0.070614934
-0.18722032 -0.1221479 0.84360784 -0.029934382 -0.09638527 0.5859656 0.63174367 0.08101377
0.08828933 -0.022489782 -0.02722796 0.09089351 -0.097808145 -0.010181794 -0.039455913 0.054728936
-0.029975405 -0.13813409 -0.112927005 -0.15825559 -0.22103912 -0.040596113 -0.19573523 -0.022133831
0.20396706 -0.064521916 -0.043865528 0.5427254 0.45556244 -0.055616356 -0.14801355 0.12748756
-0.051734347 -0.1603096 -0.10987256 -0.21484758 -0.27212775 -0.032856498 -0.19889106 -0.037350908
0.08870254 -0.19336718 -0.06124075 0.1313871 0.11206247 -0.11248936 -0.115473405 0.055503573
0.1734595 -0.23082069 -0.07302262 0.5013803 0.33589804 -0.18899854 -0.1411736 0.13809061
-0.06132374 0.40833887 0.22039028 -0.050492074 -0.1851811 0.035674874 0.365986 0.10432687
0.030104714 -0.08950353 0.5480704 0.2762313 0.24805659 -0.19885045 -0.0028436454 -0.20666122
0.25302458 -0.49407598 -0.16488302 0.47535113 0.2763428 -0.30295792 -0.30719364 0.17673898
0.15468885 -0.22932842 -0.060313657 0.29264724 0.26533166 -0.15472443 -0.13985951 0.11573625
0.07641912 -0.21127832 -0.055748187 0.13171151 0.085601114 -0.10983015 -0.055373147 0.052062195
00000000: 9ccd 8e3e 0042 093d a132 023f 9ca8 c4bd
00000010: 118f ad3d 3344 ae3e e533 d13e ff21 bcbe
00000020: 2c8d 953d e8bf 5a3e 8c93 1d3f fc51 21be
00000030: 0ede 5dbd 4c31 b2bd 5033 823e 0a04 043e
00000040: 06b7 3fbd 4c00 8cbd e325 3e3c 3458 4abd
00000050: 0ed2 8fbc dd4d b63a a26a fdbc 9315 d4bc
00000060: 81ae 1ebe c9be 173f c8f5 80be b6bf d5bd
00000070: 8bf4 34be c2e2 babe 11ec 903e 909e 90bd
00000080: afb6 3fbe ae28 fabd aff6 573f f338 f5bc
00000090: a465 c5bd d701 163f f4b9 213f 8cea a53d
000000a0: 09d1 b43d 7e3c b8bc 2c0d dfbc 6026 ba3d
000000b0: a34f c8bd 8ad1 26bc 869c 21bd 732b 603d
000000c0: fb8e f5bc 0673 0dbe 4646 e7bd c10d 22be
000000d0: 1458 62be 1c48 26bd d16e 48be 0252 b5bc
000000e0: bedc 503e 1124 84bd 57ac 33bd 0df0 0a3f
000000f0: 7b3f e93e facd 63bd dd90 17be 198c 023e
00000100: 65e7 53bd 3328 24be dd04 e1bd 0101 5cbe
00000110: 5454 8bbe 8994 06bd 19aa 4bbe 44fd 18bd
00000120: ada9 b53d 0c02 46be 95d7 7abd 578a 063e
00000130: 0281 e53d d260 e6bd 527d ecbd b757 633d
00000140: 5e9f 313e 425c 6cbe e28c 95bd 765a 003f
00000150: d4fa ab3e d588 41be d08f 10be a067 0d3e
00000160: 9a2e 7bbd cb11 d13e fdad 613e c7d0 4ebd
00000170: 1da0 3dbe d11f 123d 8462 bb3e 53a9 d53d
00000180: 299e f63c a04d b7bd 574e 0c3f 306e 8d3e
00000190: 8c02 7e3e 749f 4bbe 745c 3abb 009f 53be
000001a0: 708c 813e 87f7 fcbe 18d7 28be 3961 f33e
000001b0: ce7c 8d3e 4d1d 9bbe 7c48 9dbe 10fb 343e
000001c0: c166 1e3e 12d5 6abe 740b 77bd dcd5 953e
000001d0: 8dd9 873e 1570 1ebe 5537 0fbe 2107 ed3d
000001e0: a181 9c3d 5859 58be 3658 64bd 62df 063e
000001f0: a34f af3d a1ee e0bd f4ce 62bd 2b3f 553d

decoder.4.bias f4 [16]
-0.12585774 -0.15613194 -0.008058904 0.018696753 0.006915503 -0.0493693 -0.15734111 0.22655492
-0.19284374 0.03557175 0.20491111 0.03613494 0.41382235 0.17169705 0.1279134 0.037260618
00000000: dae0 00be 0de1 1fbe 7e09 04bc ef29 993c
00000010: 729b e23b 7737 4abd 071e 21be 03fe 673e
00000020: d478 45be afb3 113d 38d4 513e 3b02 143d
00000030: 86e0 d33e 5ad1 2f3e bbfb 023e 979e 183d

decoder.6.weight f4 [3, 16]
-0.06990486 0.031090071 -0.12166934 -0.1346205 -0.09615486 0.07628146 0.22089234 -0.09841634
0.34239116 0.1764498 -0.10026559 0.2619648 -0.40958038 -0.10603914 -0.055859953 0.09567348
-0.31186056 -0.269232 -0.08698475 0.24025847 0.076869845 -0.3017906 -0.5588357 0.15649384
-0.6113023 -0.1841974 0.16150911 0.2006369 0.36599475 0.18460537 0.03227251 -0.24457648
-0.4270346 -0.3663868 -0.16888127 -0.12624638 -0.38347057 0.05489973 0.24742003 0.584454
0.18194702 0.36744955 0.4614056 -0.29274312 0.18470053 0.7094508 0.42519906 0.31608447
00000000: 472a 8fbd 9bb0 fe3c c62d f9bd f5d9 09be
00000010: d7ec c4bd 7439 9c3d 9a31 623e 828e c9bd
00000020: e54d af3e 42af 343e 0c58 cdbd 4020 863e
00000030: 85b4 d1be 0c2b d9bd 68cd 64bd 75f0 c33d
00000040: 30ac 9fbe c7d8 89be 1025 b2bd 5106 763e
00000050: f06d 9d3d 4c84 9abe db0f 0fbf ec3f 203e
00000060: 4f7e 1cbf 3e9e 3cbe a562 253e c273 4d3e
00000070: aa63 bb3e 3109 3d3e 2e30 043d 4272 7abe
00000080: 47a4 dabe 0d97 bbbe 36ef 2cbe bb46 01be
00000090: 4156 c4be 8ade 603d ad5b 7d3e c79e 153f
000000a0: 5250 3a3e 5922 bc3e 5b3d ec3e 6de2 95be
000000b0: 2322 3d3e 919e 353f b1b3 d93e d3d5 a13e

decoder.6.bias f4 [3]
-0.3321169 0.49788088 0.070876144
00000000: 3a0b aabe 3eea fe3e 8327 913d
