autoencoders/best_models/best_model_bone13.pth (torch, 8015 bytes, 15 tensors)

encoder.0.weight f4 [16, 3]
000000 76 21 ae b3 53 ab 71 b3 26 13 ce 31 76 4d 06 bf
       -8.108593e-08 -5.6268004e-08 5.997566e-09 -0.52461946
000010 31 94 51 be 1e 9b 6f 3e 7d f4 c8 3c b4 59 3a 3d
       -0.20466687 0.23399016 0.024530644 0.045495704
000020 37 4c 27 bb 0d bc d7 be 8f 11 7f 3f f9 23 3f bf
       -0.0025527605 -0.4213566 0.9963617 -0.74664265
000030 bd 92 27 bf 15 27 26 3f b6 73 33 be 4d e2 b4 bd
       -0.6545828 0.64903384 -0.17524609 -0.08832226
000040 43 71 c7 3c 07 0e af 3c 3a 16 00 b5 84 f7 10 b5
       0.024346 0.021368993 -4.771606e-07 -5.4004363e-07
000050 e2 2e 2c 33 af b0 f9 be 41 d8 a4 3e 05 7b c2 bd
       4.008951e-08 -0.4876761 0.3219624 -0.0949612
000060 48 4c 1e 3e af ed e8 3e 5d 02 8b bd 66 7f 11 3d
       0.15458786 0.45493838 -0.0678756 0.035521887
000070 10 2c a0 b9 5b 9b f1 3a 32 3c 4f bf 6b 81 99 3e
       -0.00030550407 0.001843314 -0.80951226 0.2998155
000080 4d 83 73 be 34 80 12 bf 77 a3 be 3d 4a b7 65 bf
       -0.23780556 -0.5722687 0.09308522 -0.897328
000090 5e 81 a5 be 48 a3 9e bd 7b 3b d9 bc d2 df fe 3a
       -0.32325262 -0.07745987 -0.02651762 0.0019445366
0000a0 21 4d 64 bd 1d 69 cb 3b 8c ab 8e be 95 5a 3d bb
       -0.05573762 0.006207599 -0.27865255 -0.0028893102
0000b0 8a 9d f8 3d 63 6e 9c be 2c 6c 3c 3e 3d 66 9f be
       0.12139423 -0.30552968 0.1840064 -0.3113269

encoder.0.bias f4 [16]
000000 48 6e 13 b2 af 3c 07 bc c3 55 86 b9 92 11 8e 3b
       -8.581601e-09 -0.008254214 -0.0002562237 0.0043355906
000010 94 b2 35 bc 04 76 1d bb 85 47 44 b2 9d db 09 ba
       -0.01108994 -0.0024026642 -1.1424963e-08 -0.000525886
000020 eb a1 18 bc 3d 89 b7 3a b9 a8 f6 bb 8f 00 02 3b
       -0.009315948 0.0014002692 -0.0075274375 0.0019836759
000030 b5 a8 ee bb 4c ad 2b 3b 2d 56 bf bb 08 b8 47 bc
       -0.007283295 0.0026195822 -0.0058391304 -0.012189873

encoder.2.weight f4 [8, 16]
000000 e8 f3 1f af be fa 36 bc e8 81 ee b7 05 6d 55 bd
       -1.4547619e-10 -0.01116818 -2.8432303e-05 -0.052105922
000010 47 a2 39 bd d5 3e 33 bb 50 f1 0b b1 d2 e0 e9 bc
       -0.045320775 -0.0027350683 -2.0364332e-09 -0.028549585
000020 0c b8 e8 bb 5b be 2c 3a 0c 05 2c bd 98 98 06 bd
       -0.007102018 0.00065896445 -0.041997 -0.03286037
000030 02 40 1e bc 5a 19 62 3a c4 65 0d bc 07 9f 9f bc
       -0.009658815 0.00086249935 -0.00863022 -0.01948501
000040 a0 c8 1b 33 9e 05 c5 bb ba 5f c3 3c c6 77 f2 bd
       3.6271217e-08 -0.0060126325 0.023849357 -0.11839251
000050 91 4a 7c 3e 1e 36 84 3e cb 31 55 34 f0 aa 8c 3e
       0.2463782 0.25822538 1.9855285e-07 0.27474165
000060 40 51 0b 3d 81 67 ec 3b d3 4a 91 3e 64 38 ec bd
       0.034013033 0.007214487 0.283774 -0.11534193
000070 30 42 65 3e 41 7d 36 3c cb bc fc bd 41 c6 7c 3e
       0.2238853 0.011138261 -0.12340697 0.24685003
000080 fd 2e fe 33 ab 0b 13 3d 58 74 09 3d 0f 0c 06 3f
       1.1836344e-07 0.0358998 0.03355822 0.5236215
000090 40 23 11 bd d8 16 30 3e d0 ae 85 35 e9 31 e7 bd
       -0.035434008 0.17196214 9.960149e-07 -0.112888165
0000a0 c8 ac 3f be 1d 25 36 bd 9b 4c 33 3e 8d 13 b4 3e
       -0.18718255 -0.044468988 0.17509691 0.35171166
0000b0 8d fc 5a 3d b1 b8 fa bc 03 81 b9 bd ed d5 93 bd
       0.053463507 -0.030605646 -0.0905781 -0.072185375
0000c0 2c 3f 81 31 18 2d c2 b9 37 10 89 b9 61 bf 0c ba
       3.761576e-09 -0.0003703616 -0.00026142757 -0.0005369094
0000d0 9f bb c5 b9 42 26 a2 ba 90 fa 49 b0 b7 27 19 b9
       -0.00037714557 -0.0012371021 -7.3479445e-10 -0.00014606012
0000e0 5a b2 58 ba 4c ba c0 39 ba 70 a5 b9 8c 44 4c b9
       -0.00082663225 0.00036759896 -0.0003155524 -0.00019480492
0000f0 05 f1 02 ba b2 39 ef 39 f9 f7 22 ba 15 a5 e4 b8
       -0.0004995021 0.0004562862 -0.00062167604 -0.00010902636
000100 88 d0 a1 2e 47 12 ed bb fc 81 d5 b8 e2 ab 22 bd
       7.358475e-11 -0.007234845 -0.00010180843 -0.0397147
000110 04 07 0d bd 43 dc ae ba 1c 2e 82 31 3e 3c af bc
       -0.03443052 -0.001334079 3.78874e-09 -0.02139103
000120 85 20 83 bb 75 cc 7a 39 d7 d5 01 bd 98 52 ca bc
       -0.0040016794 0.00023918024 -0.031698074 -0.024697587
000130 20 76 c4 bb 26 75 c4 39 84 87 a9 bb 98 ab 66 bc
       -0.005995527 0.00037471316 -0.0051736254 -0.014078997
000140 fd 19 62 b3 8f c4 cf 3e 93 4e 89 bd d7 b3 e9 3e
       -5.264336e-08 0.4057965 -0.0670444 0.4564502
000150 58 3d 04 3f e1 9f 4c be c2 5b 36 b5 42 1f 8a be
       0.51656103 -0.19982864 -6.793381e-07 -0.26976973
000160 26 83 84 3e cd ea 81 bc 6d 96 67 bc 70 df 00 3f
       0.25881308 -0.015859032 -0.014134985 0.5034094
000170 5f 7a b4 3c a2 91 92 bd 33 f7 7b 3e 73 0f d6 3e
       0.022031007 -0.071566835 0.24606018 0.41808662
000180 42 8c 47 b1 04 d2 d6 bb 0b 0b a7 ba a7 7a a1 bc
       -2.9038039e-09 -0.0065557975 -0.001274438 -0.019711806
000190 5b 56 6e bd 25 f7 a3 bb 40 37 ba b1 4c a3 9b bc
       -0.058187824 -0.005003827 -5.4195937e-09 -0.018998764
0001a0 3a fa 8c bb 7a 6c 5b ba 38 57 93 bc 23 c8 96 bc
       -0.0043022903 -0.0008370351 -0.017985925 -0.01840598
0001b0 c7 c0 c7 bb 3a e8 67 ba ed 17 a7 bb 0b 66 41 bc
       -0.006095979 -0.0008846555 -0.0050992877 -0.011804114
0001c0 1a 25 d2 2f 4c d5 02 bc c9 ff 24 b9 a5 37 17 bd
       3.822514e-10 -0.007985424 -0.00015735546 -0.0369183
0001d0 bf c0 03 bd 28 35 3f bb 47 84 9f 31 19 cc ab bc
       -0.03216624 -0.002917597 4.6425472e-09 -0.020971345
0001e0 a0 17 ad bb 1f 60 5b 3a 8b 2c f5 bc 4a 59 be bc
       -0.0052823573 0.000836851 -0.029928466 -0.023235936
0001f0 62 c9 e5 bb 15 3f 8a 3a 5f dd cd bb 31 5e 62 bc
       -0.007012532 0.0010547364 -0.006282493 -0.013816402

encoder.2.bias f4 [8]
000000 bc c8 7d ba 86 7b 99 bc 0f 45 e3 3a 03 be dc b9
       -0.0009681096 -0.018735658 0.0017339307 -0.0004210324
000010 fd 7f c1 b9 ec 75 19 3b b8 a2 2e 3b 64 c0 97 ba
       -0.00036907187 0.0023416234 0.002664728 -0.0011577723

encoder.4.weight f4 [4, 8]
000000 08 d4 0d be d8 a6 2e be e1 b1 fd 3b 0d 34 5a bc
       -0.13850415 -0.17055833 0.007742152 -0.013318074
000010 f9 48 0b be f9 53 b9 b9 92 77 d3 bd 11 93 04 be
       -0.13602056 -0.00035348514 -0.103255406 -0.12946726
000020 e3 32 62 3e a4 b2 71 3e e1 e8 bf 3e 91 8b bb bb
       0.22089724 0.23603302 0.3748236 -0.0057234247
000030 79 75 70 bd 49 d8 01 3f 39 29 e3 be d4 84 a5 bd
       -0.05870578 0.5072065 -0.44367388 -0.080819756
000040 e8 b4 38 bd 91 73 97 3d d1 14 8c 3e b3 d2 c7 bb
       -0.0450944 0.073950894 0.27359632 -0.0060981154
000050 48 be 9f bd 00 df 7a be 51 01 4f bd af e6 c0 bc
       -0.07799965 -0.2449913 -0.050538365 -0.023547499
000060 8f b6 93 bd 7a e0 bc bd ce de 87 3d 1e 02 0b bb
       -0.07212555 -0.09222503 0.066342935 -0.0021210979
000070 a8 e1 3e bd bf b7 75 3e 32 6c 3b be 31 07 09 be
       -0.04660192 0.23995875 -0.18302992 -0.1338165

encoder.4.bias f4 [4]
000000 13 f6 ca 3d 9c e6 b5 3c 7d 76 e3 3c a8 72 06 3d
       0.09910216 0.02220469 0.02776646 0.03282419

encoder.6.weight f4 [1, 4]
000000 d1 ae 59 bf 0b 06 b1 3e 7a 71 e6 be a7 f2 a1 3e
       -0.85032374 0.34574923 -0.4500845 0.31630442

decoder.0.weight f4 [4, 1]
000000 f4 41 e0 3e a7 ff f5 bd 22 0f fb bd b7 e7 f9 bd
       0.43800318 -0.120116524 -0.12258746 -0.12202399

decoder.0.bias f4 [4]
000000 75 32 86 3d 6a 2e 9f 3c e7 8b 00 3d 4e 2c 53 3d
       0.06552593 0.019431312 0.03138342 0.051555924

decoder.2.weight f4 [8, 4]
000000 14 78 d3 3e 46 ed d2 3e 1e 46 f8 3d 79 04 1e be
       0.4130255 0.4119665 0.12122749 -0.15431394
000010 b4 55 75 be 97 9e 28 bd ea a4 a5 bc a7 0b 19 bd
       -0.23958474 -0.041166868 -0.020220239 -0.03736463
000020 43 84 62 3f a0 bd c3 bd d4 c7 ab bc dc c3 0e bf
       0.88483065 -0.095576525 -0.020969309 -0.5576761
000030 a1 8d af 3e c9 80 cf 3e 7c 4c 93 be 17 1b ee be
       0.34287742 0.40527943 -0.2876929 -0.46505043
000040 62 93 24 3f 91 ee bd be 46 3b 0c bf db 53 c1 bd
       0.6428739 -0.37096074 -0.54777944 -0.09439822
000050 41 ce 61 be a1 2b 58 bd 7c 6b 6c bd 00 c8 4c bc
       -0.22051336 -0.052775983 -0.057719693 -0.012498856
000060 81 7d ca 35 3e 59 0d 36 b1 68 0e 36 cb c9 0d 36
       1.5086699e-06 2.1062583e-06 2.1220587e-06 2.1128096e-06
000070 26 30 84 3f ae ff 93 3c 7c 12 91 3e fa 10 80 be
       1.0327194 0.018066254 0.28334415 -0.25012952

decoder.2.bias f4 [8]
000000 d2 06 3c bd e3 d7 b6 3c fb 7c 6c 3d e0 a1 1b 3d
       -0.04590494 0.02231974 0.05773638 0.037996173
000010 9e 06 85 3d 84 7e 7a 3c 6c 6d 30 b5 ce 7c 2b 3d
       0.06495403 0.015288953 -6.572434e-07 0.04186707

decoder.4.weight f4 [16, 8]
000000 62 a5 58 be 2d 52 a3 bd 58 86 05 3f 6a af 4f be
       -0.21156839 -0.07974658 0.5215812 -0.20281759
000010 d2 48 0b 3e 04 c5 c4 bc 4c e2 3b 35 38 9a dd bd
       0.13601997 -0.024019726 6.9992234e-07 -0.108204305
000020 de 9a 22 bc eb 38 0d 3c 27 85 80 3c ed f0 47 bc
       -0.0099246185 0.008619527 0.015688492 -0.012203437
000030 b9 58 3a bd 20 25 01 3c 3d 10 88 31 8e 64 18 be
       -0.04549477 0.007882386 3.959967e-09 -0.14882109
000040 74 f0 90 be d2 e2 cd be 7e 4a a6 3e 62 8c 14 3f
       -0.2830845 -0.40212113 0.32478708 0.5802671
000050 fe 79 55 3e 26 5f 42 bd e1 d8 6c b5 cf a8 c4 3e
       0.20847318 -0.047454022 -8.823245e-07 0.3841004
000060 8d c0 95 bc 42 e8 49 ba 61 9b 07 be 07 35 9e bc
       -0.018280292 -0.00077021506 -0.13242866 -0.019312395
000070 a4 fc 08 bd f7 84 d3 3a 12 86 1a b3 5c f2 d4 bc
       -0.033444062 0.0016137649 -3.5977855e-08 -0.025994472
000080 40 f2 14 b3 f5 41 11 b3 f2 64 22 35 c9 8b e4 b3
       -3.467926e-08 -3.382043e-08 6.04966e-07 -1.0642504e-07
000090 73 1c 97 b4 24 12 e8 b2 12 2e 02 2c d8 1a 45 35
       -2.814664e-07 -2.7016604e-08 1.8499685e-12 7.342728e-07
0000a0 7d de 13 be 9b 69 3d 3e 57 e4 0a 3d ef 3d 31 be
       -0.14440341 0.18497317 0.033909168 -0.17308782
0000b0 a0 7c ae 3e d6 92 af be cc 1f 88 34 d4 0d 89 bd
       0.34079456 -0.34291714 2.535511e-07 -0.06692091
0000c0 f7 3a a4 bc 0b c9 25 3c 5f e3 e1 bd bb 58 1b bc
       -0.020047648 0.010118733 -0.11029696 -0.009481604
0000d0 b9 1d 4b be 58 27 cd 3b e5 21 92 b3 92 ac 75 3d
       -0.19835557 0.0062607937 -6.80482e-08 0.05997903
0000e0 fc ff 20 3e 37 97 e3 3c ac 0e 9b 3d 9d 13 a8 3e
       0.1572265 0.027782066 0.07571158 0.32827464
0000f0 69 e6 2f 3f b7 72 14 be 6a f0 46 b4 e2 08 ea 3e
       0.68710953 -0.14496885 -1.8527649e-07 0.45709902
000100 19 d6 ac bc 6d 15 38 bb 93 88 95 bd 09 23 eb bc
       -0.021098183 -0.0028088943 -0.0730144 -0.02870323
000110 f4 be 37 bd 5b 40 b2 3a 9f 6e 85 b3 c9 cb b4 bd
       -0.04485984 0.0013599502 -6.213417e-08 -0.088279314
000120 b9 69 06 b5 43 73 a9 35 af 07 0a 36 99 10 34 b5
       -5.0072737e-07 1.2625027e-06 2.0568075e-06 -6.707938e-07
000130 2c 77 3a 35 7f 38 a8 35 5a cd 80 ac 79 e9 1d 36
       6.946382e-07 1.2533418e-06 -3.6607774e-12 2.3530722e-06
000140 40 1a f1 bc 11 70 28 3b e2 df c8 bd 00 54 2d bd
       -0.029431462 0.0025701562 -0.09808327 -0.042316437
000150 d4 ed 2a 39 64 02 25 3b 1e fe 38 b3 e5 19 84 bd
       0.00016301061 0.0025178427 -4.3071957e-08 -0.064502515
000160 6d df aa bc 04 0a 8c ba 32 d2 4e be e9 d1 8f ba
       -0.02085849 -0.0010684137 -0.2019737 -0.0010972592
000170 63 87 19 3d 8e b7 39 3a 4a f2 08 b3 29 26 b6 bc
       0.03748263 0.0007084542 -3.1885328e-08 -0.022234993
000180 ab 1b 6f 3e f2 9f 36 3b 60 10 77 3c b3 55 80 be
       0.23350398 0.002786633 0.015079588 -0.25065383
000190 4f d1 2a 3f e2 c5 b7 bc 2c f5 a0 33 a8 03 90 3d
       0.6672563 -0.022433225 7.495177e-08 0.070319474
0001a0 91 b9 f0 bc 5b db 1c bc 9c 14 bf 3d 4f a3 9f 3c
       -0.02938536 -0.009573783 0.09330103 0.019487051
0001b0 51 c6 a6 3d 76 68 f7 bb ee 0e 60 32 f9 b6 c0 3d
       0.081432946 -0.0075502945 1.3041911e-08 0.09409899
0001c0 68 5e 2e 3e 05 18 db bd dc 56 27 3c 1a d2 f9 3d
       0.170282 -0.10697941 0.01021358 0.12198277
0001d0 5e 8d 3e be 46 91 29 bb e2 90 f6 31 e7 d7 9c 3c
       -0.18608615 -0.0025873943 7.1760136e-09 0.019145919
0001e0 fc 1e b5 be 16 f6 90 be 35 68 51 3f dc 88 e4 bc
       -0.35375202 -0.2831275 0.8179963 -0.02789729
0001f0 c2 36 b5 3e b5 d5 4e 3d 0b 4c 51 35 53 c6 8d bd
       0.3539334 0.050496776 7.7969224e-07 -0.06922593

decoder.4.bias f4 [16]
000000 14 cb d4 3c f2 3f f4 bb 67 70 64 3d 4e 41 9c 3b
       0.025975741 -0.007453912 0.055771258 0.004768527
000010 dc 6e 99 b2 c0 22 2d 3c 2c 72 58 3b 26 e9 53 3d
       -1.7861957e-08 0.010567367 0.0033027036 0.05173602
000020 4c a2 f1 3b dc 6c aa b5 45 7e 3e 3b b8 af 99 3b
       0.0073740836 -1.2697669e-06 0.0029066962 0.0046901368
000030 7c 12 cc 3b ef a3 e6 3b 13 83 22 ba e8 26 4f 3d
       0.0062277894 0.0070385854 -0.0006199341 0.050574213

decoder.6.weight f4 [3, 16]
000000 6b 33 3e be c7 83 28 be 79 ed d6 be 1b c0 93 3e
       -0.18574302 -0.16456519 -0.41978052 0.28857502
000010 39 45 73 35 f4 f9 a8 be 70 cd b4 3e 5f d5 42 bf
       9.0625286e-07 -0.330032 0.35312986 -0.7610683
000020 74 18 a7 3e c5 fe 9d b7 1a 6f 05 3e d6 31 77 3e
       0.32635844 -1.8834495e-05 0.13030663 0.24140105
000030 9d 8e 3d 3d ac ef 8f 3e b1 71 82 bd 69 e4 0e bf
       0.046278585 0.28112543 -0.06369341 -0.55817276
000040 fd 4d 15 3e dd 9f c5 bd ca f8 16 3f fd 71 66 3d
       0.14580531 -0.09649632 0.5897337 0.05626105
000050 51 b0 be 35 9b c7 de bd 5d 73 56 be db 60 92 3e
       1.4207418e-06 -0.108779155 -0.20942445 0.2858952
000060 07 46 1b be f9 b5 b9 b7 6f dd 5b be 3f 17 f3 3b
       -0.15163432 -2.2138456e-05 -0.21471189 0.0074185426
000070 a0 82 6f 3e f8 3d d5 3e 7b 1d 04 bd fd 7f 87 3e
       0.23389673 0.4164884 -0.032254677 0.26464835
000080 b7 ba 8c be 0f 6f b8 bd 85 c8 37 3e 0c 71 4c 3e
       -0.27486202 -0.09005558 0.17947586 0.19964999
000090 f8 89 de 32 af 19 ef bd 7d 73 bb 3c 93 d4 cd bd
       2.5906942e-08 -0.11674821 0.022882218 -0.10050311
0000a0 ab 05 47 3d a3 7e 28 37 d7 51 21 bd 3a 43 2b 3e
       0.04858939 1.0043065e-05 -0.03938469 0.16724864
0000b0 43 f4 27 be c2 75 d4 3d bc b1 c5 3c 1b 0b c8 be
       -0.16401772 0.10374023 0.024132602 -0.39070973

decoder.6.bias f4 [3]
000000 9c c1 35 bd 25 01 82 3d 7a 30 b9 bc
       -0.044374093 0.063478746 -0.022606123
