autoencoders/best_models/best_model_bone2.pth (torch, 7993 bytes, 15 tensors)

encoder.0.weight f4 [16, 3]
0	0xbe49fb33	-0.19724731
1	0x3f4e53be	0.8059653
2	0x3e000ad5	0.12504132
3	0x3ddb28da	0.10701151
4	0xbefa3cf8	-0.4887464
5	0xbec68883	-0.38776025
6	0x3d1d80da	0.03845296
7	0xbb727296	-0.0036994568
8	0x3de712ed	0.11282907
9	0xbf33d3ac	-0.7024486
10	0xbe84e50c	-0.25956
11	0xbe401ebf	-0.18761729
12	0xbe46bd4d	-0.1940815
13	0x3e35b090	0.17743134
14	0x3df954d1	0.121743806
15	0xbf8359dd	-1.0261799
16	0xbe1555a6	-0.14583454
17	0x3dd6b1fe	0.10483168
18	0x3f58c099	0.8466888
19	0xbe0877d5	-0.13326962
20	0xbf2d31d5	-0.6765416
21	0xbf45342e	-0.77032745
22	0x3ece867a	0.40336972
23	0xbeb6774f	-0.356379
24	0x3ed49eb7	0.4152734
25	0x3f576c06	0.84149206
26	0x3e40a9cb	0.18814771
27	0x3e188333	0.14893799
28	0x3b1455f9	0.0022634252
29	0x3d8f3b15	0.06993691
30	0xbde342aa	-0.110966995
31	0x3f728f1e	0.9474963
32	0xbe8d5417	-0.27603218
33	0x3e0cb1ea	0.13739744
34	0xbe0d2d97	-0.13786922
35	0x3de3443e	0.110970005
36	0x3ec1a3b2	0.37820202
37	0xbe37066d	-0.17873545
38	0xbd0d2288	-0.03445676
39	0xbe6689a0	-0.22513437
40	0x3f0bab0e	0.54557884
41	0x3ddd7208	0.10812765
42	0xbe4c7277	-0.1996554
43	0x3ea1d475	0.31607404
44	0xbf1138c4	-0.5672724
45	0xbd2c3804	-0.04204561
46	0xbf1847dd	-0.59484655
47	0xbe8640a5	-0.26221195

encoder.0.bias f4 [16]
0	0x3da8b33d	0.08237312
1	0xbb60f523	-0.00343258
2	0xbc80c9a9	-0.015721159
3	0x3d7db09b	0.061936002
4	0x3c876818	0.016529128
5	0x3bdfa064	0.00682454
6	0xbd4253f1	-0.047443334
7	0x3d825a10	0.06364834
8	0xbcf58e75	-0.029975155
9	0xbc3bfa0b	-0.011473189
10	0x3d9de1db	0.07709094
11	0xbcc08c30	-0.023504347
12	0xbd013435	-0.03154393
13	0xb9c404db	-0.0003738765
14	0x3da803dc	0.08203861
15	0xbcf949fe	-0.03043079

encoder.2.weight f4 [8, 16]
0	0x3ce28777	0.027652485
1	0xbb63015a	-0.0034638257
2	0x3d0c2838	0.034218043
3	0xbd77e1d1	-0.06051809
4	0x3d144933	0.03620262
5	0x3cf3a00f	0.029739408
6	0xba8ded27	-0.0010828123
7	0xbe0fd948	-0.1404773
8	0x3d3ec75e	0.04657685
9	0x3c8fdab4	0.01756034
10	0xbdbc4960	-0.09193683
11	0x3c99c055	0.018768469
12	0x3c0ca26a	0.008583644
13	0x3ccc90e3	0.024971431
14	0xbe5c637f	-0.2152233
15	0x3a38604d	0.0007033393
16	0x3e5f405a	0.21801892
17	0xbdaf8eaf	-0.085721366
18	0xbe2e9d97	-0.17052303
19	0x3f0a4b89	0.5402151
20	0x3e5b603a	0.21423426
21	0xbeaa35fa	-0.33244306
22	0x3e3f98f7	0.18710695
23	0xbc911cca	-0.017713923
24	0x3e004286	0.12525377
25	0xbe0632c0	-0.13105297
26	0xbeb3b0a7	-0.35095713
27	0x3e0bb3b3	0.13642769
28	0x3c4d7278	0.0125394985
29	0x3da33706	0.07969479
30	0x3e9c96d6	0.3058383
31	0x3e4df002	0.20111087
32	0xbed3ed28	-0.41391873
33	0xbe95be06	-0.2924654
34	0x3e12ef6b	0.14349143
35	0x3ca25e55	0.019820372
36	0x3c3680c0	0.011139095
37	0xbdda3784	-0.1065512
38	0xbea12baf	-0.3147864
39	0xbceeb30d	-0.029138112
40	0x3cdaf420	0.026727736
41	0xbd3eeddb	-0.046613555
42	0x3ed7f607	0.4217989
43	0xbe587fa5	-0.21142443
44	0xbe1d6dd7	-0.15373932
45	0xbe43aa8c	-0.19108027
46	0xbd195119	-0.037430856
47	0x3e310bea	0.17289701
48	0x3e9dc6cf	0.3081574
49	0xbe1367f7	-0.14395128
50	0xbcf9a22c	-0.030472837
51	0x3cd8ba65	0.026456067
52	0x3e14eeda	0.1454424
53	0x3e7ce7d2	0.24697807
54	0xbe621019	-0.22076453
55	0x3eb6aa2a	0.356767
56	0xbd827931	-0.06370772
57	0xbd3995f3	-0.04530902
58	0x3e6e6a47	0.23282729
59	0xbdde2f6b	-0.10848888
60	0xbdff0ce3	-0.1245363
61	0x3d25eba7	0.04050794
62	0x3f1db26d	0.6160038
63	0xbd2a5de2	-0.04159344
64	0xbe1d933c	-0.15388197
65	0xbda27dc7	-0.079341464
66	0xbe8f3675	-0.27971235
67	0xbdfaeab6	-0.12251799
68	0x3e922e54	0.2855097
69	0xbe99c132	-0.3003021
70	0xbd7d9cd8	-0.061917156
71	0xbc045cef	-0.008078798
72	0x3e9d6e8c	0.30748403
73	0x3d5bb383	0.053637993
74	0xbbc81bc1	-0.006106824
75	0xbe9643eb	-0.29348692
76	0xbe875f64	-0.26439965
77	0x3d8c4f33	0.068510436
78	0x3f464ed6	0.77464044
79	0x3edafb7e	0.42769998
80	0x3cba0343	0.022706633
81	0xba34edcd	-0.000690189
82	0x3d101c94	0.035183504
83	0xbd8d8b94	-0.06911388
84	0xbd00b736	-0.031424724
85	0x3cfab333	0.030603027
86	0x3d2f6a33	0.04282589
87	0xbe1073f8	-0.14106739
88	0x3d5e8ab0	0.05433148
89	0x3c942374	0.018083312
90	0x3e58e77a	0.21182051
91	0x3cd7ad19	0.026327657
92	0x3cbdf893	0.023189818
93	0x3dc36116	0.09540002
94	0xbe9d52ab	-0.30727133
95	0xbcbb9c42	-0.022901658
96	0x3af80050	0.0018920992
97	0x3bf605f2	0.007508033
98	0x3d232d0e	0.03983789
99	0xbc50c689	-0.012742647
100	0x3bb207b7	0.0054330486
101	0x3c0391ba	0.008030349
102	0xbc84b62b	-0.016200146
103	0xbd4a3949	-0.049371038
104	0x3ab172bd	0.0013538223
105	0x3c0f5ed4	0.008750636
106	0xbd098630	-0.033575237
107	0x3c2443e4	0.010025952
108	0x3beb9833	0.0071897744
109	0x3b37e85c	0.002806208
110	0xbcbbbf2e	-0.02291831
111	0xbc403954	-0.011732418
112	0x3e926aa6	0.2859699
113	0x3e8ae51c	0.27127922
114	0xbd137b09	-0.036006007
115	0x3e972a42	0.29524428
116	0xbe586c44	-0.2113505
117	0xbe95d8e0	-0.29267025
118	0xbe0a5c42	-0.13511756
119	0x3e5b2afb	0.21403114
120	0xbef3abc3	-0.4759198
121	0xbd4d75fa	-0.05016134
122	0x3e713eff	0.23559187
123	0xbd12660f	-0.035741862
124	0xbd776d59	-0.060407016
125	0xbe0a3898	-0.13498151
126	0x3f0818b6	0.53162706
127	0xbde52d8e	-0.111903295

encoder.2.bias f4 [8]
0	0xbbbb1066	-0.005708742
1	0x3d0f1be6	0.034938715
2	0x3e0f1e8d	0.13976498
3	0x3d365ee8	0.044524103
4	0x3da17592	0.07883753
5	0xbc8f598b	-0.017498752
6	0xbbb895ea	-0.0056331055
7	0x3da6520e	0.081211194

encoder.4.weight f4 [4, 8]
0	0xbda89e81	-0.08233357
1	0x3de1ff09	0.11034972
2	0x3e30031b	0.17188685
3	0x3dc2f98e	0.09520255
4	0x3ce8f575	0.028437356
5	0x3e7561ed	0.23963137
6	0xbc28d07e	-0.010303615
7	0x3ed5aa8a	0.41731673
8	0xbf11f917	-0.57020706
9	0xbea94eb4	-0.33067858
10	0x3ec4e299	0.3845413
11	0x3d5d05e4	0.053960696
12	0x3e4a9a82	0.19785503
13	0x3c2c1fd4	0.010505635
14	0x3d7a300c	0.061080977
15	0x3e9090cf	0.2823548
16	0x3d88ed7e	0.06685923
17	0x3eb19e2a	0.34690982
18	0x3e82adc0	0.25523186
19	0xbf2585a2	-0.6465703
20	0x3eb6a8f8	0.35675788
21	0xbeef38a2	-0.46722895
22	0xbf04cab9	-0.5187183
23	0x3f1c3e5c	0.6103265
24	0xbe0b95aa	-0.13631311
25	0x3e9c0271	0.30470613
26	0x3e1f65fe	0.1556625
27	0x3f1a7363	0.60332316
28	0x3deeb0f7	0.11654847
29	0xbee6d12a	-0.45081455
30	0x3ec0b191	0.37635472
31	0x3ec1ab76	0.37826127

encoder.4.bias f4 [4]
0	0x3d9a6d40	0.07540369
1	0x3dab4630	0.083629966
2	0x3d8eae30	0.069668174
3	0x3da684b8	0.08130783

encoder.6.weight f4 [1, 4]
0	0xbea8896f	-0.32917354
1	0xbf174f86	-0.5910572
2	0xbf029f76	-0.5102457
3	0xbf0204f9	-0.5078884

decoder.0.weight f4 [4, 1]
0	0xbf43f552	-0.76546204
1	0x3f313621	0.6922322
2	0x3f4f7a05	0.8104556
3	0x3f80e367	1.0069398

decoder.0.bias f4 [4]
0	0xbd83452a	-0.064096764
1	0xbe82d583	-0.25553522
2	0xbe95783e	-0.291933
3	0xbeb9ba05	-0.36274734

decoder.2.weight f4 [8, 4]
0	0x3f3e148c	0.742501
1	0xbe3c5469	-0.18391575
2	0x3f8a198e	1.0789049
3	0x3e6e2989	0.23258032
4	0x3e790710	0.243191
5	0x3bb1ad62	0.00542228
6	0xbe58ef81	-0.21185113
7	0x3f47b5d3	0.78011817
8	0x3f0bf91a	0.54676974
9	0x3ef16646	0.4714834
10	0x3f1ca6dc	0.6119211
11	0x3d42e6a3	0.047583234
12	0x3f066452	0.52496827
13	0x3edec9a4	0.43513215
14	0xbe417d3f	-0.18895434
15	0xbca40d18	-0.020025775
16	0x3ec79fe0	0.38989162
17	0xbed1fc1d	-0.4101266
18	0x3e943001	0.28942874
19	0x3e46c7c8	0.19412148
20	0xbdaaa76d	-0.08332715
21	0xbe55240b	-0.2081453
22	0xbd9a77e9	-0.07542402
23	0xbdaa8e7c	-0.08327958
24	0xbd4c944a	-0.049946107
25	0xbe215914	-0.15756637
26	0xbeb60547	-0.355509
27	0xbf82319f	-1.0171393
28	0x3f6eee12	0.93332016
29	0xbefa9351	-0.48940518
30	0x3e6f01cc	0.23340529
31	0xbf2e90dc	-0.6818979

decoder.2.bias f4 [8]
0	0xbe8c5d0d	-0.27414742
1	0xbe228380	-0.15870476
2	0xbc8d1ef3	-0.017226672
3	0xbd803437	-0.06259959
4	0xbbc31ad3	-0.0059541254
5	0x3e06c763	0.13161997
6	0x3e80a35b	0.2512463
7	0x3ecaad8c	0.3958553

decoder.4.weight f4 [16, 8]
0	0x3ea37ca5	0.31931034
1	0x3d841c37	0.06450694
2	0x3da0edf6	0.078578874
3	0x3e542730	0.20718074
4	0xbe54a25f	-0.20765065
5	0xbcdd11d2	-0.026986036
6	0xbdf82efd	-0.12118337
7	0xbeba08b2	-0.3633476
8	0x3e26e3fd	0.16297908
9	0x3dd8e136	0.105898306
10	0x3e12e86f	0.14346479
11	0xbd312564	-0.04324855
12	0x3b31cf2e	0.0027131545
13	0xbd3e055a	-0.046391822
14	0xbe450410	-0.19239831
15	0xbe9db0e9	-0.30799034
16	0xbd3ef409	-0.04661945
17	0x3e4288eb	0.18997543
18	0x3e5ea1ea	0.21741453
19	0x3f190fc2	0.5978967
20	0xbe84fea6	-0.2597553
21	0x3e46a299	0.19397964
22	0xbecf4b86	-0.40487307
23	0x3e989d6e	0.2980761
24	0xbf1c310a	-0.6101233
25	0xbf39b80b	-0.7254645
26	0xbe18e240	-0.14930058
27	0xbf1400be	-0.5781363
28	0xbe7c8c21	-0.2466283
29	0x3eb12d0d	0.34604684
30	0x3f8794ae	1.0592248
31	0x3f8751b1	1.0571805
32	0x3f5d1e4e	0.86374366
33	0xbf1926f7	-0.5982508
34	0xbea047e7	-0.31304857
35	0xbeaef220	-0.34169102
36	0xbea0bf24	-0.3139583
37	0xbe2de0e0	-0.16980314
38	0x3eaf8751	0.34282926
39	0xbdd40cf6	-0.103540346
40	0x3e4d5c7c	0.20054811
41	0x3e08e8e2	0.13370088
42	0x3e9dfae1	0.30855468
43	0xbf05ae27	-0.5221886
44	0xbe567bcf	-0.20945667
45	0xbe96e5ab	-0.29472098
46	0xbd0f2317	-0.034945574
47	0x3cdea284	0.027177103
48	0x3e0b010e	0.13574621
49	0x3db8f301	0.09030724
50	0x3e081fcc	0.1329338
51	0xbc86084e	-0.016361382
52	0x3b02c5c1	0.0019954296
53	0xbd171275	-0.036882836
54	0xbe22eda4	-0.15910965
55	0xbe8f8c46	-0.28036708
56	0x3e0e942c	0.1392371
57	0xbe16d6d9	-0.14730395
58	0x3ea6c71b	0.3257378
59	0xbe136356	-0.14393362
60	0x3f09ecbf	0.5387687
61	0x3d83a072	0.06427087
62	0xbe86d556	-0.26334637
63	0x3f405990	0.7513666
64	0xbe1ab151	-0.15106703
65	0x3ee281a7	0.44239542
66	0x3f3c54c2	0.7356683
67	0xbd88852d	-0.06666026
68	0x3db29836	0.08720438
69	0x3a4545ec	0.0007525373
70	0xbeae2e2d	-0.34019604
71	0x3e4ada9d	0.19809957
72	0x3e7e83f3	0.24855022
73	0xbe82e1df	-0.2556295
74	0xbe024dc6	-0.1272498
75	0x3f03608f	0.5131921
76	0x3e819314	0.25307524
77	0xbe9b8f17	-0.30382606
78	0x3efbf258	0.4920833
79	0x3f3d5148	0.7395215
80	0xbdad5868	-0.08464128
81	0xbeea5116	-0.4576499
82	0x3eebfe60	0.4609251
83	0x3f4f50cc	0.8098266
84	0x3eb693d2	0.35659653
85	0xbe1940bc	-0.149661
86	0x3e1c9cac	0.1529414
87	0xbe6a978d	-0.22909375
88	0x3eec3c5d	0.46139804
89	0x3e04bc02	0.12962344
90	0x3e45aa7d	0.19303317
91	0x3eb27ac1	0.3485928
92	0x3c5f11ce	0.013615085
93	0x3e54b2f0	0.20771384
94	0xbdf669eb	-0.12031921
95	0x3e73fdd8	0.23827302
96	0xbe379140	-0.17926502
97	0xbeaf4614	-0.34233153
98	0x3e62ece4	0.22160679
99	0xbe6a9039	-0.22906579
100	0x3e98718a	0.29774123
101	0xbe5674da	-0.20943013
102	0x3ecbb917	0.3978965
103	0x3e08ff32	0.133786
104	0x3e224df3	0.15850048
105	0x3e81334f	0.25234458
106	0x3e962005	0.29321304
107	0x3c83080c	0.015995048
108	0x3e794deb	0.2434613
109	0x3eb548f8	0.35407233
110	0xbd56812f	-0.052369293
111	0xbe3df4e0	-0.18550444
112	0xbd482ab0	-0.048868835
113	0xbd9f68f1	-0.07783688
114	0x3ece59cf	0.40302894
115	0xbe9cb2cb	-0.30605158
116	0x3bbebc18	0.0058207624
117	0xbe3b5e9d	-0.18297811
118	0xbe0e0b79	-0.13871564
119	0x3c73d522	0.014882358
120	0xbcd96721	-0.026538434
121	0x3d8bec61	0.06832195
122	0x3db72125	0.08941869
123	0xbd682db2	-0.056684203
124	0x3c10666d	0.008813483
125	0xbd9fea76	-0.07808392
126	0xbe0d9414	-0.13826019
127	0xbe0666cc	-0.13125151

decoder.4.bias f4 [16]
0	0xbd29c9ad	-0.0414521
1	0xbd8c23b6	-0.06842749
2	0xbca1a7a0	-0.01973325
3	0x3ea2e4f0	0.3181529
4	0x3db51b59	0.08843107
5	0xbcf1abcd	-0.029500866
6	0xbd6b8df8	-0.05750844
7	0xbe5e0592	-0.21681812
8	0x3c776ec2	0.01510209
9	0x3e329fd2	0.17443779
10	0x3e4bfc9c	0.19920582
11	0xbddd8647	-0.10816627
12	0x3e4d4f72	0.20049837
13	0x3c2e9af6	0.010657063
14	0xbd68ac9a	-0.05680523
15	0xbd58cbab	-0.052928608

decoder.6.weight f4 [3, 16]
0	0x3f210cdd	0.6291025
1	0x3ef0269e	0.46904463
2	0xbe8f7144	-0.28016102
3	0xbf356663	-0.70859355
4	0xbe03b2c7	-0.12861167
5	0x3ee122ca	0.43971854
6	0x3ec91dd9	0.39280584
7	0x3dcc62f1	0.09979809
8	0x3e07913e	0.13238999
9	0xbce7a285	-0.028275738
10	0xbe91560c	-0.2838596
11	0x3d4d9150	0.05018741
12	0xbd524839	-0.05133841
13	0x3dca2541	0.09870387
14	0x3e68dcaa	0.22740427
15	0xbda3a55b	-0.079905234
16	0x3cf9facb	0.030515095
17	0xbf003196	-0.5007566
18	0xbe05d74b	-0.13070409
19	0x3f04d17a	0.51882136
20	0xbf0b7ad2	-0.54484284
21	0x3e698308	0.2280389
22	0xbed5570d	-0.41667977
23	0xbe988ae8	-0.29793477
24	0x3d77fbdc	0.060542926
25	0x3eb72dbf	0.3577709
26	0x3ed37870	0.41302824
27	0xbe336701	-0.17519762
28	0x3e8b6b3c	0.2723025
29	0xbe271696	-0.1631721
30	0x3e800883	0.25006494
31	0xbeb118aa	-0.3458913
32	0x3c4da456	0.012551388
33	0xbe4717c6	-0.19442663
34	0xbf16ba2b	-0.5887782
35	0x3f6dcaa6	0.9288734
36	0x3c88cce3	0.01669926
37	0x3ce3c88e	0.027805593
38	0xbc99946e	-0.018747535
39	0xbe87ce44	-0.26524556
40	0xbea83a78	-0.32857108
41	0x3cb53ce5	0.022123763
42	0xbd208f44	-0.03919913
43	0xbee4cbfe	-0.44686884
44	0x3ccc77f0	0.024959534
45	0xbf25112e	-0.6447934
46	0xbccdba93	-0.02511338
47	0xbea045c8	-0.3130324

decoder.6.bias f4 [3]
0	0xbe79110a	-0.24322906
1	0x3e4c3326	0.19941387
2	0x3d59475d	0.053046573
