autoencoders/best_models/best_model_bone1.pth (torch, 7993 bytes, 15 tensors)

encoder.0.weight f4 [16, 3]
1.5423009 0.41790262 -0.2006671 0.42879197 -0.28166515 -0.28520298 0.5556185 0.17230423
0.13486107 1.240545 0.09911006 0.08835129 0.037382595 -0.0023782998 0.02968064 0.54314744
0.95019495 -0.58975637 0.7641046 0.42703184 -0.15877938 -0.10258995 0.8285617 0.70761156
0.18220255 0.95682156 -0.17767212 0.23323408 0.0693451 0.36227944 -0.32102823 -0.15996261
0.027811322 0.13325006 -0.8199432 -0.27310303 -0.23679331 0.014731679 0.114063315 0.1327464
-0.87649643 0.2960612 -0.15691921 -0.5117266 -0.3943682 0.0033410296 -0.23408036 -0.40997937
00000000: 1e6a c53f 55f7 d53e ad7b 4dbe 9f8a db3e
00000010: 6a36 90be 2006 92be 043d 0e3f 8570 303e
00000020: 0519 0a3e 2eca 9e3f 37fa ca3d 85f1 b43d
00000030: 7e1e 193d 40dd 1bbb d024 f33c b60b 0b3f
00000040: fa3f 733f 46fa 16bf 5c9c 433f eba3 da3e
00000050: 1097 22be ae1a d2bd 9f1c 543f 0826 353f
00000060: 4e93 3a3e 42f2 743f aeef 35be ead4 6e3e
00000070: ce04 8e3d b17c b93e d05d a4be 3dcd 23be
00000080: 92d4 e33c b472 083e cce7 51bf 29d4 8bbe
00000090: f279 72be 245d 713c 079a e93d acee 073e
000000a0: 1262 60bf 5595 973e 6eaf 20be 8400 03bf
000000b0: a1ea c9be 2df5 5a3b c3b2 6fbe d1e8 d1be

encoder.0.bias f4 [16]
0.19213729 -0.13248041 0.048046377 0.019804634 -0.04193328 0.2460477 0.18413553 -0.0026059563
0.3686813 -0.13536525 -0.0149719 -0.13439724 -0.012725479 0.15440124 -0.10834165 0.12949097
00000000: a3bf 443e f2a8 07be 47cc 443d 543d a23c
00000010: 3bc2 2bbd eef3 7b3e 068e 3c3e b1c8 2abb
00000020: ccc3 bc3e 309d 0abe b34c 75bc 6e9f 09be
00000030: 877e 50bc 5c1b 1e3e 3ae2 ddbd 4899 043e

encoder.2.weight f4 [8, 16]
0.54076517 -0.27994227 0.12368248 0.26051462 0.19831474 0.6570937 0.21121264 0.14735265
0.3312076 -0.31283227 -0.25347567 -0.30029932 -0.20648842 0.23535405 -0.12126708 0.16584323
0.09758301 0.3299728 0.22696768 -0.6090323 0.3876435 0.7266343 0.21894273 0.13674927
0.44700798 0.2117247 0.058052976 -0.23768644 0.016676662 -0.08419444 -0.03765098 -0.18338184
-0.0783629 -0.034919232 -0.019216303 -0.058638673 -7.213665e-05 -0.029275686 -0.03585932 0.0014089148
-0.0016093064 0.0003618033 0.0013016687 -0.02886357 0.0014415142 -0.010728619 -0.010905308 -0.015525319
-0.090805374 -0.03988784 -0.021898258 -0.06774328 -6.5867556e-05 -0.033782825 -0.041314453 0.0017664435
-0.0018256769 0.00043643662 0.0016161193 -0.03276182 0.0017761649 -0.012043548 -0.012186464 -0.017538402
-0.09264223 0.03312835 -0.16186538 -0.10005365 -0.005606271 -0.13687359 -0.07517087 0.019541726
0.016079227 0.016541569 -0.011216094 -0.011268795 0.019479189 -0.046522997 0.047119126 0.20104092
0.13028613 0.11686062 -0.25106257 0.07366163 -0.14513785 0.48405063 0.40749454 0.20715685
-0.027371343 -0.16567744 -0.39101118 0.113403246 -0.58073586 0.31617624 -0.028378824 -0.17387578
0.63214445 -0.30528256 0.086657755 -0.24229018 -0.17970853 0.16111806 0.23062842 0.06695054
-0.15716776 -0.02625819 -0.31056148 -0.15011455 -0.5225068 -0.04602225 -0.21268803 0.7444366
0.34116742 0.07439508 0.5411937 -0.097535 0.09736917 -0.39079338 0.36850205 -0.13887562
0.07775279 -0.1035232 -0.0703949 0.03704671 -0.38361296 0.108688146 0.017744077 -0.029193753
00000000: 966f 0a3f 9854 8fbe 3d4d fd3d 2c62 853e
00000010: 0513 4b3e 4b37 283f 2048 583e 9de3 163e
00000020: 0b94 a93e 8d2b a0be 90c7 81be d5c0 99be
00000030: b371 53be a700 713e e05a f8bd cfd2 293e
00000040: 9ad9 c73d 32f2 a83e 376a 683e 8ae9 1bbf
00000050: 3579 c63e b504 3a3f 8632 603e 0008 0c3e
00000060: 3bde e43e 5cce 583e f5c8 6d3d 1364 73be
00000070: 7f9d 883c 226e acbd ea37 1abd 73c8 3bbe
00000080: ba7c a0bd 7807 0fbd 826b 9dbc 1b2f 70bd
00000090: 1248 97b8 90d3 efbc 39e1 12bd 56ab b83a
000000a0: 5def d2ba 6bb0 bd39 c19c aa3a 4b73 ecbc
000000b0: 31f1 bc3a 17c7 2fbc 2dac 32bc e85d 7ebc
000000c0: 2bf8 b9bd 6f61 23bd fa63 b3bc fdbc 8abd
000000d0: 6022 8ab8 dc5f 0abd 5839 29bd 0288 e73a
000000e0: 8d4b efba 88d1 e439 f7d3 d33a 4231 06bd
000000f0: 34ce e83a 4d52 45bc bca9 47bc b2ac 8fbc
00000100: 36bb bdbd 98b1 073d 0ac0 25be eee8 ccbd
00000110: cfb4 b7bb 9728 0cbe 2ff3 99bd f815 a03c
00000120: 95b8 833c 2f82 873c b5c3 37bc c0a0 38bc
00000130: d292 9f3c e68e 3ebd fcff 403d acdd 4d3e
00000140: ba69 053e 9f54 ef3d 468b 80be e9db 963d
00000150: 049f 14be 7cd5 f73e 20a3 d03e ed20 543e
00000160: de39 e0bc 59a7 29be 9e32 c8be f63f e83d
00000170: 1bab 14bf dae1 a13e b57a e8bc 7e0c 32be
00000180: 38d4 213f ff4d 9cbe 9f79 b13d eb1a 78be
00000190: 8305 38be 22fc 243e db29 6c3e 5d1d 893d
000001a0: 96f0 20be 6a1b d7bc ea01 9fbe a1b7 19be
000001b0: 01c3 05bf d481 3cbd e4ca 59be 6693 3e3f
000001c0: 7fad ae3e 735c 983d ac8b 0a3f 6ec0 c7bd
000001d0: 7d69 c73d 1216 c8be 4dac bc3e 6935 0ebe
000001e0: db3c 9f3d f903 d4bd 342b 90bd 4abe 173d
000001f0: eb68 c4be e497 de3d 075c 913c bd27 efbc

encoder.2.bias f4 [8]
0.17934306 0.04506985 -0.0005777463 -0.00063052826 -0.011011644 0.26737046 0.16451094 0.12786956
00000000: b5a5 373e 2a9b 383d e673 17ba 094a 25ba
00000010: 2f6a 34bc c8e4 883e 8e75 283e 3df0 023e

encoder.4.weight f4 [4, 8]
-0.09724904 -0.2025644 -0.23431769 -0.29071376 -0.32877102 0.066402406 0.08146164 0.0505824
-0.15343937 0.19118793 -0.3335222 0.032093752 -0.300512 -0.13429596 0.5839214 0.513412
-0.08214076 0.0014667333 0.0069231703 0.006935658 0.00043865942 -0.09371193 -0.050905764 -0.081380434
0.6532415 0.07194356 -0.038595807 -0.5661063 -0.63988185 0.65577334 0.27335933 0.041516572
00000000: 812a c7bd 0b6d 4fbe faf0 6fbe 6fd8 94be
00000010: ad54 a8be fcfd 873d 5cd5 a63d 7e2f 4f3d
00000020: 361f 1dbe c5c6 433e 6cc3 aabe bd74 033d
00000030: b5dc 99be e184 09be df7b 153f f86e 033f
00000040: 6a39 a8bd 673f c03a c3db e23b 8444 e33b
00000050: dffb e539 0aec bfbd 9082 50bd c9aa a6bd
00000060: d63a 273f 2557 933d a316 1ebd 58ec 10bf
00000070: 4ccf 23bf c3e0 273f c1f5 8b3e 480d 2a3d

encoder.4.bias f4 [4]
0.23569906 0.15523405 -0.00395251 0.1819233
00000000: 185b 713e adf5 1e3e 0f84 81bb 1a4a 3a3e

encoder.6.weight f4 [1, 4]
0.54588324 0.30561095 -0.57396924 1.0801318
00000000: 01bf 0b3f 0a79 9c3e a6ef 12bf c241 8a3f

decoder.0.weight f4 [4, 1]
-0.21048339 -0.028244182 1.1747599 -0.027382646
00000000: f588 57be 5860 e7bc 885e 963f 9251 e0bc

decoder.0.bias f4 [4]
0.008954172 0.4292341 0.18138735 0.37490383
00000000: 85b4 123c 92c4 db3e 9bbd 393e 65f3 bf3e

decoder.2.weight f4 [8, 4]
0.023509113 0.0007255331 -0.30735174 0.0019586405 0.023514086 0.0007076406 -0.3067112 0.0019429817
-0.86288667 -0.6391708 0.47136176 -0.662916 0.023978027 0.00081938517 -0.3140566 0.0020494934
0.023419725 0.0007421797 -0.3056507 0.0019744956 -0.3458262 -0.3986141 -0.032670677 -0.33954743
-0.5124905 0.5954481 0.39043438 0.9281564 0.023613544 0.0006459856 -0.3086742 0.0019083098
00000000: 2f96 c03c b431 3e3a 355d 9dbe 895c 003b
00000010: 9da0 c03c f580 393a 4009 9dbe a6ab fe3a
00000020: 24e6 5cbf b3a0 23bf 5456 f13e ddb4 29bf
00000030: 916d c43c 02cc 563a 07cc a0be cb50 063b
00000040: b9da bf3c d68e 423a 407e 9cbe 8a66 013b
00000050: 2210 b1be 2617 ccbe b0d1 05bd 29d9 adbe
00000060: 9432 03bf 496f 183f 04e7 c73e a89b 6d3f
00000070: 3171 c13c 5c57 293a 8b0a 9ebe 4020 fa3a

decoder.2.bias f4 [8]
-0.01442949 -0.014429076 0.27264288 -0.01469338 -0.014353881 0.33641604 -0.049682535 -0.014488986
00000000: ab69 6cbc ee67 6cbc d997 8b3e 81bc 70bc
00000010: 8a2c 6bbc b93e ac3e ea7f 4bbd 3663 6dbc

decoder.4.weight f4 [16, 8]
-0.529455 -0.5954701 0.2935 -0.5536798 -0.3477899 0.11128427 -0.0067546554 -0.8311032
0.8493644 0.609021 0.0653923 0.665238 1.064284 1.006351 0.44287166 0.95481914
0.009400345 0.0457414 0.22993469 -0.010315279 0.01268356 -0.46151987 0.23282312 0.03396813
0.14023241 0.017100325 0.5170183 0.28326446 0.07308653 -0.38701138 -0.20031571 0.14355664
-0.010980689 -0.011020489 -0.06813201 -0.010771796 -0.011036562 0.0053105825 -0.02703961 -0.010941443
0.028048264 0.028047737 -0.20648181 0.028053226 0.028046899 -0.005805792 -0.15291701 0.028049361
0.030834595 0.030833902 -0.22289217 0.030841026 0.030832816 -0.006556618 -0.16592224 0.030836027
-0.95168847 -0.7503711 0.18342452 -1.3501577 -0.740311 -1.0568985 -0.07921937 -0.93038
-0.1515631 -0.57267267 0.5675983 -0.58055323 -0.20745862 -0.64038044 0.685667 -0.40733755
0.03192871 0.031928144 -0.23927873 0.03193394 0.031927265 -0.006414016 -0.17704834 0.031929865
0.031416617 0.03141581 -0.22259283 0.031424068 0.03141456 -0.0068928646 -0.16644792 0.031418275
0.8642224 0.9469072 0.26643613 1.2232546 0.99767226 1.6019402 0.50574416 1.1385313
-1.1043434 -0.1273801 0.12846415 -0.4889519 -0.6338359 -0.189196 0.0063947374 -0.81461746
-0.11626072 1.0367488 -0.23373054 0.46780208 0.4204547 -0.09389786 0.597459 -0.06384366
-0.31790265 -0.63800246 0.6369813 -0.0465741 0.1513272 -0.5061079 0.41747117 -0.27220923
-1.1192971 -1.1175302 -0.078276135 -1.1200348 -1.1203649 -0.25138205 -0.14518741 -1.1166909
00000000: 5d8a 07bf ba70 18bf a245 963e f6bd 0dbf
00000010: 8511 b2be 02e9 e33d 2856 ddbb 2ec3 54bf
00000020: f26f 593f cde8 1b3f 66ec 853d 0a4d 2a3f
00000030: 753a 883f 1cd0 803f 13c0 e23e 076f 743f
00000040: e803 1a3c 565b 3b3d 0074 6b3e 6a01 29bc
00000050: b5ce 4f3c 554c ecbe 2f69 6e3e 2a22 0b3d
00000060: 1699 0f3e fb15 8c3c 505b 043f 0a08 913e
00000070: 64ae 953d 5b26 c6be 901f 4dbe 8300 133e
00000080: 59e8 33bc 488f 34bc cc88 8bbd 307c 30bc
00000090: b2d2 34bc 6504 ae3b 2c82 ddbc bd43 33bc
000000a0: 79c5 e53c 5ec4 e53c f86f 53be e1cf e53c
000000b0: 9cc2 e53c 833e bebb 4796 1cbe c6c7 e53c
000000c0: d598 fc3c 6197 fc3c d83d 64be 52a6 fc3c
000000d0: 1a95 fc3c e6d8 d6bb 85e7 29be d69b fc3c
000000e0: dba1 73bf 5218 40bf a3d3 3b3e f8d1 acbf
000000f0: 0685 3dbf 7348 87bf c43d a2bd 622d 6ebf
00000100: 5b33 1bbe ad9a 12bf 1f4e 113f 239f 14bf
00000110: 0870 54be f9ef 23bf df87 2f3f 8c8e d0be
00000120: aec7 023d 16c7 023d 7c05 75be 2acd 023d
00000130: 2ac6 023d aa2c d2bb 294c 35be e4c8 023d
00000140: b6ae 003d ddad 003d 60ef 63be 86b6 003d
00000150: 8eac 003d 8add e1bb 5371 2abe 73b0 003d
00000160: ae3d 5d3f 8368 723f 516a 883e 9b93 9c3f
00000170: 7367 7f3f 600c cd3f 7378 013f 65bb 913f
00000180: 205b 8dbf ee6f 02be 1b8c 033e e757 fabe
00000190: 1243 22bf 99bc 41be f28a d13b c58a 50bf
000001a0: 1a1a eebd 2fb4 843f 0f57 6fbe c183 ef3e
000001b0: d745 d73e 854d c0bd 13f3 183f 77c0 82bd
000001c0: 23c4 a2be 2154 23bf 3511 233f 7cc4 3ebd
000001d0: 84f5 1a3e 4a90 01bf c8be d53e 025f 8bbe
000001e0: 2145 8fbf 3b0b 8fbf 3d4f a0bd 4d5d 8fbf
000001f0: 1e68 8fbf 26b5 80be 02ac 14be baef 8ebf

decoder.4.bias f4 [16]
0.38190407 -0.6854439 -0.012544709 -0.043441895 0.005111535 -0.016352616 -0.018068273 0.6304968
0.4440154 -0.018523239 -0.018182185 -0.94308513 0.27901816 -0.13794804 0.16580443 0.7795813
00000000: ee88 c33e 4079 2fbf 5388 4dbc 21f0 31bd
00000010: aa7e a73b ecf5 85bc ea03 94bc 3d68 213f
00000020: fd55 e33e 0cbe 97bc cef2 94bc 076e 71bf
00000030: 78db 8e3e 4042 0dbe a3c8 293e a492 473f

decoder.6.weight f4 [3, 16]
0.27983627 -0.8813969 0.1985507 0.19420281 -0.37727687 -0.097429976 -0.12500219 0.34567854
0.108170144 -0.29617724 -0.23556331 -0.58675647 0.21869275 -0.15792143 0.40187553 -0.47265145
-0.5583686 1.1427003 0.042744573 0.053153 0.58771616 0.39790833 0.68891877 -0.7795514
-0.3555797 0.87536687 0.8062595 1.3372269 -0.9180037 0.7957099 0.08931482 -0.7009684
-0.6296733 1.0606076 0.012167354 0.09374904 0.8326373 -0.03721445 0.30112204 -0.7862008
-0.0838579 -0.3299017 0.5243865 1.0697526 -0.1990131 0.2603632 -0.38808733 -0.37032837
00000000: b346 8f3e 3aa3 61bf e050 4b3e 1add 463e
00000010: 6f2a c1be 5e89 c7bd 9300 00be c7fc b03e
00000020: 4f88 dd3d 8ba4 97be 8237 71be ac35 16bf
00000030: fef0 5f3e 28b6 21be a1c2 cd3e 5fff f1be
00000040: 3ff1 0ebf 0144 923f ef14 2f3d f6b6 593d
00000050: 9174 163f a4ba cb3e fb5c 303f ae90 47bf
00000060: 8b0e b6be 0b18 603f 0667 4e3f 402a ab3f
00000070: 4a02 6bbf a5b3 4b3f b0ea b63d aa72 33bf
00000080: 4532 21bf fdc1 873f 9559 473c 7fff bf3d
00000090: b827 553f 2e6e 18bd ab2c 9a3e 7544 49bf
000000a0: b1bd abbd e0e8 a8be 323e 063f a7ed 883f
000000b0: 17ca 4bbe 534e 853e 62b3 c6be ae9b bdbe

decoder.6.bias f4 [3]
0.14625725 -0.42422733 -0.28121486
00000000: 76c4 153e 5334 d9be 65fb 8fbe
