autoencoders/best_models/best_model_bone3.pth (torch, 7993 bytes, 15 tensors)

encoder.0.weight f4 [16, 3]
0	0xbe091a19	-0.13388862
1	0x3f17be68	0.5927491
2	0xbda67c75	-0.08129207
3	0xbeb4e9cc	-0.35334623
4	0xbdd2ce25	-0.10293225
5	0xbf656890	-0.89612675
6	0xbd84d9b3	-0.06486835
7	0xbf9425fd	-1.1574093
8	0x3df242ea	0.11829169
9	0xbe5cfaaf	-0.21580003
10	0x3ea6152a	0.32438022
11	0xbeae5ffb	-0.34057602
12	0x3df5fb47	0.12010818
13	0xbdcf8922	-0.10133578
14	0x3d88094b	0.066423975
15	0x3de7512c	0.11294779
16	0xbee2884f	-0.4424462
17	0x3f4c7dee	0.79879653
18	0x3e9ea8b6	0.3098809
19	0xbeff8e9c	-0.4991349
20	0xbe7b80d0	-0.24560857
21	0xbdb8d7f9	-0.090255685
22	0x3dc9543a	0.09830518
23	0xbf2465f2	-0.64218056
24	0x3ed158cd	0.40888062
25	0xbf48d945	-0.78456527
26	0x3f8a7c58	1.0819197
27	0x3eb2f2fc	0.34951007
28	0xbe6408b8	-0.22268951
29	0x3f969788	1.1764994
30	0x3e0624ba	0.13099948
31	0x3e4ecf88	0.20196354
32	0x3f68d2ac	0.9094646
33	0x3ef58ba9	0.47958115
34	0xbe622384	-0.2208386
35	0x3f11ac9c	0.56904006
36	0xbcfa885b	-0.030582597
37	0x3d4c6714	0.04990299
38	0xbc0afdcc	-0.008483361
39	0x3f9043c3	1.1270679
40	0xbe046552	-0.12929276
41	0xbf3841ff	-0.719757
42	0xbd33c60c	-0.043890044
43	0xbdbb889f	-0.09156918
44	0xbecb052f	-0.39652392
45	0xbefdf63b	-0.4960192
46	0xbddefa95	-0.108876385
47	0xbf5685c8	-0.83797884

encoder.0.bias f4 [16]
0	0xbd23272d	-0.039832283
1	0xbc22855b	-0.00991949
2	0x3d809b92	0.06279673
3	0xbca1566e	-0.019694533
4	0x3c30025e	0.010742752
5	0x3c9d83bd	0.019227857
6	0x3c327ecd	0.0108944895
7	0xbbdd670d	-0.0067566694
8	0x3d04ad93	0.032392096
9	0x3d209a99	0.039209936
10	0xbd0f402e	-0.034973316
11	0x3c3c503c	0.011493739
12	0xbb7cf426	-0.0038597672
13	0x3cd91e0c	0.026503585
14	0xbcb32f95	-0.021873275
15	0x3c4b1f66	0.012397623

encoder.2.weight f4 [8, 16]
0	0xbd5099b7	-0.050927844
1	0xbd45af9c	-0.048263177
2	0x3e9813b3	0.2970253
3	0xb9bc2c34	-0.00035891088
4	0x3d091c7d	0.033474434
5	0x3e2948fb	0.16531746
6	0xbe3c83d7	-0.18409668
7	0x3dfd60c1	0.1237197
8	0x3e96f88b	0.29486498
9	0x3f29ca6c	0.66324496
10	0xbe810425	-0.25198475
11	0x3d9f0d81	0.077662475
12	0x3c27e79d	0.010248092
13	0x3ddbac0b	0.10726174
14	0x3d33493a	0.043771006
15	0xbd8ad798	-0.067794025
16	0xbe49ab02	-0.1969414
17	0x3e30387d	0.17209049
18	0xbd7869c1	-0.06064773
19	0xbe973038	-0.29528975
20	0xbdf1317b	-0.11777016
21	0xbdb78715	-0.08961312
22	0x3d879b24	0.066213876
23	0x3ea5f89d	0.3241624
24	0xbe827b3f	-0.25484654
25	0xbdd97787	-0.10618501
26	0xbd0be561	-0.0341543
27	0xbe3006f9	-0.1719016
28	0x3c5235e9	0.012830236
29	0xbc9851ad	-0.018593634
30	0xbd439b07	-0.047755267
31	0xbeae50ad	-0.34045926
32	0x3e1cf304	0.15327078
33	0x3e47b348	0.19501984
34	0xbe69796d	-0.22800227
35	0x3d6a3531	0.057179634
36	0x3b2ada07	0.0026069896
37	0xbd8fb1f7	-0.07016366
38	0x3cafafca	0.021446127
39	0x3ed7b042	0.42126662
40	0xbd0ef4a5	-0.03490128
41	0xbd664f2b	-0.056227844
42	0x3dee7359	0.116430946
43	0xbd33b111	-0.043870036
44	0x3c844e5d	0.016150648
45	0x3e9ad64a	0.30241615
46	0x3e638ad8	0.22220933
47	0x3efdbc38	0.49557662
48	0x3d1cb626	0.038259648
49	0x3e4aa7bf	0.19790553
50	0x3dd7baab	0.10533651
51	0x3bcaa9af	0.0061847786
52	0xbc5c17e5	-0.013433431
53	0x3e48ff1c	0.19628567
54	0x3e8eec56	0.27914685
55	0x3ca689a3	0.020329302
56	0xbcaa97b6	-0.020824295
57	0xbe2df70c	-0.16988772
58	0xbea4ef4b	-0.32213816
59	0x3ec82880	0.390934
60	0xbd3c2068	-0.045929343
61	0x3f0029e7	0.5006394
62	0x3c13fbe3	0.009032222
63	0x3e06284b	0.13101308
64	0x3eb57a67	0.35444948
65	0x3f0ce357	0.55034393
66	0xbf016fff	-0.5056152
67	0x3e88e0ad	0.26733914
68	0x3c6deca0	0.014521748
69	0xbe348db5	-0.17632182
70	0xbdb297fd	-0.08720396
71	0x3f0ce0ca	0.550305
72	0xbde9b352	-0.11411156
73	0xbeacb53a	-0.33732015
74	0xbcd4b916	-0.025967162
75	0xbe27a523	-0.16371588
76	0x3d288478	0.041141957
77	0x3ea302f9	0.31838205
78	0x3ece7a97	0.40327904
79	0x3e81b489	0.2533305
80	0x3e57e05b	0.21081679
81	0x3ead0f4a	0.33800727
82	0xbd44fb0e	-0.048090987
83	0xbe112a29	-0.14176239
84	0x3dddd499	0.108315654
85	0x3e373ab2	0.17893484
86	0x3e1e585a	0.15463391
87	0x3ddbe499	0.10736961
88	0x3ea13dbe	0.31492418
89	0x3e182d43	0.14861016
90	0x3e205931	0.15659024
91	0x3e268558	0.16261804
92	0xba9c8808	-0.0011942396
93	0x3e3ce1e9	0.18445553
94	0xbdefb5cd	-0.117045976
95	0x3e1fe30a	0.15613952
96	0xbd57180a	-0.05251316
97	0x3ee961fe	0.45582575
98	0x3d595e41	0.053068403
99	0x3d8be84c	0.068314165
100	0xbd822b97	-0.0635597
101	0xbdedd295	-0.11612431
102	0x3edc2ddf	0.43003747
103	0x3f1ee6c6	0.6207088
104	0xbdcc7456	-0.09983127
105	0x3ee2f3dc	0.44326675
106	0x3ebe1288	0.37123513
107	0x3e3b45db	0.18288366
108	0x3c13d89e	0.0090238135
109	0x3e25c965	0.16190107
110	0xbd5deaa1	-0.054178838
111	0x3d795224	0.06086935
112	0xbe1e0cc9	-0.15434565
113	0x3d82ec65	0.06392745
114	0x3edd6802	0.43243414
115	0xbd3f0557	-0.04663595
116	0xbda09dc3	-0.07842591
117	0x3ea9bfb2	0.33154064
118	0xbe0ef1dd	-0.13959451
119	0xbce3a780	-0.027789831
120	0x3ee46ba4	0.44613373
121	0x3e95b7aa	0.29241687
122	0x3eb7cf6b	0.35900435
123	0x3d801482	0.062539116
124	0xbdcee594	-0.10102382
125	0x3cfb9b59	0.030713724
126	0xbd4d4bfe	-0.0501213
127	0xbe4d051b	-0.20021479

encoder.2.bias f4 [8]
0	0x3bd7cc39	0.0065856245
1	0x3c6200ae	0.013794107
2	0xbcc9c7fe	-0.024631497
3	0x3c88a959	0.016682314
4	0xbd663de1	-0.056211356
5	0xbc2e00d2	-0.010620313
6	0xbad17e5d	-0.0015983094
7	0x3cb9c98d	0.022679115

encoder.4.weight f4 [4, 8]
0	0x3ef98c9a	0.48740083
1	0xbe0066e5	-0.12539251
2	0xbe32f28e	-0.1747534
3	0xbe6be4a9	-0.23036446
4	0xbe98a621	-0.29814246
5	0x3f0cdd85	0.5502551
6	0x3eb1064a	0.3457511
7	0x3e6bfc0c	0.23045367
8	0xbce0fe2c	-0.027464949
9	0x3c379a21	0.011206181
10	0xbd028413	-0.031864237
11	0xbd2fc3a7	-0.042911198
12	0x3cb34c0f	0.021886854
13	0xbd1682a6	-0.03674569
14	0xbd8fd472	-0.070229426
15	0xbd146aa8	-0.036234528
16	0x3d24496a	0.040109076
17	0x3ebd4453	0.3696619
18	0x3e02c088	0.12768757
19	0x3cf47731	0.029841991
20	0xbea82bb3	-0.3284584
21	0xbe9bd452	-0.30435425
22	0x3ee56d6b	0.44810042
23	0xbed6b5a9	-0.4193547
24	0x3b87f0e9	0.004148592
25	0xbe326a19	-0.17423286
26	0x3f1aa31e	0.6040515
27	0x3e528236	0.20557484
28	0x3f3a5e43	0.7280008
29	0x3ec73cda	0.38913614
30	0x3eb306b5	0.34966055
31	0xbea00b66	-0.31258696

encoder.4.bias f4 [4]
0	0x3c6fc31f	0.014633923
1	0xbc638f9c	-0.01388922
2	0x3ca276cf	0.019832043
3	0x3d0e631a	0.03476248

encoder.6.weight f4 [1, 4]
0	0xbe93e568	-0.2888596
1	0x3ea812cc	0.3282684
2	0xbf082870	-0.531867
3	0x3ec92d0c	0.3929218

decoder.0.weight f4 [4, 1]
0	0xbf4db085	-0.8034747
1	0xbf92e2fb	-1.1475519
2	0x3f835c3a	1.026252
3	0xbf95c18e	-1.1699693

decoder.0.bias f4 [4]
0	0x3e7d0a9b	0.24711077
1	0x3e447f17	0.19189106
2	0xbf2b2b17	-0.66862625
3	0xbf5d49e5	-0.8644088

decoder.2.weight f4 [8, 4]
0	0xbeb4ef1d	-0.3533868
1	0x3ef5e76c	0.48028123
2	0x3cd5ed80	0.026114225
3	0x3f0ad38a	0.54229033
4	0xbefb4cb5	-0.4908196
5	0xbeef150a	-0.4669574
6	0x3e9d2502	0.30692297
7	0xbe98f108	-0.29871392
8	0x3f154018	0.58300924
9	0x3d865abe	0.065602764
10	0xbad972b1	-0.0016589967
11	0x3e09fe15	0.13475831
12	0x3f9180ea	1.1367466
13	0x3f41da91	0.7572413
14	0xbf8fd0d4	-1.1235604
15	0xbf144372	-0.57915413
16	0xbef7c85b	-0.48395047
17	0xbf33d429	-0.70245606
18	0x3ef9eb83	0.48812494
19	0xbf0f7f0c	-0.56053233
20	0x3ed2b0c3	0.41150483
21	0x3f0d136f	0.5510778
22	0xbef97ede	-0.48729604
23	0x3ee13317	0.4398429
24	0x3dc698a0	0.0969708
25	0x3eb887d8	0.3604114
26	0xbefad476	-0.4899022
27	0x3e9dba80	0.3080635
28	0x3ed1d9e0	0.40986538
29	0x3d42b6e8	0.047537714
30	0x3f54d583	0.83138293
31	0x3ef132a3	0.47108945

decoder.2.bias f4 [8]
0	0xbf2836d6	-0.65708673
1	0x3e4618c8	0.19345391
2	0xbec9cc27	-0.39413568
3	0x3f828a01	1.0198365
4	0x3eacb283	0.33729944
5	0x3e2a75ac	0.16646451
6	0x3d8b8020	0.06811547
7	0xbe26439b	-0.16236727

decoder.4.weight f4 [16, 8]
0	0xbf15db48	-0.5853772
1	0xbedb447f	-0.42825696
2	0xbefdbf51	-0.49560025
3	0x3f327a39	0.69717747
4	0x3e9b0087	0.3027384
5	0x3f16e049	0.5893598
6	0x3f0c6d2d	0.5485409
7	0xbf71d319	-0.94462734
8	0xbf64147c	-0.89093757
9	0xbdbded22	-0.09273745
10	0xbf9cdd25	-1.2254988
11	0x3f4feda6	0.81222
12	0x3dce80cf	0.10083162
13	0x3eb73825	0.35785022
14	0x3e0fdc83	0.14048962
15	0x3e768660	0.24074697
16	0x3ecfd92c	0.40595376
17	0xbc4897df	-0.01224324
18	0x3da7f1bd	0.08200405
19	0xbe6933b4	-0.2277363
20	0xbe0fabc9	-0.14030375
21	0x3e7c9939	0.24667825
22	0x3e50b8f0	0.20383048
23	0xbe0ea19e	-0.1392884
24	0x3effda86	0.49971408
25	0xbe218206	-0.15772256
26	0x3e4537ae	0.19259521
27	0xbdd74646	-0.105114505
28	0xbdd13c53	-0.10216584
29	0xbe847e80	-0.25877762
30	0x3e2ef425	0.17085321
31	0x3e22a575	0.1588343
32	0x3e3d36d8	0.18477952
33	0xbe630df8	-0.22173297
34	0x3da73cdb	0.08165904
35	0xbe9d2437	-0.30691692
36	0xbec58ff7	-0.385864
37	0xbe71c37b	-0.23609726
38	0xbdb9441a	-0.090461925
39	0x3d50d1bb	0.050981265
40	0x3db14153	0.08655038
41	0x3e9cc0c8	0.3061583
42	0xbe6a6701	-0.22890855
43	0x3e1d4843	0.15359597
44	0x3f274b3c	0.65349174
45	0xbd1474f5	-0.03624435
46	0xbdfff8c4	-0.1249862
47	0xbf1370f7	-0.57594246
48	0x3e0873d1	0.1332543
49	0xbe895db9	-0.26829317
50	0xbea88d54	-0.32920325
51	0x3dc88188	0.09790331
52	0x3ea3c042	0.3198262
53	0x3c494eb9	0.012286835
54	0x3d7b3f9c	0.06133996
55	0x3f17947c	0.59210944
56	0xbd86f7f2	-0.065902606
57	0x3f318a9b	0.6935212
58	0xbe3fbb9a	-0.18723908
59	0xbf1305d2	-0.57430756
60	0x3eee14e9	0.46500328
61	0xbd9e7bfc	-0.07738492
62	0xbe49e700	-0.19717026
63	0xbe4e43f9	-0.20143117
64	0xbed2878b	-0.41119036
65	0x3d188d1b	0.037243944
66	0xbe0f895f	-0.14017247
67	0x3e669729	0.225186
68	0xbdc0ea0e	-0.094196424
69	0xbd8cf2ab	-0.06882223
70	0x3edccb97	0.43124077
71	0xbe8fb3be	-0.2806682
72	0xbe5880c5	-0.21142872
73	0x3edc7ce7	0.43064043
74	0xbdd89657	-0.1057555
75	0x3dd961e9	0.10614378
76	0xbd523811	-0.051323
77	0x3da340bf	0.07971334
78	0x3ebc793a	0.3681124
79	0xbe128667	-0.14309083
80	0xbebb91d6	-0.36634701
81	0x3e922bde	0.28549093
82	0x3ecb9846	0.39764613
83	0xbdab7269	-0.083714314
84	0x3ec6fa8b	0.38863024
85	0x3e42cbfe	0.1902313
86	0xbe6704b1	-0.22560383
87	0x3e8b8ac2	0.272543
88	0x3e331956	0.17490134
89	0xbe79cf89	-0.24395575
90	0x3d99f018	0.075164974
91	0xbe9e0c67	-0.30868837
92	0xbed7f4ec	-0.42179048
93	0xbe8f1a26	-0.27949637
94	0xbdda3eb2	-0.106564894
95	0x3d85fb20	0.06542039
96	0xbde0a8ef	-0.109697215
97	0x3e9615b2	0.29313427
98	0x3dde0a40	0.10841799
99	0xbe0fa298	-0.14026868
100	0x3ab7bfd5	0.0014018962
101	0x3e384c3e	0.17997834
102	0x3e521e3c	0.20519346
103	0x3eeb3da5	0.4594547
104	0x3e9ab7da	0.30218393
105	0x3f0122b2	0.50443566
106	0x3b8cbf51	0.0042952676
107	0xbec408fd	-0.38288108
108	0x3f049298	0.51786184
109	0xbe189fdf	-0.14904736
110	0xbdbb6ea5	-0.09151963
111	0x3e6409e7	0.22269402
112	0x3f224d02	0.63398755
113	0x3cb3e397	0.02195911
114	0x3f2ab55a	0.6668297
115	0x3eb22098	0.34790492
116	0xbdb3fd31	-0.08788527
117	0x3e8e865e	0.2783689
118	0x3dca4fc3	0.098784946
119	0x3d0cceb2	0.034376808
120	0x3ead5a02	0.33857733
121	0xbf016973	-0.5055153
122	0x3edc950c	0.43082464
123	0xbd295ef3	-0.041350316
124	0xbdca85a0	-0.09888768
125	0x3ea32a22	0.31868082
126	0x3eaa6c19	0.33285597
127	0x3ea18a96	0.31551045

decoder.4.bias f4 [16]
0	0x3ecf8702	0.4053269
1	0x3f1170b3	0.5681259
2	0xbd81d270	-0.06338966
3	0xbd7e98e9	-0.062157545
4	0xbe8f8e2d	-0.2803816
5	0x3ed4de6e	0.4157595
6	0xbd88f5bd	-0.06687496
7	0x3d935bb2	0.07195224
8	0x3ef61cd0	0.48068857
9	0xbcb0313b	-0.02150785
10	0x3e25dacd	0.16196747
11	0xbe97b0fa	-0.2962721
12	0xbedcc57c	-0.4311942
13	0x3d8685e6	0.06568508
14	0xbdff41f3	-0.12463751
15	0x3cdae9d4	0.026722826

decoder.6.weight f4 [3, 16]
0	0x3ea37fe7	0.3193352
1	0x3f11d445	0.5696452
2	0xbe0976e6	-0.13424262
3	0x3dc0e677	0.09418958
4	0xbf2fefde	-0.68725383
5	0x3f467d23	0.77534693
6	0xbe35f5b0	-0.17769504
7	0x3e689331	0.22712399
8	0x3eabfe52	0.33592469
9	0xbdf4853a	-0.119394735
10	0xbd16b862	-0.036796935
11	0xbf48ae0c	-0.78390574
12	0xbf10d69d	-0.56577474
13	0x3ea8046e	0.3281588
14	0x3d765ed9	0.060149048
15	0x3e981533	0.29703674
16	0xbebb1581	-0.36539844
17	0xbebdfa40	-0.37104988
18	0x3e000954	0.12503558
19	0x3e8e38e6	0.27777785
20	0x3f0679ba	0.5252949
21	0xbe673064	-0.22577053
22	0x3eb3dd50	0.35129786
23	0xbf0f2ea8	-0.55930567
24	0xbe163d38	-0.1467179
25	0xbe894463	-0.26809987
26	0xbe771725	-0.24129923
27	0x3edea9be	0.43488878
28	0x3e016cbb	0.12639134
29	0x3e10d0d4	0.14142162
30	0xbe0beebc	-0.13665289
31	0x3cb73716	0.022365134
32	0xbe987f9b	-0.29784855
33	0xbe9e64c0	-0.3093624
34	0x3d96906d	0.07351766
35	0xbbaa1487	-0.0051904353
36	0x3ea64441	0.3247395
37	0x3f1e79f7	0.61904854
38	0xbea2ea19	-0.31819227
39	0xbe4320e8	-0.19055521
40	0xbdb743ed	-0.08948503
41	0xbeaac13f	-0.3335056
42	0xbe08b6ec	-0.13351029
43	0x3eb443cd	0.35207978
44	0x3dfe4c14	0.124168545
45	0xbf118567	-0.5684418
46	0x3f0a5f07	0.5405125
47	0x3ee13c31	0.43991235

decoder.6.bias f4 [3]
0	0x3f146ebc	0.5798147
1	0xbeb1b22a	-0.3470624
2	0xbe1a8613	-0.15090208
