autoencoders/best_models/best_model_bone12.pth (torch, 8015 bytes, 15 tensors)

encoder.0.weight f4 [16, 3]
0	0x3fbd325c	1.4780993
1	0xbe8c118a	-0.2735713
2	0x3e427586	0.18990144
3	0xbdc78b4b	-0.09743365
4	0xbe656e60	-0.22405386
5	0xbf20f1a1	-0.62868696
6	0xbe6c94ac	-0.23103589
7	0xbf3597da	-0.7093483
8	0x3dbde3e0	0.09271979
9	0xbf8f8972	-1.121382
10	0xbf33351d	-0.7000292
11	0xbc3cebba	-0.011530811
12	0xbebd617d	-0.3698844
13	0xbed58d91	-0.4170957
14	0x3f7c6717	0.985948
15	0xbf276d43	-0.65401095
16	0x3edabada	0.4272068
17	0x3e4b8b96	0.19877467
18	0x3e2f29e9	0.17105831
19	0x3f1e880f	0.6192636
20	0xbec27d23	-0.37986097
21	0xbc498b96	-0.012301346
22	0xbc81b8db	-0.015835216
23	0x3f439d44	0.76411843
24	0xbe8b95dc	-0.2726277
25	0xbf8551c3	-1.0415577
26	0x3f826b05	1.018891
27	0x3e8f91d0	0.28040934
28	0xbed34e48	-0.4127066
29	0xbf239fbd	-0.63915616
30	0x3ee7b914	0.4525839
31	0xbe042b62	-0.12907174
32	0x3f1ef732	0.6209594
33	0xbe9c8aee	-0.30574745
34	0xbd4673a0	-0.048450112
35	0xbf36b075	-0.71363
36	0xbf29c00f	-0.66308683
37	0xbecb2226	-0.3967449
38	0xbe97a17d	-0.29615393
39	0x3f8986ee	1.0744302
40	0x3f1898d0	0.59608173
41	0xbf11958b	-0.5686881
42	0xbda60594	-0.08106533
43	0x3f24944f	0.642888
44	0x3e8e32af	0.27773044
45	0x3ddacce9	0.10683615
46	0x3f634685	0.8877948
47	0x3e031f66	0.12804946

encoder.0.bias f4 [16]
0	0xbe148a9f	-0.14506005
1	0xbe4cd688	-0.20003712
2	0x3d3a15c3	0.04543091
3	0x3e82c56c	0.25541246
4	0x3e61bc6c	0.22044533
5	0x3ea390f9	0.31946543
6	0x3d4b3b8e	0.049617343
7	0xbe065bbe	-0.13120934
8	0xbd89b38a	-0.067236975
9	0xbd3880d6	-0.045044743
10	0xbe6bfb49	-0.23045076
11	0x3b9fb39e	0.004873707
12	0xbdf1d2f6	-0.11807816
13	0x3e211f8b	0.15734689
14	0xbde0c747	-0.10975509
15	0x3db226cc	0.08698806

encoder.2.weight f4 [8, 16]
0	0x3e256579	0.1615199
1	0xbeec09d6	-0.46101254
2	0xbe0829d2	-0.13297203
3	0xbe1032ea	-0.14081922
4	0x3caa4d93	0.020788943
5	0x3de7cd50	0.11318457
6	0x3e6c5f2e	0.23083183
7	0x3f3eb144	0.74489236
8	0x3e993449	0.29922703
9	0xbe2fac51	-0.17155577
10	0x3e8c97d6	0.27459592
11	0xbe94aa63	-0.29036245
12	0xbe89078f	-0.2676358
13	0xbe13df60	-0.1444068
14	0x3e71e10f	0.2362101
15	0x3e19ff8e	0.15038893
16	0xbe186c6f	-0.14885114
17	0x3e824040	0.25439644
18	0xbd2035c5	-0.03911378
19	0xbe2042ef	-0.15650533
20	0x3e69d421	0.22834827
21	0xbe3b6d78	-0.18303478
22	0x3e1bda7f	0.15220068
23	0xbdaba3f7	-0.08380883
24	0x3e1cfbc0	0.1533041
25	0xbd720e2f	-0.059095558
26	0x3e872f35	0.26403204
27	0xbe994762	-0.29937273
28	0xbddad179	-0.10684485
29	0x3b2248e8	0.0024762694
30	0xbeac0969	-0.3360093
31	0xbee62b95	-0.44955125
32	0x3e8d9033	0.27649078
33	0xbdb83de6	-0.08996181
34	0x3e73076a	0.23733297
35	0x3e280054	0.16406375
36	0x3dc8c892	0.09803881
37	0xbe320cfa	-0.17387763
38	0x3e54a14a	0.20764652
39	0x3e3f5033	0.18682937
40	0x3d597442	0.053089388
41	0x3e88bf48	0.26708436
42	0x3e21f35d	0.15815492
43	0xbd8c40e7	-0.06848317
44	0x3e44d96b	0.19223563
45	0x3d03bbf2	0.03216166
46	0x3ec12c1b	0.37728962
47	0xbe00ae64	-0.12566525
48	0x3db8a80b	0.09016427
49	0xbbcf5a35	-0.006327892
50	0xbe4bcf54	-0.19903308
51	0xbcfde506	-0.030992996
52	0xbd806e53	-0.06271043
53	0xbe20056f	-0.15627073
54	0xbc38a2a1	-0.0112692425
55	0x3dbba1e2	0.09161736
56	0xbdb7e966	-0.08980064
57	0xbd91013b	-0.07080313
58	0x3e7b0f64	0.2451759
59	0xbf2c2c29	-0.67254883
60	0xbdbd63be	-0.0924754
61	0xbe0183b5	-0.12647898
62	0xbeb0c588	-0.34525704
63	0x3e760eb5	0.24029048
64	0x3d3df618	0.04637727
65	0xbe82e621	-0.255662
66	0xbee8e21f	-0.45485017
67	0x3f09a44f	0.5376634
68	0x3e9a6239	0.30153063
69	0x3e792dac	0.24333829
70	0xbdfcf06a	-0.12350543
71	0xbe4375d4	-0.19087917
72	0x3d154527	0.036442902
73	0x3f1caa73	0.61197585
74	0x3e18042f	0.14845346
75	0xbd49bf09	-0.04925445
76	0x3dc888d7	0.09791725
77	0xbe29d6af	-0.16585802
78	0xbcac504f	-0.021034388
79	0xbe7bfeef	-0.24608968
80	0xbdf1faca	-0.11815412
81	0x3eccf189	0.40028027
82	0xbe8c2416	-0.2737128
83	0xbf569684	-0.8382342
84	0x3eab05f3	0.33402976
85	0x3f0ef181	0.55837256
86	0xbda1974c	-0.07890186
87	0x3e2d3215	0.16913636
88	0x3ebd1be0	0.3693533
89	0xbd397fcb	-0.04528789
90	0xbee5d8dc	-0.44892013
91	0xbe5085bd	-0.20363517
92	0x3e9e919c	0.30970466
93	0xbd156393	-0.036471914
94	0xbe118a98	-0.14213026
95	0xbe3cd55f	-0.1844077
96	0x3f1aa406	0.6040653
97	0x3e614687	0.2199956
98	0x3cf22d56	0.029562633
99	0xbd90531b	-0.07047101
100	0xbde3a41a	-0.11115284
101	0xbd07e58f	-0.03317791
102	0xbcafe519	-0.021471547
103	0x3ec3ec7b	0.38266358
104	0x3f2c9733	0.6741821
105	0x3ec1fbe8	0.37887502
106	0x3e57dcc3	0.21080308
107	0x3d85dd51	0.065363534
108	0xbc8d8868	-0.017276958
109	0xbf1eb521	-0.6199513
110	0x3ed8f272	0.4237247
111	0x3ed98c95	0.42490068
112	0x3e932f07	0.28746817
113	0x3e6d57ca	0.2317802
114	0xbe82453f	-0.25443456
115	0xbe027c73	-0.12742786
116	0x3d578846	0.052620195
117	0xbee610d8	-0.44934726
118	0x3e45cd44	0.19316584
119	0xbe48050d	-0.19533177
120	0x3ed4e391	0.4157987
121	0xbe58fd7a	-0.21190444
122	0xbe268424	-0.16261345
123	0xbe64e3ba	-0.22352496
124	0xbc853b6f	-0.016263692
125	0x3e39e565	0.18153913
126	0xbe83ebcb	-0.25765833
127	0xbdf695c7	-0.120402865

encoder.2.bias f4 [8]
0	0x3cca088b	0.024662277
1	0x3e09749c	0.13423389
2	0xbd06beba	-0.032896735
3	0xbd303800	-0.043022156
4	0x3d8018e6	0.06254749
5	0x3c08b1f3	0.008343208
6	0xbe032793	-0.12808065
7	0xbc13072c	-0.008973878

encoder.4.weight f4 [4, 8]
0	0x3ec72a12	0.38899285
1	0x3f22346f	0.6336126
2	0xbf02d632	-0.51108086
3	0x3c5443ec	0.012955647
4	0x3cf9b954	0.03048388
5	0x3f123a1b	0.5711991
6	0x3e098200	0.13428497
7	0x3ecdc934	0.40192568
8	0x3eca9326	0.3956539
9	0xbeab7aec	-0.3349222
10	0xbe9d5ade	-0.3073339
11	0xbdd61dd7	-0.1045491
12	0x3e35384f	0.17697261
13	0x3de668dc	0.11250469
14	0x3e020a44	0.12699229
15	0x3e317db4	0.17333108
16	0x3ca78d69	0.020453172
17	0xbe090717	-0.13381611
18	0x3e8bf534	0.27335513
19	0xbe0a2218	-0.13489568
20	0xbef2cebf	-0.4742336
21	0xbece89d8	-0.4033954
22	0x3e051486	0.1299611
23	0x3c02b0d4	0.007976729
24	0x3e715498	0.23567426
25	0xbe2061b6	-0.15662274
26	0x3eb769ba	0.3582285
27	0x3ea3c247	0.3198416
28	0xbf1cfc8d	-0.6132286
29	0xbd0e83c6	-0.034793638
30	0x3ef95bbe	0.48702806
31	0x3e527966	0.20554122

encoder.4.bias f4 [4]
0	0x3d48d1da	0.049028255
1	0x3d6b251b	0.057408433
2	0x3e818535	0.2529694
3	0xbdda7a3c	-0.106678456

encoder.6.weight f4 [1, 4]
0	0xbeec392d	-0.46137372
1	0xbf6cb18e	-0.92458427
2	0xbe8d3825	-0.27581897
3	0x3f845aeb	1.0340246

decoder.0.weight f4 [4, 1]
0	0x3dd962d7	0.10614555
1	0xbf95b354	-1.1695352
2	0xbf313c34	-0.6923249
3	0xbf84eb59	-1.0384322

decoder.0.bias f4 [4]
0	0xbedba67f	-0.42900464
1	0x3dabf30c	0.08395967
2	0x3db0865f	0.08619379
3	0xbec1c36d	-0.3784441

decoder.2.weight f4 [8, 4]
0	0xbe14f68d	-0.14547177
1	0x3e70cccf	0.23515628
2	0x3f19f606	0.60141027
3	0x3c18523d	0.009296951
4	0x3e5a394f	0.21310924
5	0xbddda0be	-0.10821675
6	0x3f47d030	0.78052044
7	0x3e176ae5	0.14786871
8	0xbd12bed5	-0.035826523
9	0x3f05e2d4	0.5229924
10	0x3ba47c94	0.0050197337
11	0x3cdfd263	0.027322
12	0x3df18290	0.11792481
13	0xbead5ace	-0.3385834
14	0xbfc283c7	-1.5196465
15	0xbeea2a77	-0.45735523
16	0xbf62f291	-0.88651377
17	0xbf29f6bb	-0.66392106
18	0xbf38f37e	-0.7224654
19	0xbfae2071	-1.360365
20	0x3f45563b	0.770847
21	0xbf535681	-0.8255387
22	0xbfd9e53b	-1.702308
23	0xbddcec49	-0.10787255
24	0xbdc8e497	-0.09809225
25	0xbda59c66	-0.08086471
26	0xbf06ff91	-0.52733713
27	0xbedcf65e	-0.43156713
28	0x3f342c32	0.70379937
29	0x3eb20cfc	0.3477553
30	0xbeb9af8e	-0.3626675
31	0x3f418034	0.7558625

decoder.2.bias f4 [8]
0	0xbe2e85fd	-0.170433
1	0xbe8fcb86	-0.28084964
2	0xbe82a1db	-0.2551411
3	0x3f15b66f	0.58481497
4	0x3ee96186	0.45582217
5	0x3edefcaa	0.43552142
6	0x3eb51d0b	0.3537372
7	0xbec1c165	-0.3784286

decoder.4.weight f4 [16, 8]
0	0x3dba63d5	0.09101073
1	0x3d6af748	0.057364732
2	0x3d7268a8	0.05918184
3	0xbe129522	-0.14314702
4	0xbe360068	-0.17773592
5	0x3e01eda3	0.12688307
6	0xbd37ff90	-0.044921458
7	0x3e49d36b	0.19709556
8	0xbd15450e	-0.03644281
9	0x3eb52f99	0.35387877
10	0xbc6c54fd	-0.01442456
11	0xbd1b7a31	-0.037958328
12	0xbedda2da	-0.43288308
13	0x3e0c533c	0.13703626
14	0x3e0149da	0.12625828
15	0x3f18fc25	0.5975974
16	0x3ed70b46	0.42000788
17	0xbccae28b	-0.024766227
18	0x3f05eb2e	0.5231198
19	0xbe315f58	-0.17321527
20	0x3f020961	0.5079556
21	0xbee7b535	-0.45255437
22	0xbd32d61a	-0.043661214
23	0x3e44d9f7	0.19223772
24	0xbf43f351	-0.76543146
25	0xbed19d53	-0.4094034
26	0xbea89dcc	-0.3293289
27	0x3f06cb7f	0.5265426
28	0x3ecf5409	0.404938
29	0x3f10ed57	0.5661215
30	0x3ed53181	0.4163933
31	0xbf097c6a	-0.53705466
32	0xbf3f1e8b	-0.7465598
33	0xbddcc90b	-0.107805334
34	0xbdc86f3a	-0.0978684
35	0x3eb1579c	0.34637153
36	0x3f589559	0.84602886
37	0x3eee8625	0.4658672
38	0x3f21fc88	0.6327596
39	0xbf672f78	-0.90306807
40	0x3e1b062a	0.1513907
41	0xbeef9662	-0.4679442
42	0x3e513bb0	0.20432925
43	0xbe9b3898	-0.30316615
44	0xbdd16214	-0.10223785
45	0xbe172445	-0.1475993
46	0xbcd0f03c	-0.025505178
47	0x3e14084b	0.14456289
48	0xbec5ed13	-0.38657436
49	0xbeb3143f	-0.34976384
50	0xbf29859d	-0.662195
51	0x3c798ba0	0.015231043
52	0x3ecc7f85	0.3994104
53	0x3f92d9e0	1.147274
54	0x3f2ac8d1	0.6671267
55	0xbf772287	-0.9653706
56	0xbe18d680	-0.14925575
57	0xbd658d8b	-0.05604319
58	0x3ec8603f	0.3913593
59	0x3e29ecc0	0.16594219
60	0xbe98dea8	-0.29857373
61	0xbf0346b1	-0.5127974
62	0xbf319a74	-0.693763
63	0xbf04edde	-0.51925457
64	0xbc4b5049	-0.012409278
65	0xbd8acfd2	-0.0677792
66	0x3d2f51fc	0.042802796
67	0x3c0e41c4	0.008682672
68	0xbeb0f653	-0.3456293
69	0x3e259667	0.16170655
70	0xbdfda716	-0.12385385
71	0x3f14c9f8	0.5812068
72	0xbf6cd7e6	-0.92516935
73	0xbf58209f	-0.84424776
74	0xbdd9349f	-0.1060574
75	0x3f2cc53a	0.67488444
76	0x3e9d10d5	0.30676904
77	0x3ee5ae7b	0.4485968
78	0x3eaeffd2	0.3417955
79	0x3c7ff209	0.0156216705
80	0xbed3411a	-0.41260606
81	0xbf477c48	-0.77924013
82	0xbee29b65	-0.44259182
83	0x3f669d93	0.9008419
84	0x3f52f2ad	0.82401544
85	0x3f405315	0.75126773
86	0x3e1e7ec5	0.15478046
87	0xbf18a773	-0.5963051
88	0xbf44f13c	-0.76930594
89	0xbf80aec6	-1.0053337
90	0xbf92ed13	-1.1478599
91	0x3f1669b1	0.5875502
92	0x3efa7e05	0.4892427
93	0x3f5c7dbe	0.8612937
94	0x3f1881ee	0.59573257
95	0xbe5aabd6	-0.21354613
96	0x3e1fb273	0.15595417
97	0xbe289fe4	-0.16467243
98	0x3ec245b6	0.3794381
99	0x3e713d3f	0.2355852
100	0xbe3b2519	-0.1827587
101	0xbe0d6159	-0.13806666
102	0x3ecad8e2	0.39618593
103	0x3f6c3a67	0.92276615
104	0xbf9c789e	-1.222431
105	0xbf031bdf	-0.512144
106	0xbeda287a	-0.42609006
107	0x3ea560d4	0.32300436
108	0x3f790b82	0.97283185
109	0x3ea918eb	0.33026823
110	0x3f69793f	0.9120063
111	0xbefa34d7	-0.4886844
112	0xbe6c161f	-0.23055314
113	0xbd5d604e	-0.05404692
114	0xbf65c7dd	-0.8975809
115	0x3f5e47d4	0.8682835
116	0x3db3cc8b	0.08779248
117	0x3f234e9a	0.6379181
118	0x3eebb351	0.46035245
119	0x3db38cc6	0.08767085
120	0xbe0ae274	-0.13562948
121	0x3d89f3d3	0.06735959
122	0x3e5a87d5	0.21340878
123	0x3e16a3c1	0.14710905
124	0xbf23b12a	-0.63942206
125	0x3e0a016c	0.13477105
126	0x3e122559	0.1427206
127	0x3f0214b0	0.50812817

decoder.4.bias f4 [16]
0	0xbe33852c	-0.1753127
1	0xbde3d838	-0.11125225
2	0xbd6978a9	-0.056999836
3	0x3eaf675f	0.34258553
4	0x3e9b3e72	0.3032108
5	0xbe794a2c	-0.243447
6	0x3e992e70	0.29918242
7	0xbdcbfee3	-0.09960725
8	0xbedf4756	-0.43609113
9	0x3e98458a	0.29740554
10	0x3ed75f41	0.4206486
11	0x3e9dfc9c	0.30856788
12	0xbe6837af	-0.22677492
13	0x3e962d39	0.29331377
14	0x3ecc6933	0.3992401
15	0xbe50bedb	-0.20385306

decoder.6.weight f4 [3, 16]
0	0x3e68e918	0.22745168
1	0x3e7c9988	0.24667943
2	0x3efa70bf	0.48914143
3	0x3ccccfe7	0.02500148
4	0x3e8488d8	0.25885653
5	0x3f2aeefa	0.667709
6	0xbe56c5fa	-0.2097396
7	0x3bd28e9a	0.006425691
8	0x3d643207	0.055711772
9	0x3e71572c	0.2356841
10	0xbb3aee9f	-0.0028523577
11	0xbe318e61	-0.1733947
12	0xbdecaaf6	-0.11556046
13	0xbeb5584c	-0.35418928
14	0x3e84dad0	0.2594819
15	0x3eb7761d	0.358323
16	0x3ec444e5	0.38333812
17	0x3e2b2e8e	0.16716978
18	0x3ab37166	0.0013690412
19	0xbdc717a3	-0.09721305
20	0xbd6e4c46	-0.05817821
21	0x3eb768f1	0.3582225
22	0x3cafa66c	0.02144166
23	0x3d0927ee	0.033485346
24	0x3f15ebcf	0.5856294
25	0x3db5dedd	0.088803984
26	0x3dd01653	0.10160508
27	0xbd6a6998	-0.05722961
28	0x3ea6b093	0.3255659
29	0xbe03eb64	-0.12882763
30	0x3f1e78fd	0.61903363
31	0x3f02d3ec	0.5110462
32	0x3c86245e	0.016374763
33	0x3f228934	0.63490605
34	0x3f0ca335	0.54936534
35	0xbf36a146	-0.71339834
36	0xbf4489e5	-0.7677291
37	0x3ef4f7e1	0.47845367
38	0xbee53cd8	-0.44772983
39	0x3f02c67f	0.5108413
40	0x3e915a3d	0.2838916
41	0xbf657e1f	-0.8964557
42	0xbf046c3d	-0.5172766
43	0xbf39adc6	-0.7253078
44	0x3f06af97	0.5261168
45	0xbf67d1b4	-0.90554357
46	0xbf2e7140	-0.68141556
47	0x3f1a95ae	0.60384643

decoder.6.bias f4 [3]
0	0xbbf2ac4c	-0.0074057933
1	0xbf065540	-0.5247383
2	0xbe708bc0	-0.2349081
