autoencoders/best_models_cuda/best_model_bone4.pth (torch, 8121 bytes, 16 tensors)

encoder.0.weight f4 [16, 3]
0.40022883 0.22621237 -0.13327435 -0.5524987 -0.71976423 0.3093874 1.1436532 0.18783276
0.07153285 -0.92125565 0.10969477 -0.06361937 0.4737036 -0.058041353 0.065915555 0.7119032
0.100760005 -0.5750791 -0.9541573 -0.08000071 0.056287665 -0.84370565 -0.49338755 0.15690926
1.0765696 -0.16775008 0.19048665 -0.17683081 -1.1152247 0.40498558 0.6322407 0.105469085
0.021570843 -0.38906106 0.6591004 -0.2548876 -1.0862037 -0.07430683 0.46959344 -0.48935682
0.09335538 -0.021952463 -0.39000136 0.44545087 -0.6727117 -0.36287397 -0.293349 0.4870821
00000000: cbea cc3e 37a4 673e 1279 08be 8e70 0dbf
00000010: 7842 38bf 0668 9e3e 3a63 923f 3b57 403e
00000020: d17f 923d 69d7 6bbf a7a7 e03d df4a 82bd
00000030: 4789 f23e c5bc 6dbd bcfe 863d 4a3f 363f
00000040: 435b ce3d 6238 13bf a743 74bf 6ad7 a3bd
00000050: e58d 663d 18fd 57bf 4b9d fcbe d2ac 203e
00000060: 08cd 893f adc6 2bbe ef0e 433e 2313 35be
00000070: afbf 8ebf 455a cf3e 87da 213f 2d00 d83d
00000080: 56b5 b03c 0333 c7be ceba 283f a180 82be
00000090: b908 8bbf 2e2e 98bd 8d6e f03e fa8c fabe
000000a0: 1b31 bf3d a7d5 b3bc 42ae c7be 2312 e43e
000000b0: d536 2cbf 9eca b9be d731 96be d362 f93e

encoder.0.bias f4 [16]
0.16999593 -0.17905205 0.4878676 -0.5417862 0.79398525 -0.038116902 -0.1231676 -0.2472095
0.47651502 -0.021119267 0.64608175 0.34914932 -0.33161753 -0.19647735 0.020898039 -0.1195853
00000000: 6a13 2e3e 6c59 37be c8c9 f93e 80b2 0abf
00000010: 9e42 4b3f 7820 1cbd 4b3f fcbd 7d24 7dbe
00000020: c7f9 f33e 5002 adbc 9d65 253f b3c3 b23e
00000030: c6c9 a9be 5c31 49be 5d32 ab3c 23e9 f4bd

encoder.2.weight f4 [8, 16]
-0.045241047 -0.0023930706 0.21674892 1.1218127 0.41161367 0.07525001 -0.4362499 -0.048850134
0.33795846 0.1291334 -0.6937371 0.012997909 0.073246956 0.05410262 -0.012555779 -0.11506682
0.3287494 -0.064088844 0.25994065 -0.17495081 0.35578346 -0.1769526 0.29739395 0.053042624
0.08390445 0.5705209 0.021301493 -0.16380444 -0.16709466 -0.21816465 0.085100085 -0.06976244
-0.09953759 -0.29760635 0.42912441 0.7634477 0.22822213 0.48020977 -0.092163876 0.30855042
0.05057034 0.086239666 0.5281328 -0.23020801 -0.20522483 -0.28179106 0.16490375 0.014830617
-0.01953014 -0.2587965 -0.25540242 0.37149 0.30386195 0.2439666 0.10217885 -0.27439523
0.19833903 -0.09545598 0.35126272 -0.077869825 -0.06441887 -0.3342972 -0.15344757 -0.23698688
0.23546322 0.1072719 0.17902729 0.26299164 -0.017591028 -0.020720368 0.12806137 -0.010822754
0.39912602 -0.032062113 0.3633339 -0.20394734 0.11117779 0.3467832 0.099052064 -0.1709216
-0.08143603 0.042918805 0.33846813 0.027841717 -0.078293815 0.05848374 0.27046376 0.35297376
0.2870451 0.1746806 -0.036429666 -0.30897018 0.051784765 0.02820859 0.11659179 0.4890718
0.13183045 -0.32228512 0.34582496 -0.6787677 -0.39992413 0.25621983 -0.5894281 0.0866018
0.03487573 0.10537737 -0.2130816 -0.05695644 0.09132864 -0.123782836 -0.18822198 0.16612865
0.30991834 0.15593097 -0.046421222 -0.31216854 -0.11601116 0.11822708 0.13325961 -0.045230556
0.2192509 -0.06309665 -0.2033823 -0.19256456 0.06144399 -0.13683195 0.00021308244 -0.31967047
00000000: ad4e 39bd 10d5 1cbb 6ef3 5d3e 8f97 8f3f
00000010: 07bf d23e ad1c 9a3d 265c dfbe 1417 48bd
00000020: e408 ad3e 8c3b 043e c198 31bf 2ff5 543c
00000030: 8002 963d b59a 5d3d c1b6 4dbc 27a8 ebbd
00000040: d751 a83e 0341 83bd f116 853e 4e26 33be
00000050: 4029 b63e 1033 35be 0544 983e 3943 593d
00000060: 19d6 ab3d a80d 123f 7880 ae3c 5abc 27be
00000070: dd1a 2bbe 8e66 5fbe f448 ae3d 9cdf 8ebd
00000080: 5dda cbbd dc5f 98be 32b6 db3e 4f71 433f
00000090: 10b3 693e 0ede f53e 6ac0 bcbd 52fa 9d3e
000000a0: d822 4f3d 6c9e b03d b633 073f a6bb 6bbe
000000b0: 7526 52be eb46 90be 87dc 283e 1efc 723c
000000c0: acfd 9fbc fa80 84be 1bc4 82be f033 be3e
000000d0: cb93 9b3e 61d2 793e 2543 d13d 887d 8cbe
000000e0: 6319 4b3e 6d7e c3bd b5d8 b33e 377a 9fbd
000000f0: 0aee 83bd 0129 abbe 5c21 1dbe b0ac 72be
00000100: 451d 713e 5fb1 db3d ee52 373e d7a6 863e
00000110: 0f1b 90bc c3bd a9bc 8522 033e ec51 31bc
00000120: 3f5a cc3e 9053 03bd e706 ba3e 92d7 50be
00000130: 2eb1 e33d 918d b13e cfdb ca3d 1206 2fbe
00000140: efc7 a6bd a1cb 2f3d b24b ad3e 5014 e43c
00000150: 8258 a0bd a58c 6f3d 3a7a 8a3e fab8 b43e
00000160: 93f7 923e 79df 323e 4637 15bd 5731 9ebe
00000170: 431c 543d b315 e73c adc7 ee3d 9e67 fa3e
00000180: 90fe 063e 8e02 a5be f80f b13e b8c3 2dbf
00000190: dbc2 ccbe 3f2f 833e c3e4 16bf 495c b13d
000001a0: dad9 0e3d 17d0 d73d 1032 5abe 284b 69bd
000001b0: 830a bb3d db81 fdbd 43bd 40be a11d 2a3e
000001c0: 9ead 9e3e 5eac 1f3e 2e24 3ebd 8ed4 9fbe
000001d0: 4297 edbd 0a21 f23d 3575 083e ad43 39bd
000001e0: 4f83 603e d138 81bd 7343 50be a52f 45be
000001f0: b1ac 7b3d ad1d 0cbe e26e 5f39 d9ab a3be

encoder.2.bias f4 [8]
-0.13204007 0.08322908 -0.07706999 0.06256457 -0.044650067 -0.06827622 0.10834293 0.08833728
00000000: 8335 07be 0274 aa3d dfd6 9dbd da21 803d
00000010: fde2 36bd 67d4 8bbd e6e2 dd3d 2dea b43d

encoder.4.weight f4 [4, 8]
0.05133175 0.10359167 0.0023894415 0.24848722 -0.4811582 0.14815387 0.3423682 0.046286814
-0.39228845 -0.15039569 -0.23502252 -0.3009977 -0.057355903 0.09334916 0.046020556 0.5752478
0.35502762 0.18132398 0.5098968 0.28295267 -0.025343543 -0.057794645 -0.7186368 -0.17756374
-0.47876343 0.28688574 -0.107285924 -0.0047583124 0.18372047 0.3330377 -0.06902911 0.62771547
00000000: 3e41 523d df27 d43d 2d98 1c3b 6f73 7e3e
00000010: 5e5a f6be a6b5 173e e24a af3e 3e97 3d3d
00000020: 08da c8be 5401 1abe bea9 70be 5f1c 9abe
00000030: 06ee 6abd d82d bf3d 0d80 3c3d 7143 133f
00000040: 2ec6 b53e feac 393e 9988 023f 2cdf 903e
00000050: 439d cfbc 14ba 6cbd 95f8 37bf 45d3 35be
00000060: 7b20 f5be b0e2 923e b9b8 dbbd 9eeb 9bbb
00000070: 3821 3c3e eb83 aa3e 225f 8dbd f6b1 203f

encoder.4.bias f4 [4]
0.15683104 -0.002915888 -0.06877182 0.12504354
00000000: 5198 203e 7c18 3fbb 3dd8 8cbd 6a0b 003e

encoder.6.weight f4 [2, 4]
0.27277032 1.3575474 0.34516558 0.010675731 -0.23969617 -0.15393275 0.3036497 -0.23718299
00000000: 8da8 8b3e 1dc4 ad3f 8bb9 b03e 43e9 2e3c
00000010: ea72 75be 8ca0 1dbe f977 9b3e 19e0 72be

encoder.6.bias f4 [2]
-0.20106061 0.19901913
00000000: d5e2 4dbe accb 4b3e

decoder.0.weight f4 [4, 2]
-0.23496042 -0.25800008 0.029266113 -0.42133704 -0.89077735 0.52666503 0.011734025 -0.6208273
00000000: 7799 70be 9618 84be 7dbf ef3c 7db9 d7be
00000010: fc09 64bf 85d3 063f 1140 403c 8aee 1ebf

decoder.0.bias f4 [4]
0.42146003 0.08105131 0.089524955 -0.8894212
00000000: 9cc9 d73e 3bfe a53d dc58 b73d 1cb1 63bf

decoder.2.weight f4 [8, 4]
0.661314 -0.19192463 0.39098218 0.8682497 -0.7197884 -0.14011748 1.1000597 -0.1019621
-0.90129983 -1.5941143 -1.2591352 0.00047936168 1.1404656 0.5658514 0.28124076 0.09495995
-0.7435514 -1.2786149 -0.77766645 -0.8891547 0.5097975 -0.05718488 -0.3652852 0.8775496
1.3564386 -0.6090447 -0.021391328 0.37038887 -0.5977552 -0.38827312 0.7966062 0.65242016
00000000: e04b 293f e487 44be d12e c83e 9d45 5e3f
00000010: 0d44 38bf f57a 0fbe c2ce 8c3f 81d1 d0bd
00000020: 96bb 66bf f00b ccbf 582b a1bf d652 fb39
00000030: c7fa 913f a3db 103f cafe 8f3e 5d7a c23d
00000040: 6259 3ebf a7a9 a3bf 2615 47bf a49f 63bf
00000050: 1782 023f b13a 6abd a906 bbbe 17a7 603f
00000060: c89f ad3f 5aea 1bbf de3c afbc 9ca3 bd3e
00000070: 7c06 19bf bccb c6be 62ee 4b3f 0205 273f

decoder.2.bias f4 [8]
-0.83871305 -0.25410014 0.67420024 -0.030587511 0.8093655 -0.23901749 -0.54578775 -0.47391275
00000000: e6b5 56bf 6a19 82be 6398 2c3f a992 fabc
00000010: 9432 4f3f 00c1 74be bfb8 0bbf b1a4 f2be

decoder.4.weight f4 [16, 8]
-0.8201912 -0.4458817 0.4676254 -0.7358997 0.8245212 -0.21679196 -0.76208264 -0.18513818
-0.6451755 0.673618 0.6247889 -0.30387157 1.049774 -1.182023 -0.5819803 0.27060154
0.00027448096 0.09433379 0.8198656 -0.8375809 0.9500137 -1.0228674 -0.26269048 0.5937759
0.70919913 0.4033121 0.3683797 -0.16272986 -0.21905474 -0.033086453 0.15643093 0.29466125
0.22222498 1.6225848 0.20590086 -0.093755126 0.28686804 -0.24131761 0.12537014 0.5779639
0.3184353 0.015564195 -0.28356987 1.0324798 -0.37048674 0.1269385 0.69537246 0.303353
-0.6505545 -0.21324767 0.88331586 -0.6833989 1.4638699 -0.40272436 -0.40676543 0.029080635
0.34111828 -0.09134764 0.39295068 0.039359637 0.04248856 0.75272804 0.2090543 -0.33161917
0.24633099 0.15253726 -0.7775926 -0.18363063 -0.0774509 -0.2138808 0.04585033 0.06428793
-0.52885866 -0.4095936 0.5903183 -0.026279092 1.0306325 -0.50265294 -0.68753225 -0.9626029
-0.7946089 -0.48286924 0.70489997 -0.41488996 0.3597928 -0.5043072 -0.7680951 -0.89314324
-0.3367211 0.26378357 0.0035484047 0.7885281 -0.4808931 0.108522825 -0.4150397 -0.07891041
-0.50608844 -0.5670513 0.46844134 -0.005681587 1.3211324 -0.70192224 -0.97207475 -0.7338531
-0.40170178 0.65777504 0.27659005 -0.21970652 -0.44492492 0.027280563 0.08767956 0.5223247
-0.004670361 -0.14170808 0.16906738 1.0177572 -0.17342341 0.27366316 -0.3008645 -0.87744415
0.10544099 1.154993 -0.35014185 0.5135135 0.48827514 -0.4768726 0.2929327 0.08668663
00000000: 0df8 51bf 9b4a e4be 996c ef3e ec63 3cbf
00000010: d213 533f b6fe 5dbe d917 43bf dd94 3dbe
00000020: 392a 25bf 3b72 2c3f 2af2 1f3f 0e95 9bbe
00000030: ff5e 863f 884c 97bf a9fc 14bf 498c 8a3e
00000040: 36e8 8f39 1332 c13d b6e2 513f b46b 56bf
00000050: 1934 733f 52ed 82bf 5e7f 86be b301 183f
00000060: 138e 353f ec7e ce3e 449c bc3e a8a2 26be
00000070: e34f 60be a985 07bd 6e2f 203e d7dd 963e
00000080: f28e 633e dcb0 cf3f add7 523e b002 c0bd
00000090: 5ee0 923e f71b 77be 0861 003e 71f5 133f
000000a0: f409 a33e f700 7f3c 1230 91be 4c28 843f
000000b0: 70b0 bdbe 2bfc 013e ee03 323f 1651 9b3e
000000c0: bd8a 26bf 995d 5abe fd20 623f 3bf3 2ebf
000000d0: 1760 bb3f e331 cebe 8f43 d0be 833a ee3c
000000e0: 0ea7 ae3e 7914 bbbd d530 c93e 9237 213d
000000f0: 7c08 2e3d c9b2 403f 5512 563e fdc9 a9be
00000100: 313e 7c3e ba32 1c3e 4f10 47bf ab09 3cbe
00000110: 949e 9ebd 9203 5bbe 8ecd 3b3d 64a9 833d
00000120: 4863 07bf 41b6 d1be 1a1f 173f 4047 d7bc
00000130: c4eb 833f ddad 00bf 1d02 30bf 256d 76bf
00000140: 7d6b 4bbf a33a f7be 5374 343f 756c d4be
00000150: c336 b83e 471a 01bf e1a1 44bf 09a5 64bf
00000160: b566 acbe a40e 873e 5a8c 683b fadc 493f
00000170: 9f37 f6be 3741 de3d 1580 d4be c89b a1bd
00000180: 038f 01bf 462a 11bf 8bd7 ef3e 9b2c babb
00000190: de1a a93f 2db1 33bf e4d9 78bf ccdd 3bbf
000001a0: dbab cdbe f263 283f 369d 8d3e bffa 60be
000001b0: 33cd e3be 7d7b df3c 5791 b33d 12b7 053f
000001c0: d409 99bb ec1b 11be 0020 2d3e de45 823f
000001d0: e895 31be 941d 8c3e e90a 9abe 2ea0 60bf
000001e0: 72f1 d73d d0d6 933f cb45 b3be 9f75 033f
000001f0: 33ff f93e a528 f4be 46fb 953e c388 b13d

decoder.4.bias f4 [16]
0.42553744 0.59278834 0.19023992 -0.54631644 -0.07174904 -0.21304059 0.53008044 -0.08756671
-0.2828221 0.6285735 0.54827136 -0.05336038 0.47858718 -0.11395651 0.26464415 0.22961819
00000000: 0be0 d93e fac0 173f 41ce 423e 65db 0bbf
00000010: 29f1 92bd 5027 5abe 5ab3 073f 2d56 b3bd
00000020: 0fce 90be 31ea 203f 835b 0c3f 6a90 5abd
00000030: 6109 f53e 0862 e9bd 707f 873e 0821 6b3e

decoder.6.weight f4 [3, 16]
0.046895247 0.06657098 0.10293709 -1.0924934 0.15611744 -0.001906088 0.0512773 -0.455946
-0.031013181 -0.0665562 0.13198543 0.0023151902 -0.16585438 0.1028724 0.016138729 0.19049215
-0.31680256 1.0621016 0.65335566 0.8200443 2.0811234 0.0017411342 -0.13012844 -0.046766963
1.0065007 -0.9265297 -0.7934046 0.3674395 -0.6482988 1.5893432 -1.2969854 1.3305979
-0.842656 -1.0071418 -0.8951312 0.3893324 0.08296331 0.81557566 -0.9371947 0.5913072
-0.81736547 -0.94709 -0.714939 1.1091275 -1.0100454 0.29271132 0.6976886 0.074118614
00000000: 3b15 403d 5e56 883d aed0 d23d d3d6 8bbf
00000010: 40dd 1f3e b3d5 f9ba 2508 523d c171 e9be
00000020: 5b0f febc 9e4e 88bd 3027 073e 72ba 173b
00000030: bbd5 29be c4ae d23d 5e35 843c 6010 433e
00000040: f233 a2be f2f2 873f 5142 273f 6cee 513f
00000050: 2031 0540 c536 e43a 6440 05be b78e 3fbd
00000060: 04d5 803f 0d31 6dbf 901c 4bbf 0821 bc3e
00000070: e9f6 25bf 996f cb3f 9e03 a6bf 0851 aa3f
00000080: 4eb8 57bf 06ea 80bf 5127 65bf 9456 c73e
00000090: abe8 a93d 91c9 503f feeb 6fbf e95f 173f
000000a0: dd3e 51bf 7e74 72bf 3e06 37bf e4f7 8d3f
000000b0: 2b49 81bf 42de 953e b89b 323f 80cb 973d

decoder.6.bias f4 [3]
0.86494344 -0.5043146 -0.18533695
00000000: ef6c 5d3f c31a 01bf f8c8 3dbe
