autoencoders/best_models_cuda/best_model_bone3.pth (torch, 8121 bytes, 15 tensors)

encoder.0.weight f4 [16, 3]
0.18359435 -0.7437864 -0.35864833 -0.17296815 -0.012452363 -0.45459363 -0.3803923 0.33044925
-0.093147285 0.87629354 -0.40061498 0.79897183 1.0091283 0.44896966 -0.1268248 -0.43044725
-0.069971785 -0.47030678 0.40722993 -0.9828069 0.09947222 0.17210698 0.8250345 0.4393623
-0.1902308 0.147646 -0.61556965 0.46465158 -0.18305749 -0.14774026 0.1085722 0.18004254
-0.1367104 0.6072427 -0.015754381 0.16167033 -0.1892261 -0.35440066 0.025338551 -0.10041807
0.7522193 -1.137449 -0.13853495 0.4953488 -0.54588324 0.32843027 0.24406856 0.54048765
00000000: 2800 3c3e c968 3ebf c1a0 b7be 901e 31be
00000010: ff04 4cbc 7fc0 e8be c8c2 c2be a530 a93e
00000020: 01c4 bebd c654 603f 681d cdbe 6b89 4c3f
00000030: 1e2b 813f 5adf e53e 5cde 01be 9563 dcbe
00000040: 5e4d 8fbd 0dcc f0be 7180 d03e 3c99 7bbf
00000050: 17b8 cb3d d03c 303e 7635 533f 18f4 e03e
00000060: ddcb 42be 8330 173e f995 1dbf d0e6 ed3e
00000070: 6c73 3bbe 3949 17be 1a5b de3d 125d 383e
00000080: d0fd 0bbe 4274 1b3f 550f 81bc e88c 253e
00000090: 7dc4 41be 0174 b5be cb92 cf3c fda7 cdbd
000000a0: 7291 403f ee97 91bf 1bdc 0dbe 5c9e fd3e
000000b0: 01bf 0bbf 0328 a83e 1ced 793e 665d 0a3f

encoder.0.bias f4 [16]
0.28396988 0.097115286 -0.03740628 -0.039191455 0.093335085 0.019029565 -0.0684442 -0.12772308
0.037388515 0.17525229 0.2033283 -0.01516568 0.08339219 -0.019136911 -0.006930085 -0.23559766
00000000: 8064 913e 61e4 c63d 5437 19bd 3887 20bd
00000010: 7726 bf3d e4e3 9b3c 792c 8cbd d7c9 02be
00000020: b324 193d 5675 333e 4b35 503e 7979 78bc
00000030: 86c9 aa3d 03c5 9cbc c415 e3bb 8340 71be

encoder.2.weight f4 [8, 16]
0.21993695 0.15457274 -0.1676694 0.18612641 0.060032718 0.18665408 -0.16008902 -0.054837186
0.16449681 0.3233796 0.066481225 0.23793143 0.27657452 0.34065273 0.33417004 -0.4327483
0.022126352 0.07672411 0.09025138 0.3743631 -0.019836785 -0.020719608 -0.08228326 0.3896831
-0.099837855 -0.12974903 0.15840802 0.18663831 0.08881924 -0.005200578 0.16095068 0.07028788
-0.12788084 0.15983573 0.0017668727 0.18273112 -0.22836488 0.0045777713 0.0019163945 -0.3695657
-0.282268 -0.35211423 -0.13903978 0.05001548 -0.05162196 -0.09373248 0.63139504 0.120949276
-0.018584726 0.13209827 -0.09241946 0.07480969 -0.25726423 -0.08776238 -0.01951157 0.014305443
-0.08837986 -0.064171135 -0.11583168 0.1537364 0.016427781 0.09456855 0.6009739 0.13078289
-0.3639015 -0.24029925 -0.1541658 -0.23372878 0.09151806 0.08743963 0.21719259 0.3567319
0.18036927 0.09641023 -0.14184564 0.50479186 0.023356684 -0.064505994 -0.34330386 0.07876861
0.040870607 0.14420478 -0.01274861 -0.30914217 -0.16553965 0.11008303 -0.18396556 0.046637286
0.56410235 0.08884135 -0.17048338 -0.07199959 3.745845e-05 0.032874815 0.058048654 -0.0016606695
-0.38966593 0.16208719 0.22941162 0.06893499 -0.25193444 0.22982708 -0.18146454 0.013444042
0.09819915 -0.5176555 -0.03414911 0.018748714 -0.18398398 0.29685763 -0.09083391 0.3766687
-0.056976587 0.25058043 -0.36905915 0.008649504 0.30451006 0.18352157 0.051793456 0.031913973
0.0175029 -0.19032557 0.26654622 -0.090260856 0.20445733 0.062451832 -0.014146168 0.34446555
00000000: 2737 613e 5148 1e3e 87b1 2bbe ec97 3e3e
00000010: dee4 753d 3f22 3f3e 60ee 23be f59c 60bd
00000020: da71 283e 0392 a53e 4f27 883d 4ca4 733e
00000030: 2d9b 8d3e 096a ae3e 5618 ab3e 2f91 ddbe
00000040: 5342 b53c 8821 9d3d b7d5 b83d 85ac bf3e
00000050: c180 a2bc 2bbc a9bc 2084 a8bd 8b84 c73e
00000060: ca77 ccbd eedc 04be b635 223e 1d1e 3f3e
00000070: dde6 b53d 9c69 aabb 41d0 243e 18f3 8f3d
00000080: 32f3 02be faab 233e 6996 e73a de1d 3b3e
00000090: 7cd8 69be 2101 963b 872f fb3a b737 bdbe
000000a0: 6e85 90be 5148 b4be 7260 0ebe 08dd 4c3d
000000b0: 8c71 53bd d1f6 bfbd 1ba3 213f 41b4 f73d
000000c0: ff3e 98bc c544 073e 6a46 bdbd d335 993d
000000d0: 23b8 83be c3bc b3bd bad6 9fbc 6061 6a3c
000000e0: 8000 b5bd 286c 83bd 2939 edbd 136d 1d3e
000000f0: 8e93 863c 28ad c13d 6dd9 193f f3eb 053e
00000100: 4c51 babe 0211 76be a4dd 1dbe 9956 6fbe
00000110: d26d bb3d 8c13 b33d bc67 5e3e 90a5 b63e
00000120: b9b2 383e ba72 c53d fc3f 11be 0a3a 013f
00000130: 8456 bf3c b81b 84bd 86c5 afbe 7051 a13d
00000140: f067 273d 6baa 133e 8cdf 50bc e247 9ebe
00000150: 3a83 29be 3673 e13d 7861 3cbe bd06 3f3d
00000160: 0369 103f 74f2 b53d 3293 2ebe 8574 93bd
00000170: b41c 1d38 bea7 063d 6dc4 6d3d d2aa d9ba
00000180: 4b82 c7be 2ffa 253e e1ea 6a3e ca2d 8d3d
00000190: 8dfd 80be ca57 6b3e d7d1 39be 6644 5c3c
000001a0: a31c c93d 1285 04bf f0df 0bbd e796 993c
000001b0: 4c66 3cbe b9fd 973e 2107 babd b8da c03e
000001c0: 4860 69bd 144c 803e 52f5 bcbe a6b6 0d3c
000001d0: bee8 9b3e 14ed 3b3e 6025 543d 3ab8 023d
000001e0: 3e62 8f3c b5e4 42be bf78 883e afda b8bd
000001f0: 435d 513e 7ecd 7f3d 54c5 67bc ca5d b03e

encoder.2.bias f4 [8]
0.14877076 -0.1790198 -0.064183116 0.04153949 -0.033628646 -0.013007834 -0.053836647 0.081402525
00000000: 5d57 183e f750 37be 7072 83bd 5025 2a3d
00000010: 31be 09bd cf1e 55bc d183 5cbd 5eb6 a63d

encoder.4.weight f4 [4, 8]
0.13628389 0.16280334 -0.0782508 0.059027053 -0.4348325 -0.099495925 -0.4132169 0.00011137982
0.1901812 -0.6514893 0.26959258 0.22565466 0.7373094 0.18437062 0.07437853 0.1398055
0.0035803444 -0.2180738 0.026370144 -0.12225159 0.12075184 -0.230559 -0.45081624 0.21117693
0.45661536 0.23314463 -0.314386 0.046504624 -0.5391304 0.26788867 -0.16325465 0.15496194
00000000: 018e 0b3e ebb5 263e f541 a0bd 5ac6 713d
00000010: 5ea2 debe 85c4 cbbd 2a91 d3be 9694 e938
00000020: dcbe 423e 01c8 26bf 0a08 8a3e 0412 673e
00000030: 4fc0 3c3f a7cb 3c3e c553 983d 2c29 0f3e
00000040: 36a4 6a3b bd4e 5fbe 3306 d83c 0b5f fabd
00000050: be4c f73d a917 6cbe 63d1 e6be c43e 583e
00000060: 7dc9 e93e 77bd 6e3e 34f7 a0be a27b 3e3d
00000070: 7304 0abf b428 893e 3a2c 27be 58ae 1e3e

encoder.4.bias f4 [4]
-0.008293632 0.16442285 0.059799124 0.12699866
00000000: 04e2 07bc 775e 283e edef 743d f00b 023e

encoder.6.weight f4 [1, 4]
0.048745096 0.4323379 0.4631875 0.5323524
00000000: f0a8 473d 655b dd3e e926 ed3e 3f48 083f

decoder.0.weight f4 [4, 1]
0.32677817 1.2225347 0.18132932 0.24846578
00000000: 784f a73e 047c 9c3f 65ae 393e d06d 7e3e

decoder.0.bias f4 [4]
-0.48152092 0.34767628 -0.6600002 -0.56206274
00000000: e989 f6be a002 b23e c6f5 28bf 58e3 0fbf

decoder.2.weight f4 [8, 4]
0.03441068 1.2785075 -0.5715647 -0.2841512 0.29933718 -0.26590726 0.52742285 0.29760635
-1.2240287 -0.020975275 -0.21314426 -0.35414544 -0.031485952 0.5784213 -0.8317432 -1.446815
0.11394664 0.22357014 0.2990704 0.20169337 -0.0016556317 0.63419664 0.64664036 0.044396754
-0.69356304 -0.7280019 -0.6605282 -0.37938017 -0.20458566 0.8523987 0.36452183 0.1058825
00000000: 37f2 0c3d 22a6 a33f 1052 12bf 447c 91be
00000010: b942 993e ff24 88be 2f05 073f dc5f 983e
00000020: f9ac 9cbf 57d4 abbc 7d42 5abe 8d52 b5be
00000030: 6af7 00bd 6b13 143f 1fed 54bf 3c31 b9bf
00000040: db5c e93d 92ef 643e c11f 993e b588 4e3e
00000050: c801 d9ba b65a 223f 398a 253f 5fd9 353d
00000060: 598d 31bf 555e 3abf 6018 29bf 1e3e c2be
00000070: e77e 51be cd36 5a3f 9ba2 ba3e edd8 d83d

decoder.2.bias f4 [8]
0.28870827 -0.4484307 0.37666366 0.5531605 -0.41763908 0.093337774 0.30563712 -0.07666081
00000000: 92d1 933e b598 e5be 0fda c03e ed9b 0d3f
00000010: cad4 d5be e027 bf3d 787c 9c3e 5800 9dbd

decoder.4.weight f4 [16, 8]
-0.2679878 -0.19548553 0.8135527 0.46754342 -0.671491 -0.43256268 0.41103557 -0.36194548
-0.28511947 0.21165176 -0.17470118 -0.38585573 0.07028351 -0.017401652 -0.17779441 -0.019384634
0.3628583 0.5479514 -0.10194375 -0.320206 -0.3479254 0.1130043 0.08345134 0.13462272
-0.16434126 0.16374937 0.029179875 -0.5198837 0.17866127 0.34411424 -0.23744868 -0.0016052831
0.63371044 -0.01758321 -0.27904677 0.2492011 0.43412682 0.55048174 -0.45820394 0.40625045
0.5699326 -0.1489999 -0.1622545 0.33190972 -0.09942088 0.16590281 -0.14527215 -0.047566622
-0.2495708 0.19096781 -0.17458515 -0.36106437 0.06056813 -0.02813446 -0.14998062 -0.03149098
0.03700307 -0.45299262 0.12821884 0.6327032 0.04016428 -0.30432913 -0.13789092 -0.10211439
0.24095169 0.57650673 -0.24808766 -0.32046813 -0.25682935 -0.10550989 0.23904377 0.14082244
0.13520451 0.0062824194 -0.015580479 0.11275594 0.5217261 0.44572756 -0.09143072 0.16664813
-0.721599 -0.42285267 0.78777736 0.61019325 -0.00020327244 -0.2920814 0.5181224 -0.5382673
-0.32035682 0.21889718 -0.16495545 -0.397015 0.070131436 -0.0052994154 -0.20101447 -0.019104693
-0.31398576 0.2219092 -0.15870388 -0.3969025 0.07463579 0.00059164426 -0.19086958 -0.0032739914
-0.08876653 0.1920378 0.08987276 -0.16416655 0.3394329 0.6956419 0.55077213 0.1865144
-0.3354163 -0.37193626 0.62931067 0.372483 0.37975547 -0.1335176 0.72890764 -0.09966715
0.0739591 0.23585534 -0.1599954 -0.20562446 0.05957322 -0.057781175 0.31228164 0.38004306
00000000: b235 89be 5c2d 48be fd44 503f da61 ef3e
00000010: d6e6 2bbf db78 ddbe 4173 d23e eb50 b9be
00000020: 2efb 91be 3dbb 583e dee4 32be e28e c5be
00000030: cdf0 8f3d e98d 8ebc bd0f 36be 86cc 9ebc
00000040: 90c8 b93e 8b46 0c3f e3c7 d0bd 0af2 a3be
00000050: 4723 b2be cc6e e73d 89e8 aa3d 8ada 093e
00000060: 1349 28be eaad 273e a20a ef3c 1917 05bf
00000070: fbf2 363e be2f b03e bf25 73be 5d68 d2ba
00000080: d93a 223f aa0a 90bc 38df 8ebe 932e 7f3e
00000090: df45 de3e 5fec 0c3f b599 eabe 0f00 d03e
000000a0: 1ae7 113f 6e93 18be 0b26 26be 12f0 a93e
000000b0: 2d9d cbbd 6de2 293e 39c2 14be 38d5 42bd
000000c0: 7d8f 7fbe 118d 433e 73c6 32be 6edd b8be
000000d0: 4a16 783d 3d7a e6bc 8594 19be b0fc 00bd
000000e0: 8890 173d a6ee e7be cd4b 033e d6f8 213f
000000f0: 4d83 243d 07d1 9bbe 4733 0dbe 5921 d1bd
00000100: 0abc 763e f295 133f b10a 7ebe 6614 a4be
00000110: 237f 83be 9215 d8bd e4c7 743e c233 103e
00000120: 0d73 0a3e c1dc cd3b 4445 7fbc 96ec e63d
00000130: d78f 053f 6736 e43e 0840 bbbd cfa5 2a3e
00000140: b6ba 38bf 2580 d8be c7ab 493f a035 1c3f
00000150: 8825 55b9 b18b 95be aba3 043f e3cb 09bf
00000160: cf05 a4be 9526 603e 15ea 28be 8d45 cbbe
00000170: 12a1 8f3d b8a6 adbb bdd6 4dbe 7281 9cbc
00000180: bec2 a0be 2a3c 633e 4583 22be ce36 cbbe
00000190: a6da 983d 9318 1b3a 5173 43be 7690 56bb
000001a0: 3acb b5bd 8fa5 443e 360f b83d 471b 28be
000001b0: 26ca ad3e 9615 323f 67ff 0c3f a2fd 3e3e
000001c0: afbb abbe 6e6e bebe 811a 213f 17b6 be3e
000001d0: 4f6f c23e d6b8 08be b199 3a3f 4a1e ccbd
000001e0: de77 973d 1084 713e d6d5 23be 388f 52be
000001f0: 0c03 743d f4ab 6cbd 61e3 9f3e 0195 c23e

decoder.4.bias f4 [16]
0.3288055 -0.1712005 -0.21229605 -0.2578508 0.052759912 0.24817668 -0.15031375 0.24107808
-0.23275672 0.047328513 0.2969133 -0.17876062 -0.18463485 -0.21153899 0.060640424 -0.19123967
00000000: 3259 a83e 2f4f 2fbe 2364 59be 0505 84be
00000010: c71a 583d 0722 7e3e d9eb 19be 2cdd 763e
00000020: c757 6ebe 8bdb 413d 0505 983e 060d 37be
00000030: eb10 3dbe ad9d 58be 1862 783d 55d4 43be

decoder.6.weight f4 [3, 16]
0.26423776 -0.65610164 -0.080671474 -0.14383352 0.17917158 0.31972432 -0.48072433 0.2696177
-0.7327998 0.10423863 0.3415908 -0.7304422 -0.77461576 -0.6125201 -0.08223997 -0.30971134
0.015581148 0.49657217 0.58274865 0.49360278 -0.31445697 -0.52385986 0.4079045 0.0975879
0.3384943 0.47273204 -0.17223719 0.32280365 0.4317289 0.32401067 -0.07513872 0.11684234
0.7440574 -0.21081586 -0.23259273 -0.47386566 -0.25525665 -0.2665168 -0.3314561 0.3437382
-0.16009675 -0.13271536 0.686391 -0.17119233 0.065968275 -0.38716248 0.7773787 -0.28341943
00000000: 2c4a 873e 47f6 27bf 1637 a5bd 1849 13be
00000010: c178 373e e8b2 a33e 8021 f6be 550b 8a3e
00000020: c598 3bbf 107b d53d fde4 ae3e 43fe 3abf
00000030: 384d 46bf 1ece 1cbf 6e6d a8bd 7c92 9ebe
00000040: 1248 7f3c b53e fe3e 042f 153f 81b9 fc3e
00000050: 8100 a1be ae1b 06bf dcd8 d03e 2adc c73d
00000060: 204f ad3e ef09 f23e f25e 30be 8546 a53e
00000070: 920b dd3e bae4 a53e 54e2 99bd 094b ef3d
00000080: 8c7a 3e3f 1de0 57be ca2c 6ebe 859e f2be
00000090: 00b1 82be e474 88be 9db4 a9be 74fe af3e
000000a0: 67f0 23be 89e6 07be 52b7 2f3f 0b4d 2fbe
000000b0: 601a 873d 293a c6be 4a02 473f 5a1c 91be

decoder.6.bias f4 [3]
0.51197386 -0.21882854 0.27270603
00000000: b810 033f 9714 60be 20a0 8b3e
