autoencoders/best_models_cuda/best_model_bone9.pth (torch, 8121 bytes, 15 tensors)

encoder.0.weight f4 [16, 3]
000000 47 8a ff be 28 8f 9d 3c bf da 70 3e ed bf 5f be
       -0.49910185 0.019233301 0.23520945 -0.21850558
000010 eb 07 88 bc 0b ca 10 3f cd 04 92 3e 3e 8b c3 bc
       -0.016605338 0.56558293 0.28519288 -0.023870107
000020 a0 e9 ce 3d aa 98 f2 3e 1c e6 d1 bc 02 95 36 3e
       0.10103154 0.47382098 -0.02562242 0.1783028
000030 fb 58 93 be 61 b9 24 bf bd a6 90 bf ab fd 96 3d
       -0.28778824 -0.64345366 -1.1300884 0.07372602
000040 19 b5 87 bc 68 51 d2 3e d8 f4 10 3e d7 47 3c ba
       -0.016565846 0.41077733 0.141559 -0.0007182336
000050 29 e9 f9 bc 16 f9 8a 3e 71 0e 7b bc f6 df c3 3d
       -0.030506687 0.27143162 -0.015323267 0.095642015
000060 ff 87 87 bd 2c 0b cf 3c 35 be da 3d a2 a1 54 be
       -0.06617736 0.025273882 0.1068081 -0.20764783
000070 4a e6 b8 bb d6 83 45 3e 64 b8 83 3f 04 da a1 be
       -0.005642687 0.19288573 1.0290647 -0.31611645
000080 05 a8 ee be 68 f3 f9 3e 35 86 b1 3d 2c 1f c0 be
       -0.46612564 0.48818517 0.08668176 -0.37523782
000090 25 e5 64 3e a4 f7 47 3e 6d ac 73 bf a1 6e 54 3f
       0.22353037 0.19528061 -0.95184976 0.82981306
0000a0 79 8f 02 3e a7 bf c6 be d6 b9 05 bf e0 e5 27 3f
       0.12750043 -0.38818094 -0.5223669 0.65585136
0000b0 16 ce c3 be f5 6f fc 3c 19 bf 0b bf c5 c1 db be
       -0.3824317 0.030815104 -0.54588467 -0.42921272

encoder.0.bias f4 [16]
000000 a3 fd c1 3d 77 32 48 3d df 62 47 bd 9e ee bc bd
       0.094722055 0.048876252 -0.048678275 -0.092252
000010 4f d0 ea 3c d5 b5 19 bc 54 c5 f2 bc d6 e0 61 bd
       0.028663782 -0.009381731 -0.029635109 -0.05514606
000020 08 25 4a bc 54 aa 33 3d c0 a5 1a bd 0c 0e fc bc
       -0.0123379305 0.04386361 -0.037755728 -0.030768417
000030 2f cb cb 3c d7 d7 57 bd 55 fd 12 bc fe 4f 33 bd
       0.024877159 -0.052696075 -0.008971532 -0.04377746

encoder.2.weight f4 [8, 16]
000000 7d 63 98 bc 3e d2 cf 3d 6d e7 ca bd b1 be e0 bd
       -0.018602127 0.101475224 -0.09907422 -0.109738715
000010 36 45 f4 3e a6 15 5c be bf 33 09 bd 81 e7 e9 bd
       0.47709054 -0.21492633 -0.033496615 -0.11421109
000020 53 c5 ca bc a4 af 04 3e 2a ed 8d 3d 2a 32 2b 3d
       -0.024752295 0.12957627 0.06930001 0.041795887
000030 19 27 f9 bd e3 72 1f 3e a5 fb ef 3d 99 7c 0a bf
       -0.121656604 0.1557117 0.11717919 -0.5409637
000040 83 d0 d5 3e 38 bb ae 3d 39 02 8b be 6e a1 e4 be
       0.41760644 0.08531803 -0.27150133 -0.4465441
000050 d1 41 ea 3d 1d a5 5d be 14 c0 06 be 26 9c 5b be
       0.11438335 -0.21645017 -0.1315921 -0.21446285
000060 30 38 49 3d 9b c4 68 3e 49 06 91 be 29 ba 1c bf
       0.04912585 0.22731249 -0.28325108 -0.6122156
000070 6f b0 75 3e dd 52 64 be 0a 10 d6 3c 1f e4 27 3e
       0.23993085 -0.22297235 0.026130695 0.16395615
000080 3e 04 75 bd 40 a1 86 3e 54 63 1b 3e ec 22 80 3e
       -0.0598185 0.262949 0.1517461 0.25026643
000090 09 54 d0 3e 0e 15 84 3d 35 49 a4 3c 53 64 76 3d
       0.40689114 0.06449328 0.02005444 0.06015427
0000a0 03 98 3c bd 4d 51 ed 3d 6a ed 14 3d 1a c6 dc 3d
       -0.046043407 0.115877725 0.03635923 0.107799724
0000b0 f5 64 04 be 4d 4d 7c 3e 4e 92 c0 3e fc cd 7a 3e
       -0.12929137 0.24638863 0.37611622 0.2449264
0000c0 9e 84 7b bb 92 6a 26 3e 08 97 ce 3e c3 0a ee bd
       -0.0038378607 0.16251591 0.40349603 -0.116231464
0000d0 c7 35 96 bc 1a 9c 11 be f2 1e 2e bd c1 4d 85 3d
       -0.01833619 -0.14219704 -0.04250998 0.06508971
0000e0 09 c1 50 be ee 49 05 3e c4 68 a8 be aa 16 2f 3f
       -0.20386137 0.13016483 -0.3289243 0.6839396
0000f0 44 1d 22 be a7 f4 7c 3e 38 43 a2 3e 2e 11 5c 3e
       -0.15831476 0.24702702 0.3169191 0.21490929
000100 53 7c b3 be 6f 57 90 3e 21 13 20 bd 10 b1 cc 3d
       -0.3505579 0.28191707 -0.039080743 0.099947095
000110 ae f8 5c 3e 40 fe 07 3d 21 9c ea 3d ec a6 39 3e
       0.21579239 0.033201456 0.114555605 0.18130082
000120 ab 08 07 3e 57 92 04 be 76 e4 99 3e f4 24 cc 3e
       0.131869 -0.12946449 0.30057114 0.39871943
000130 a8 d5 11 be 42 c3 e5 3c f2 66 8b be d4 76 dc 3e
       -0.1424166 0.028047208 -0.2722698 0.4305941
000140 9c 43 b0 3c 99 2c 83 3e e9 1c e1 3d 48 c7 51 bd
       0.021516614 0.25619963 0.10991842 -0.05121544
000150 04 66 16 3e f7 49 70 be 3a a9 93 3c 54 8c 63 be
       0.14687353 -0.23465715 0.01802503 -0.222215
000160 41 8c 9a be de 43 43 be 8c 9e 59 be 1d f0 1f 3e
       -0.3018513 -0.19068858 -0.21251887 0.1561894
000170 53 7b 25 3f d7 b9 f2 bc dc a1 8c 3e 9a 30 91 3e
       0.646413 -0.029629631 0.2746724 0.28357393
000180 4a e6 bd 3d 37 b4 92 3e 52 9c 26 3e ba 83 8c 3e
       0.0927244 0.28653118 0.16270569 0.2744425
000190 cf 36 f2 3c 52 1e 6e 3e 5a 56 f0 3b 29 74 18 3e
       0.02956715 0.23253754 0.0073345127 0.14888062
0001a0 a0 b9 6c 3d 2e 8d c2 3d f6 39 bf 3c 75 3a 6f 3c
       0.057794213 0.09499584 0.023343068 0.01460134
0001b0 ee be ad bd 3a 38 bd 3c aa 38 1c 3d fe 3d 9d 3a
       -0.084836826 0.0230981 0.038139977 0.0011996625
0001c0 98 8a ad 3d cc 0f 59 be ba 1f af bc 65 e4 56 bd
       0.084737 -0.21197432 -0.021377433 -0.052463908
0001d0 19 2e f8 3e 3c e4 2d be d2 a4 9c bc 0c 73 ef bd
       0.4847267 -0.16981596 -0.019121561 -0.11691865
0001e0 10 3b 81 be 1f c6 4d be d4 4f 25 bf bf 85 90 be
       -0.25240374 -0.20095108 -0.64574933 -0.2822704
0001f0 15 b3 e8 bd 27 60 9d 3c 33 25 99 be 54 b1 5b 3e
       -0.11362282 0.019210888 -0.29911193 0.21454364

encoder.2.bias f4 [8]
000000 a4 02 d9 3c 26 e2 13 3e 5e f4 0b bd 62 07 23 bd
       0.026490517 0.14441738 -0.034168594 -0.039801963
000010 a7 87 a5 bd 7a b0 7b 3c af 5c 8e bc 91 b4 3a 3d
       -0.08082514 0.0153618995 -0.01737818 0.045582358

encoder.4.weight f4 [4, 8]
000000 b9 96 00 3f 75 fa 55 3f e3 7d 70 bb 44 cb e6 bd
       0.50229985 0.8358529 -0.0036696128 -0.112692386
000010 5f 75 64 3e 39 f3 de 3b d3 3e d9 be 4d 56 87 3d
       0.22310399 0.0068038967 -0.42430744 0.066082574
000020 c6 fb f4 bd d6 5d 3d be 95 f3 a9 3e 74 d2 a3 bb
       -0.119620845 -0.18492827 0.3319365 -0.004999453
000030 10 9c 11 bd 8e 11 46 be 6e 5b 08 3f b0 a3 1c be
       -0.035549223 -0.19342634 0.5326451 -0.15296817
000040 b4 fc 4b 3e ac 58 81 be b3 0c 17 3e 1e 0e 8b 3f
       0.19920617 -0.25262964 0.14750938 1.0863683
000050 6f cd be 3e 75 f2 28 3f 50 32 63 3e f9 7d 97 be
       0.37266108 0.6599496 0.22187161 -0.29588297
000060 46 4c 50 3e 58 2d 83 bd 03 84 31 3d 74 28 81 bc
       0.20341596 -0.06405133 0.043338787 -0.01576636
000070 cd 26 27 3e 5d d9 08 be b2 f2 d8 3d 64 e6 5e 3e
       0.16323395 -0.13364168 0.105931655 0.21767575

encoder.4.bias f4 [4]
000000 2a fe d7 3d 0c 11 51 3c fb 4d 32 3c 58 9c b0 bc
       0.10546525 0.012760412 0.01088285 -0.021558926

encoder.6.weight f4 [1, 4]
000000 9c ea 58 be 55 0a d0 3e b2 86 ff be 07 4a 0a 3d
       -0.21183246 0.40632883 -0.49907452 0.033762004

decoder.0.weight f4 [4, 1]
000000 3b 94 da bd 13 22 53 bf 4a 1a eb 3e c6 36 7c bf
       -0.10672804 -0.8247387 0.45918494 -0.9852108

decoder.0.bias f4 [4]
000000 eb 02 63 be 20 e8 d0 bd 96 b2 40 bc 15 44 12 3f
       -0.22169082 -0.10200524 -0.011761328 0.57135135

decoder.2.weight f4 [8, 4]
000000 52 c3 2d be b8 fa 05 bf 41 f4 28 be b7 6d 96 3f
       -0.1696904 -0.5233569 -0.16499425 1.1752232
000010 24 c7 1c 3d c3 c9 2b 3d 93 3e 0c bf 26 e3 4d be
       0.038275853 0.04194046 -0.5478298 -0.20106182
000020 52 fd c0 3e fc f1 2d 3f 5e ec 8c be f6 6b 30 bf
       0.37693268 0.67947364 -0.27524084 -0.68914735
000030 c6 4b ec 3e 8e 48 92 3f 4c 20 ba 3f 13 37 7d bd
       0.4615156 1.1428392 1.4541106 -0.0618201
000040 70 53 47 3e af 17 6e be 5a e6 92 be 9f 94 f7 3e
       0.19465423 -0.23251222 -0.2869137 0.48355576
000050 f3 ec f4 3e 85 6c d2 3d bf 3c df bc 8d 7a 17 3f
       0.47837028 0.10274605 -0.027250646 0.5917137
000060 17 c3 af 3e 03 fb 8a be 89 b8 2f be 3f 6b e4 3e
       0.3432853 -0.27144632 -0.17160238 0.44613072
000070 16 7c 17 3e ac aa be 3e 74 e6 34 bf a7 e1 8e 3d
       0.14793429 0.37239587 -0.70664144 0.069766335

decoder.2.bias f4 [8]
000000 31 56 ee bc f9 08 8a bc df d7 47 bf 8b e5 6f be
       -0.029093834 -0.016849982 -0.7806377 -0.23427407
000010 8f 35 07 bc da 5a 87 bd b2 15 31 be 84 89 77 bc
       -0.008252515 -0.066091254 -0.17293432 -0.01510847

decoder.4.weight f4 [16, 8]
000000 a1 c6 b7 be 0f 71 ef bd 09 d1 7a be e3 6a 50 be
       -0.3589373 -0.11691486 -0.24493803 -0.20353274
000010 0a 52 83 be c8 b8 c4 be d1 94 7e be 37 04 bc be
       -0.25648528 -0.38422227 -0.24861456 -0.36721966
000020 2f 77 d5 3e b7 7c a0 bd 8f 79 ad bb d2 59 a1 be
       0.41692492 -0.078362875 -0.005294032 -0.3151384
000030 88 45 c2 3e 02 b7 dc 3e 44 08 30 3e 6f 86 fc be
       0.37943673 0.43108374 0.17190653 -0.49321315
000040 06 0d 8d bc ab e4 b1 bd 07 f4 93 be 15 45 9a be
       -0.017218124 -0.08686193 -0.28897116 -0.3013083
000050 6f b9 29 3e e0 cb ac be 15 95 6c 3c 08 bd 89 3f
       0.16574644 -0.33749294 0.014439841 1.0760813
000060 2c b7 18 3e 72 3d 5e 3e 84 11 e6 bc 3d 21 1f 3d
       0.14913625 0.21703127 -0.028084524 0.038850058
000070 1b 33 38 3f de 7e 32 3e 36 1c 9c be 4e b2 3e 3f
       0.7195298 0.17431208 -0.30490273 0.7449082
000080 20 93 bb 3d 24 fb ab bd ba 63 46 3e ff 59 52 3f
       0.09158921 -0.08397511 0.1937398 0.82168573
000090 a0 ad a5 3e 2f 8f 20 be c0 71 3e 3b 62 eb b8 3e
       0.32359028 -0.1567962 0.00290595 0.36117083
0000a0 0a 6a 12 bd 74 67 b8 bd 54 40 79 bd 45 e7 c3 bd
       -0.035745658 -0.09004107 -0.060852364 -0.095655955
0000b0 53 97 df 3c 95 1a 92 37 f3 06 44 bc f0 9a 30 3d
       0.027293837 1.7416934e-05 -0.011964547 0.04311651
0000c0 b4 90 c2 be 91 30 ea 3d 41 22 f0 3e 7d 64 e8 3d
       -0.38001025 0.114350446 0.46901134 0.113472916
0000d0 05 c5 f4 3d d5 76 02 bd 32 74 b3 3d 10 48 0c 3e
       0.11951641 -0.03185161 0.08762397 0.13699365
0000e0 11 a8 df bc 96 64 15 be 0f d5 3f bf 98 10 43 be
       -0.02730182 -0.14589152 -0.74934477 -0.19049299
0000f0 21 07 a5 bd f5 9b 5b be 4c a6 ae be d7 45 5e be
       -0.08058 -0.21446212 -0.3411125 -0.2170633
000100 61 10 16 be 66 86 b5 be ab 92 8d be 3d 25 87 3b
       -0.14654686 -0.354541 -0.2765096 0.004124312
000110 e3 c8 08 3f c9 3d dc 3d c4 88 03 bf 8a 88 6d be
       0.5343153 0.10753972 -0.5138056 -0.23196617
000120 54 0b 77 3d f2 57 4e bd 9b 80 af bd 29 e0 08 bf
       0.060313538 -0.05037684 -0.085694514 -0.5346704
000130 69 a0 8b 3e 36 94 68 3d 5e 4d 94 3e 5a 22 cb 3e
       0.2727082 0.05678197 0.28965276 0.39674646
000140 5d 75 78 be 5b 0d ce 3e 96 8a f9 be 32 f8 c3 3e
       -0.2426352 0.40244564 -0.48738545 0.38275295
000150 0b 82 3a 3e 23 ce a6 3e e1 f5 97 be 81 a4 b2 3e
       0.1821367 0.32579145 -0.29679778 0.34891132
000160 61 d4 b7 be 2a a1 e2 bd ec aa a9 be 01 79 87 be
       -0.3590422 -0.11065896 -0.33138216 -0.26459506
000170 35 0d 8b be 5a c1 c6 be 83 2a 8b be 59 a2 b6 be
       -0.27158514 -0.3881939 -0.2718087 -0.35670736
000180 56 30 91 3e 6c ef 74 bc 08 cd 85 bf cf 44 be bd
       0.2835719 -0.014949661 -1.0453196 -0.09290468
000190 47 e9 e4 3e d9 fa e2 be 93 82 e0 bd ee 40 9b 3d
       0.44709226 -0.44332007 -0.10962405 0.07580744
0001a0 ec 9d 53 be 16 ea e7 bc 6f 53 c7 3d 40 11 d4 3d
       -0.20665711 -0.028309863 0.097327106 0.10354853
0001b0 3e 54 13 3d 62 1d a5 3d 77 08 28 be 93 65 35 bd
       0.03596901 0.08062245 -0.16409479 -0.04428632
0001c0 ba 11 35 3e 7c 96 28 3e 2f 11 c4 be 53 6d b7 be
       0.17682543 0.16463655 -0.3829436 -0.35825595
0001d0 fe 45 11 3f 7c fc aa bd fa 5c 3d 3e 1c 92 0a bd
       0.56747425 -0.08348939 0.18492499 -0.033830747
0001e0 76 c4 06 bf 42 99 e3 bd 2a 5c bf be 60 c3 a6 be
       -0.52643526 -0.11113216 -0.37375003 -0.32570934
0001f0 2b 29 c2 be ce 3a 02 bf 61 22 bd be b6 2f df be
       -0.37922034 -0.5087098 -0.36940292 -0.43591088

decoder.4.bias f4 [16]
000000 04 b6 41 3e b8 32 9c bd 42 28 d4 3e a8 fe c0 bc
       0.1891709 -0.07626861 0.41436964 -0.02355893
000010 25 92 00 be 28 cb 24 3d 53 77 bb be c5 6f 01 3f
       -0.1255575 0.040232807 -0.36614475 0.5056117
000020 6f c5 38 3d e1 ff e1 3c ec 6f 43 ba 81 52 86 3e
       0.045110162 0.027587833 -0.00074553373 0.2623482
000030 2e 52 2e 3f ba 98 a6 bd b4 68 80 3e 7b bc 9c 3e
       0.68094146 -0.08134599 0.25079882 0.3061255

decoder.6.weight f4 [3, 16]
000000 1a 66 83 3e d5 cc 4f bd 0f 94 fc be a9 ff 86 be
       0.25663835 -0.050732452 -0.4933171 -0.26366928
000010 08 ca 9b 3e 5d e6 f9 b8 95 49 0b 3f 9e 62 99 be
       0.30427575 -0.00011916154 0.5440915 -0.2995805
000020 f6 03 80 3e 0b 84 20 3e 54 1e d8 be fc cd 2a bd
       0.25003022 0.1567537 -0.4221064 -0.04170035
000030 10 d3 37 bf 36 43 72 3e 28 f2 61 bd ae 86 a1 be
       -0.7180643 0.23658451 -0.05516258 -0.31548065
000040 f3 a5 b0 3d 2a de 2f bd b8 e0 c2 bd e7 d6 31 3d
       0.08625402 -0.04293648 -0.09515518 0.043417837
000050 4e 99 19 3b 25 9a d9 3e 2b b3 fd bc d6 f5 0c 3d
       0.0023437324 0.42500415 -0.030969223 0.034414135
000060 fd 91 83 3e c2 cb 23 3e b3 88 fc 3d 15 26 74 bc
       0.25697318 0.15995696 0.12330761 -0.014901658
000070 3a 01 ed bd 5b 05 ce bc f8 e5 94 3d 44 13 8d 3a
       -0.115724996 -0.025149038 0.072704256 0.0010763188
000080 fb 30 1b 3f a5 37 f8 bd 27 5b 17 3e 55 3d 29 bf
       0.60621613 -0.12119988 0.14780866 -0.6610921
000090 7f 6d b7 be 90 52 08 3d ee b8 41 bf 02 a3 3e 3f
       -0.35825726 0.033281863 -0.75672805 0.7446748
0000a0 9b 7e b0 3e c3 22 9c 3d 72 d8 bf be e2 45 13 3f
       0.34471592 0.07623818 -0.37469822 0.5752851
0000b0 56 82 cc 3e 8c 7f 32 3d c5 f3 86 3e 17 45 2d 3f
       0.39943188 0.04357867 0.26357856 0.6768355

decoder.6.bias f4 [3]
000000 6e ba b6 be 01 f5 8a bd aa 7f 03 3e
       -0.3568911 -0.06785012 0.12841669
