autoencoders/best_models_cuda/best_model_bone5.pth (torch, 8121 bytes, 15 tensors)

encoder.0.weight f4 [16, 3]
000000 e6 26 80 be d2 4a ba 3e ab 89 89 bf 7b fd aa 3e
       -0.25029677 0.36385208 -1.0745138 0.33396515
000010 12 12 9a bc c8 24 b2 bd 78 ae 10 3c 8a 75 9d 39
       -0.018807445 -0.08698422 0.008830659 0.00030032947
000020 8b 7e 83 3d 34 28 35 3b ff 28 56 3d 33 32 90 bf
       0.064206205 0.002764237 0.05228519 -1.126532
000030 48 a7 85 3f 41 db 5c 3c 48 ee fe be 69 18 17 3e
       1.0441675 0.013480009 -0.4979117 0.14755405
000040 06 4a fa 3d b0 4e 4c bf fe b0 8c be e3 c0 90 3c
       0.1222115 -0.7980757 -0.27478784 0.0176701
000050 dc f7 40 3c 6e 54 88 bd 14 a5 94 3c 9d d9 19 3d
       0.011777844 -0.06656729 0.018145122 0.037561048
000060 fe 71 3d 3c 72 fb 7d bb f3 9f e8 3d ea 24 1d bd
       0.011562822 -0.003875461 0.11358633 -0.038365282
000070 33 96 ba 3b df 28 8f 3b 76 c8 da bd cd 24 27 bd
       0.0056941747 0.004368886 -0.10682766 -0.04080658
000080 0e a2 9b be ff 37 08 3e 19 9a 1a bd 7f a7 31 3d
       -0.30397075 0.13302611 -0.037744615 0.043372627
000090 e7 ff 4e bc af 10 e7 3a a1 21 8d 3d e9 2f 1d 3f
       -0.012634254 0.0017628873 0.0689118 0.6140123
0000a0 3e df c8 be 9c ad 3f bf 9e d5 2a be fd 69 70 3e
       -0.3923282 -0.7487428 -0.16683051 0.23477931
0000b0 10 98 f3 be 09 f1 62 bf 4f 3c b7 3c 9f 04 f1 3c
       -0.47576952 -0.8864904 0.022367625 0.029421149

encoder.0.bias f4 [16]
000000 4b 7f 38 3b 27 f8 b3 bc 3c 1c ef b9 5e ce c1 bc
       0.0028152044 -0.021968914 -0.0004560667 -0.023657974
000010 80 1c 6b bc 83 de 27 bc 79 d6 a0 3c e4 bf b4 3c
       -0.014350057 -0.010245922 0.019633519 0.022064157
000020 8e a4 b5 bb 6f 01 05 3c d5 17 07 bd d4 11 37 bd
       -0.005543298 0.008118018 -0.032981712 -0.044694737
000030 c8 ce 36 3b 0a 9c 63 bd 01 46 5b bc c9 9a ef 3c
       0.0027894247 -0.055568732 -0.013383389 0.029248612

encoder.2.weight f4 [8, 16]
000000 dc fc 5e 3e 73 0a f5 bc a3 1e ab b9 ce 88 1d be
       0.21776146 -0.02991221 -0.00032638488 -0.15384218
000010 60 24 a7 bd 78 9f 5d bd 14 21 14 3d 24 47 f9 3b
       -0.08161235 -0.05410716 0.03616436 0.0076073576
000020 ff 56 5a ba 8a 15 78 3b 96 82 00 3d 66 b2 80 bc
       -0.00083290035 0.0037854635 0.031374536 -0.015710067
000030 0d df be 3b 56 8a 37 bd 94 d8 49 bd b1 b8 b9 3d
       0.0058249296 -0.04480966 -0.04927881 0.0906843
000040 18 8b 39 be 13 6a c3 bd a8 8d 01 3d 7b f8 9c 3e
       -0.18119466 -0.095417164 0.031629235 0.30658326
000050 84 81 fe bd 89 6c 2d 3e 9a 62 1e 3d aa 9e 5f 3d
       -0.12427047 0.16935934 0.038668253 0.054594673
000060 ed 8c 9c 3d f0 8d a8 3a 42 ea b2 be f1 48 1d 3b
       0.07644067 0.0012859683 -0.3494435 0.0023999775
000070 c5 ef a8 3d cf 25 10 3e 4d 36 8f be aa e2 ae 3d
       0.082488574 0.14076923 -0.27971116 0.085393265
000080 e8 20 95 3e c5 36 b0 3e 96 03 9c 3d 2d 2e dc 3d
       0.29126668 0.34416786 0.076178715 0.10750995
000090 57 01 71 3e 7e 39 ac 3e 20 27 71 3d 0a 62 a7 3d
       0.23535667 0.33637613 0.058875203 0.08172996
0000a0 fc 63 fc 3d 00 de 6a 3c 5b 13 0f 3e 2d 58 97 be
       0.12323758 0.0143351555 0.13972227 -0.2955946
0000b0 39 eb 3e be 92 af 90 3c 86 83 92 3e 9c 15 83 3d
       -0.18644418 0.017661843 0.2861597 0.06400606
0000c0 bf f2 21 be 55 01 f1 bc c8 2e cc bb 1d df 88 bd
       -0.15815257 -0.02941958 -0.0062311627 -0.066831805
0000d0 db 68 c5 bd 99 66 af 3c 5e 03 10 3d c1 0e 42 3c
       -0.0963914 0.021411227 0.03515946 0.011844338
0000e0 f0 bb 62 bb a7 5a bd 3b 7d 7c a2 3c e8 09 9a bc
       -0.0034596883 0.005778629 0.019834751 -0.018803552
0000f0 88 0d 65 bc 49 ac a5 3d 65 c0 66 3d ad 2e ad 3d
       -0.013980277 0.080895014 0.056335825 0.08456168
000100 80 70 99 3d 2a e7 db bd 43 e2 28 bc e5 17 19 be
       0.07492161 -0.107374504 -0.010307851 -0.14950521
000110 04 e7 0e be 2a f6 10 3e 1f 5b ef 3a 82 97 4a 3c
       -0.13955313 0.14156404 0.0018261409 0.012365224
000120 f0 b2 80 3d 9d 17 18 bd 8e 68 e7 3e d2 de cf 3c
       0.062841296 -0.037131894 0.45196956 0.025374804
000130 bd a7 32 3c 05 45 84 bd 39 75 d9 3e fc 35 c9 bd
       0.01090425 -0.06458477 0.42472246 -0.0982475
000140 aa 0e e3 3c ac 87 ab 3e c0 7a 4a 3e 66 09 2f 3f
       0.027716953 0.33501947 0.19773388 0.68373716
000150 8e 48 c0 3e 99 3c 4d 3e ad 60 6c bd 5c a4 4a bb
       0.37555355 0.20042647 -0.057709385 -0.003092072
000160 c7 97 61 3e 9f 74 95 bc 0c bd 66 3c 4d 25 5c bd
       0.22030555 -0.018244086 0.014083158 -0.05374651
000170 ba 22 1b be 88 cb be 3e 3f 22 c4 3e 69 49 95 bd
       -0.15149966 0.37264657 0.38307378 -0.072893925
000180 3e 62 46 be 6d 15 29 bb af ae c8 b8 c5 74 15 3e
       -0.19373414 -0.0025800124 -9.5692805e-05 0.14595325
000190 18 32 a6 bc dd 2e 95 bd a7 ea 7f bb 1d 67 a8 ba
       -0.020287558 -0.07284329 -0.0039049776 -0.0012848113
0001a0 9a d8 f8 b8 b9 bd 17 ba 18 92 23 3d 80 d0 2d 3b
       -0.00011865907 -0.0005788464 0.039934248 0.002652198
0001b0 bb 22 80 b9 ed 6f 9b 3d 95 ef c6 3d 54 2b 43 bc
       -0.0002443994 0.075897075 0.097136654 -0.011912186
0001c0 43 49 15 3f e0 9a 11 3e 0a 8b cb 3c 03 00 9d 3e
       0.58314914 0.14219236 0.024846572 0.3066407
0001d0 3e 1a 3e 3e 7e 78 b1 bc 1f 62 83 bd 2a cd 69 be
       0.18564698 -0.0216639 -0.064151995 -0.2283217
0001e0 e9 f6 95 3e 6d fa 3f 3a c8 04 41 3d 89 bd e1 3d
       0.2928994 0.0007323388 0.0471237 0.11022479
0001f0 f6 fc 64 bb ac 99 4a 3e b7 44 01 3e 7f 28 b5 be
       -0.0034940816 0.19785184 0.12623869 -0.3538246

encoder.2.bias f4 [8]
000000 e7 39 f9 3c a4 cb 00 3d d6 98 7a 3d 47 07 cb 3c
       0.030423118 0.031444207 0.061180912 0.024783744
000010 b5 b4 30 3c ee 91 e8 bc d7 7e 89 bb 24 1a bc bc
       0.010785271 -0.028389897 -0.0041960287 -0.022961684

encoder.4.weight f4 [4, 8]
000000 8c 39 3c be 70 03 00 bf ee d9 ae 3e cf 68 71 3f
       -0.18381327 -0.50005245 0.34150642 0.9430055
000010 2b e4 4f 3e 83 a1 b3 3e f5 87 93 3b 91 ee 51 3e
       0.20301883 0.3508416 0.0045022913 0.20501162
000020 a9 4c ac be 0e 9e 61 bf a7 df a0 be 05 2e d9 bd
       -0.33652237 -0.881318 -0.31420633 -0.10604481
000030 64 63 ce 3d 9e 3f 74 3e f1 f0 17 3c e9 22 0e bc
       0.10077551 0.23852393 0.0092737535 -0.008675315
000040 26 de b8 be 6f fa 17 bf 0a 80 b5 3e b2 43 4d 3e
       -0.36106986 -0.59366506 0.3544925 0.20045355
000050 f2 c6 d3 be 7c 6e 3e 3d 95 4b fd 3a 63 9a 72 be
       -0.4136272 0.046492085 0.0019324893 -0.23691706
000060 a1 64 c8 bd ee 77 a5 3d 69 de af bd 4b a8 31 3c
       -0.097848184 0.080795154 -0.08587343 0.010843347
000070 b9 b1 2d be f6 70 1d bc 25 76 0e 3d 6a 57 25 bc
       -0.16962327 -0.0096094515 0.03478064 -0.010091642

encoder.4.bias f4 [4]
000000 b3 0a 1c 3d 80 ca 08 bd 25 3e f4 3d ae ab c8 bd
       0.03809614 -0.033396244 0.11925916 -0.0979837

encoder.6.weight f4 [1, 4]
000000 eb 8a c1 3e da 75 3c be dc d6 94 bc 13 97 66 be
       0.37801298 -0.18404332 -0.01816886 -0.22518568

decoder.0.weight f4 [4, 1]
000000 65 ed 89 3f 7a 4c a4 3f 96 47 9c 3e 27 55 16 3f
       1.0775572 1.2835839 0.30523366 0.5872368

decoder.0.bias f4 [4]
000000 67 cc 86 3c b6 58 83 3c b6 a3 73 be f5 c8 a9 3d
       0.016454889 0.016033512 -0.2379292 0.08290283

decoder.2.weight f4 [8, 4]
000000 4a bd 3c 3d 7c 23 64 3e b9 97 f0 be 5a e0 d2 be
       0.046078958 0.22279161 -0.46990755 -0.41186792
000010 4c cd ff bd 8c 14 1d be fc 3d dc bd 60 a4 4f bd
       -0.12490329 -0.1533987 -0.1075401 -0.05069387
000020 04 a5 81 3f 40 39 f5 3e 8f 4b 45 3f e7 02 18 bf
       1.0128484 0.4789524 0.7706842 -0.5937943
000030 12 f6 03 be 0e e5 75 bd 88 7d 94 3d 85 82 ff bb
       -0.12886837 -0.060032897 0.07250506 -0.0077975416
000040 48 5b da 3e 5b 5d d5 3e 6e a3 72 3f dc 73 e1 3e
       0.42647767 0.41672787 0.94780624 0.44033706
000050 4e a8 1b bf 22 d2 05 3f f2 f3 6c 3c 8b 0f 9b 3e
       -0.6080369 0.5227376 0.014462458 0.30285296
000060 9d 19 c5 3e 5e b1 82 3e ee 46 6b be 4d 47 75 3e
       0.38496104 0.25525945 -0.22976276 0.2395298
000070 18 55 2e 3e 94 2e 54 3e 20 52 78 bf 58 04 a7 3e
       0.17024648 0.20720893 -0.9700031 0.32620502

decoder.2.bias f4 [8]
000000 62 de 4f 3e cc 55 51 3e fc fc fd bd 35 c1 6d be
       0.20299676 0.20442885 -0.124017686 -0.23218234
000010 af 28 d6 3d 3b 1c a0 bc 80 7d c9 3e 02 f1 4d bc
       0.104569785 -0.019544711 0.3935356 -0.012569668

decoder.4.weight f4 [16, 8]
000000 58 db 70 be b1 cc a5 bc 69 f0 36 3e ed 64 ce 3d
       -0.23521173 -0.020239206 0.17865147 0.10077844
000010 2d 57 ca 3e d8 a7 91 3e a5 ae 8f 3c b9 b8 53 3c
       0.39519635 0.28448367 0.017539332 0.012922459
000020 b5 ba d8 bd 65 33 bf bd 5c 55 ec 3c b5 2b 00 3e
       -0.105824865 -0.093359746 0.028849296 0.12516673
000030 86 9a 41 bc 0f 58 de 3b a6 fe 52 be c3 5f fb bd
       -0.011816626 0.0067853997 -0.20604953 -0.122741245
000040 62 70 c0 3e d1 f0 a2 bd 31 32 36 3f 4e dd 26 be
       0.3758574 -0.07956088 0.71170336 -0.16295359
000050 c0 20 86 3e c4 1d d4 be ee 1c 21 be 82 3d 01 3f
       0.2619686 -0.4142896 -0.15733692 0.5048448
000060 00 b3 ca 3d b8 52 b3 3d ec ad 79 be 6c af e7 bd
       0.09897423 0.08756012 -0.24382752 -0.11312756
000070 1b a9 83 bc 1f f7 c7 bc 88 0a 71 3e 2e a7 f4 3d
       -0.016071847 -0.024409829 0.23539174 0.119459495
000080 01 33 44 be 4a 6b 6f be 70 e2 b6 bc 21 86 3c 3e
       -0.19160081 -0.23380771 -0.02232477 0.18410541
000090 42 02 ff 3d 01 1c 11 3f da c5 c8 3d 87 30 86 3d
       0.124516025 0.56683356 0.09803362 0.065522246
0000a0 ae 78 1c bd f3 fd f8 bc aa a1 cb bc dc 85 4f 3d
       -0.038201027 -0.03039453 -0.02485736 0.050664768
0000b0 9c 3a a6 bd 76 ef 80 bc 42 4c 2c be 59 7d a3 bd
       -0.081166476 -0.015739184 -0.16825965 -0.079828925
0000c0 31 83 f4 bd c2 40 c3 bd 3f bd 98 3d ef 69 12 3e
       -0.11939085 -0.09533836 0.07457971 0.14298223
0000d0 19 40 a3 bd 58 92 12 3c b3 bc 26 be 6b 78 11 be
       -0.0797121 0.008946024 -0.1628292 -0.14206092
0000e0 7c 66 95 38 59 6c 7a 39 ae 56 45 bd d4 37 51 38
       7.123963e-05 0.0002388222 -0.048178367 4.9881477e-05
0000f0 e8 13 00 3d 0b 8f 6d bb 14 84 66 3d 2d 15 4b bd
       0.031268984 -0.003624859 0.056278303 -0.04958074
000100 2c cf 57 be 57 02 a2 be de af 05 3f 36 bd df 3e
       -0.21075124 -0.3164241 0.5222148 0.43699044
000110 69 ad d6 bc ec 65 58 be 05 88 14 bf ab 02 db 3d
       -0.026205735 -0.2113263 -0.5802005 0.10693868
000120 37 f0 f9 3d ea ac 0a be 9a e4 2f 3e 5d 5c aa 3e
       0.122040205 -0.13542524 0.17177048 0.33273593
000130 d2 98 96 3e cf 5c 6a 3d 09 f0 de 3d 3c e2 88 be
       0.29413468 0.057217415 0.10885627 -0.26735103
000140 e6 4a 8e bd ac 23 29 bd a6 d6 88 3d b9 94 b1 3d
       -0.069478795 -0.041293785 0.06681566 0.08670945
000150 f1 ee c5 bd 28 66 8c bb 11 39 22 be 6a 02 ba bd
       -0.09664715 -0.004284639 -0.15842082 -0.09082492
000160 57 3f ef bc cd ae 76 3d 18 d3 99 bd ee 4b 98 be
       -0.029205007 0.060225297 -0.07510966 -0.2974543
000170 81 1b ed 3e 6a ce 27 be b3 76 ad 3d 44 6c 15 3e
       0.46310046 -0.16387334 0.08469906 0.14592081
000180 4f 45 90 bc 38 3c 07 bc 19 24 b0 3d 9b 17 8e 3b
       -0.017611174 -0.008254103 0.08600635 0.00433631
000190 46 fb 52 be 2d 75 0d bd fc d4 5c 3d 98 2e 37 3d
       -0.20603666 -0.034535576 0.053914055 0.04472217
0001a0 ba 43 b3 be a7 ad db bd 9f 82 b2 3d a4 50 e2 be
       -0.3501261 -0.10726481 0.0871632 -0.4420215
0001b0 77 06 b4 3e 35 f5 1c 3e 2c 63 9b 3d ca 96 1a 3f
       0.35161182 0.15327914 0.07587275 0.60386336
0001c0 71 99 ed bc 77 df f0 bd ba 6a 64 3c 22 fe 12 bc
       -0.02900383 -0.117613725 0.013941461 -0.008971723
0001d0 f9 d9 93 3e 67 e0 94 3c d2 59 3e 3a a7 bb 06 3e
       0.28877237 0.01817341 0.0007261309 0.13157521
0001e0 e6 f1 02 3d fa da b1 3d 3b d5 16 be 1e 99 47 bc
       0.031968974 0.086843446 -0.14729778 -0.012182502
0001f0 06 c2 50 bd 21 e9 35 bc 7f bc bf 3c 36 26 b4 3c
       -0.050966285 -0.011102946 0.023405312 0.021990877

decoder.4.bias f4 [16]
000000 86 a9 f1 3c f8 70 a5 be 6b 73 95 bc d5 a1 94 3e
       0.02949978 -0.3231275 -0.018243512 0.29029718
000010 48 81 94 bd d3 77 e9 bd 49 6d b8 be 36 81 4d 39
       -0.07251221 -0.11399808 -0.36020878 0.00019598458
000020 5d 1e 4a be b5 25 17 3e ee a0 4a be 66 b9 a8 bd
       -0.19738145 0.14760478 -0.19787952 -0.08238487
000030 d7 e1 85 bd 2a 57 ab 3c 62 f6 63 be f9 3a af 3d
       -0.06537216 0.020915587 -0.22261956 0.0855617

decoder.6.weight f4 [3, 16]
000000 cb 39 74 bd 49 a8 f4 3e f7 14 01 bc ec ad fe be
       -0.05962543 0.4778464 -0.007878534 -0.49742067
000010 7f 78 49 3d d3 05 40 3e 17 ba 1b 3f 7e 41 fe 38
       0.04918718 0.18752222 0.60830826 0.00012123863
000020 e7 d5 21 3f a4 20 6a be fc 1c 89 3e ae 12 00 3e
       0.63217014 -0.22864014 0.26779926 0.12507126
000030 89 ce 6a bd 24 35 41 be 40 b9 6c 3e 7c 83 12 bc
       -0.057325874 -0.18867928 0.23117542 -0.008942481
000040 b2 23 8f 3d 2b ec af bd 94 40 dd bd 11 e5 09 3e
       0.0698923 -0.08589967 -0.10803333 0.13466288
000050 4a 82 d6 bd 9a 23 9d be d4 96 96 bd c8 86 a7 37
       -0.104740694 -0.30691224 -0.07352987 1.9970714e-05
000060 f6 1a 70 bd 94 aa a2 3d 1b 3d 3b be 2d 5f 3f 3e
       -0.058619462 0.079426914 -0.18285029 0.1868865
000070 4b 09 d4 bd b9 af cb bd b4 5d f0 3d ed 1a 5c 3e
       -0.10353335 -0.09945626 0.117366225 0.21494646
000080 7a ff 35 be 07 b3 23 be 87 e4 f4 be 52 19 22 bd
       -0.17773238 -0.15986262 -0.47830603 -0.03957493
000090 20 7f 39 be 2a f2 e9 3e 8a c2 72 bd be be f7 38
       -0.181149 0.4569257 -0.05926756 0.00011813406
0000a0 a0 2f bd 3b 1b 90 12 be 2e f9 1f 3e 4d ee f6 bd
       0.0057734996 -0.14312784 0.15622398 -0.12057171
0000b0 35 c8 85 be 5a 93 e9 be 28 aa ac bd f1 f7 5d 3e
       -0.26129308 -0.45620233 -0.08430892 0.21676613

decoder.6.bias f4 [3]
000000 e4 d2 18 bf fa 77 72 3e f2 d8 36 3c
       -0.59696794 0.2367858 0.011160122
