autoencoders/best_models_cuda/best_model_bone14.pth (torch, 8143 bytes, 16 tensors)

encoder.0.weight f4 [16, 3]
00000000: 3bbb a8be 8fd8 023e 6020 1a3c 4c18 a63f
00000010: 54ba d03e c54b 003d 3d28 653d a000 2a3f
00000020: a665 05bf 833f a8be fb07 62bd 6808 523f
00000030: f74d dcbe c659 5bbf 908b 2ebf 262d 3a3f
00000040: 93bf 283e d06f 923e 032f 7abe e213 1bbf
00000050: a121 f9be 4714 013f 69e2 03be 48c8 55bf
00000060: f298 4ebd 4921 edbd 2b86 4d3c aa30 c8be
00000070: bceb 11bf 5d57 f83e 1bab 523f bfff 9a3e
00000080: 4109 df3e daf0 a13e e123 5dbe 85bb b9be
00000090: b443 903e 75df c83d 6419 54bf 37b0 273e
000000a0: 7e66 82be 78f3 64be cfb3 053f d03e fa3f
000000b0: 08ea c83f f08e 14bf 750c 113c 0b08 3bbd
-0.32955346 0.12777923 0.009407133 1.2976165 0.40767157 0.03132226 0.055946577 0.66407204
-0.5210823 -0.32860956 -0.055183392 0.82044077 -0.43028232 -0.8568386 -0.68181705 0.7272514
0.1647933 0.2860093 -0.24431996 -0.60577214 -0.4865847 0.50421566 -0.12879337 -0.8350873
-0.05043883 -0.11578614 0.012544195 -0.39099628 -0.5700033 0.48504153 0.82292336 0.30273244
0.43561748 0.31629068 -0.21595718 -0.3627588 0.28176653 0.09808246 -0.82851243 0.16375814
-0.2546882 -0.22358501 0.5222749 1.9550419 1.5696421 -0.58030605 0.008853068 -0.045661967

encoder.0.bias f4 [16]
00000000: 7058 413e 84e7 de3e 91dc 2a3f 86c2 63bb
00000010: 3255 cfbd 00eb 12bd b8d0 783d 2b17 1e3e
00000020: cf32 2e3e 78ce 4dbd 944f 503f 261f 4b3e
00000030: ad77 a93c 800c 5fbc 9532 c13e 8ad4 c0bd
0.18881392 0.43536007 0.6674281 -0.0034753396 -0.101236716 -0.035868645 0.060745925 0.15438525
0.1701157 -0.050245732 0.81371427 0.19836101 0.020686949 -0.01361382 0.37733904 -0.094155386

encoder.2.weight f4 [8, 16]
00000000: 42f4 7bbb f0d2 8e3e 80be c83d e5c2 43bd
00000010: f9db 3a3e 4842 25be 9efe cabd 527a 47be
00000020: 8d0a 33bd d1a0 3bbd 08ce e5be 718a 9f3e
00000030: 2f3e 74be af50 b83e 9013 a7be 8d6b bd3d
00000040: 6c1a 9fbe f433 c43d 923c 8fbc 5f3a 1d3e
00000050: 8e05 613e be65 183e c031 223d 3a97 723e
00000060: 94c8 773d d9bf 8cbe 1d09 0dbf 8aa2 dabd
00000070: 8f21 5abe 7f31 673e dbc3 d83d 8e8a 043e
00000080: b369 a73c 7c0f 0abf 1d73 2d3d e2d9 0b3f
00000090: 9813 20be 714f 50be df07 b0bd d013 ab3e
000000a0: 5d83 2d3e a13a 91bd 14ba ba3e 0058 973e
000000b0: a240 72be 79dd 87be fef1 013e a079 3dbd
000000c0: a4f0 453e 9e5b 713e d626 dc3e e96f 853d
000000d0: 271c c8bd a97e 44be 0f58 bd3b 65c5 193e
000000e0: 11b1 fa3d b843 fabe cf4b ee3e acf2 573d
000000f0: 7608 d1bd 9732 e63d 7b46 713e 48d5 36be
00000100: 4936 0d3f 314c 1d3f ee78 af3e b303 6c3e
00000110: 87bb d9be 2cd4 8dbd 0654 5a3e f7be 0c3f
00000120: 8b2d 273f 168a ccbe a0b7 b43f 9746 133f
00000130: 7baf 4e3e 04b4 cb3d 7d07 7e3d 98d1 2dbf
00000140: 7e34 9abe c9a1 4cbe 566b 083d 7c65 45be
00000150: 01be 5b3e 5245 053d 273e cf3e 7c2d d13e
00000160: 01c4 e7bd f260 373e 040d 9abd f915 ad3e
00000170: d2cd 2c3e 356d edbc d665 e3bd bb51 893e
00000180: 24a5 debe e4d1 66bd a654 863d c2cc 34be
00000190: 0510 9ebe 10fc 093e beb3 333e 3fd4 6fbc
000001a0: 430b e0bd e853 8cbd 81d9 5dbe 9bc7 bc3e
000001b0: 0ec8 e7bd 81c6 353e c8b8 a63e 599b 9abe
000001c0: 6444 553e c2a6 58bd 0bfb 9dbe fddc 3c3e
000001d0: f973 653e 8148 7bbe 19ca 9b3b e4e1 84be
000001e0: a0bb d33d 4751 a03e 0d0c 903e c41b 1ebe
000001f0: 4d14 a9be d705 053e 822e eb3e 86aa 4d3e
-0.003844515 0.27895308 0.0980196 -0.047793288 0.18247975 -0.16138566 -0.099118456 -0.19480255
-0.043711234 -0.045807663 -0.44883752 0.3116031 -0.23851846 0.35999057 -0.32632113 0.09249029
-0.31074846 0.09580222 -0.017484937 0.15354298 0.21974775 0.14882562 0.039598227 0.23690501
0.06049402 -0.27490118 -0.5509203 -0.10675533 -0.21301864 0.22577475 0.105842315 0.1294348
0.020436144 -0.5392988 0.04234611 0.5462934 -0.15632474 -0.20342804 -0.08595251 0.33413553
0.16944642 -0.07091261 0.3647009 0.29559326 -0.23657468 -0.26536158 0.12689969 -0.04625857
0.19330078 0.23570105 0.4299838 0.06515486 -0.09770995 -0.19188942 0.0057783197 0.15016706
0.12240804 -0.4887979 0.46542212 0.052721664 -0.10206692 0.11240118 0.23562042 -0.17854798
0.5516096 0.61444384 0.3427195 0.23048286 -0.42525885 -0.06925234 0.21321115 0.5497889
0.6530387 -0.399491 1.4118538 0.57529587 0.20184128 0.09946445 0.06201886 -0.6789794
-0.30118173 -0.19983591 0.03330549 -0.19276994 0.214592 0.032536812 0.40477106 0.40855014
-0.11316682 0.17908075 -0.07522014 0.33805826 0.16875389 -0.028982738 -0.11103408 0.26820168
-0.43485367 -0.05635251 0.06559114 -0.17656234 -0.30871597 0.1347506 0.17549035 -0.014638006
-0.10939648 -0.06851941 -0.21665002 0.36871037 -0.11317454 0.17751504 0.32562852 -0.30196646
0.2082687 -0.052893408 -0.30855593 0.18443675 0.22407521 -0.24539377 0.0047543165 -0.2595359
0.10338521 0.3131201 0.28134194 -0.15440279 -0.330233 0.12990509 0.4593392 0.20084581

encoder.2.bias f4 [8]
00000000: 7c4a 0abd 61aa 8fbe 273f e7bd 0358 773e
00000010: 21d7 2f3f c6c7 d13c 8a87 cb3d 9a61 e9bd
-0.03376244 -0.28059676 -0.11291342 0.24154668 0.68687636 0.025607955 0.099379614 -0.11395569

encoder.4.weight f4 [4, 8]
00000000: 62ba d3bc 902c 063e 3cad 10bd 28f5 ed3d
00000010: 3cc8 1dbe d75d 0e3c fde2 d43c 9186 9ebd
00000020: 28f8 81be b6af 38be 501f d0be 335d 363f
00000030: 5d0a f03e dff4 e43e 4e59 78be c4af 86be
00000040: 9850 ca3b fad4 10bf 77cd 02be 1ace 573f
00000050: effe 6b3f b714 79be eb8c 9f3e cdd3 dc3d
00000060: 967e a33e 9139 abbb e860 41be 8f78 2c3c
00000070: 3d08 4ebd 7537 dc3b 2b26 f63d 1c72 9bbe
-0.02584571 0.13102937 -0.03532146 0.116190255 -0.15408415 0.008689365 0.025987143 -0.0774051
-0.2538464 -0.18035778 -0.4064889 0.7123596 0.46882907 0.44718072 -0.24252817 -0.26305974
0.0061741583 -0.56574976 -0.12773691 0.8429886 0.9218587 -0.24324308 0.311622 0.10782585
0.31932515 -0.0052253683 -0.18884623 0.01052679 -0.050300825 0.006720478 0.12018999 -0.30360496

encoder.4.bias f4 [4]
00000000: 8b6f 283d b2e2 ad3d ddbc f73d 6fef e7bd
0.041122 0.08490504 0.1209657 -0.11324965

encoder.6.weight f4 [2, 4]
00000000: 6c6d 943c de8a 773e 58c7 08bf 81fe 0f3e
00000010: 7167 7e3f 426e 933f a0b1 ad3e 2664 f7be
0.018118583 0.24174067 -0.53429174 0.1406193 0.9937659 1.1518023 0.3392458 -0.48318595

encoder.6.bias f4 [2]
00000000: 0d0d b83d c813 d53d
0.08986864 0.104041636

decoder.0.weight f4 [4, 2]
00000000: 91f1 8b3d 5cec 973f 0839 163e db7a 56bf
00000010: b4cc 37bf cdbc 3f3e 8d93 1c3e c3aa 47bf
0.068331845 1.1869006 0.14670193 -0.8378121 -0.7179673 0.18724366 0.15290661 -0.77994937

decoder.0.bias f4 [4]
00000000: 13e7 8abc ea8f 61be d90f d8bb a850 52be
-0.016955888 -0.22027555 -0.006593686 -0.2053858

decoder.2.weight f4 [8, 4]
00000000: 406e 16bc ade0 1b3e dd4e db3e 2bb5 f9be
00000010: 80a8 4a3f e4d5 19be 2c41 94bf a46c 943e
00000020: 05af 123f a6d6 5a3f cac2 163f 4697 d43e
00000030: 84f9 10bf 2e50 573e bb95 36be c680 553e
00000040: 99a3 eebe 845f e3be 8c38 603f 88c0 c3be
00000050: 1e6b 143f 2cbd 2a3f a84a 77bf 774e 123e
00000060: 9210 d43e e8f1 b9bf f03f 213d 8cf5 81bf
00000070: e9a6 ce3d 731d e33e 591d 3d3f 8262 ed3e
-0.009181559 0.15222426 0.42833605 -0.48771033 0.7916336 -0.15022999 -1.1582389 0.28989136
0.5729831 0.8548378 0.58890975 0.41521662 -0.5663073 0.2102668 -0.17830555 0.20849904
-0.4660919 -0.4440881 0.87586284 -0.38232827 0.5797595 0.66694903 -0.9659829 0.14287744
0.41418892 -1.4526949 0.039367616 -1.015306 0.10090429 0.44358405 0.73872906 0.46364218

decoder.2.bias f4 [8]
00000000: 8aa1 2e3e a44f 87be d0f1 ccbe 7a58 f9bd
00000010: 3b54 d63e 52aa a13c a125 4b3f b86a 37be
0.1705381 -0.26427948 -0.40028238 -0.12175079 0.41861138 0.019734535 0.7935429 -0.17911804

decoder.4.weight f4 [16, 8]
00000000: 04e3 97bd be4b e2bd 1604 6ebd 7da6 c13d
00000010: 0dc9 6abd 1370 11bd c12c d5be 4964 823b
00000020: b2ce a3bd e1a1 d4bd dbb9 73bd 43cc c83d
00000030: 784f 8abd 7077 f3bc 48d5 dcbe 9413 2a3a
00000040: f05d a4bd 273e eebd 6794 80bd 45b1 cf3d
00000050: 49ae 7ebd 8916 13bd eb67 e4be 4c19 4b3b
00000060: 3dc9 1abe 273e e23e 1614 7cbe 711e 1abe
00000070: 19cd dcbc 8ae1 c73e 033a 153f 7e7a 0ebf
00000080: 0d04 a3bd a91b ebbd 0e3d 7cbd 7d09 ce3d
00000090: b26c 7fbd 05ff 11bd 4747 e2be 7735 533b
000000a0: f639 a53e 0250 2dbf 0339 d3bb a269 cdbf
000000b0: 9500 1f3f bd3e 70bf b44f 833f cccc 1dbe
000000c0: ccd4 d1be 969e c13e 2cbe 7b3d f44b cd3e
000000d0: 7a73 dbb9 e09c 953e fb24 6b3d 8c07 bbbd
000000e0: d7b0 963e 9023 043f 3ffa d33b b3a0 b1be
000000f0: 8324 223d 6b9c 0dbf 9580 a03e 7ba6 2a3e
00000100: 54b9 263f 1e6d f23d 46a0 3abc cb8a 5bbe
00000110: e54f 96bd dbdd fbbe adb2 8b3e ad42 543f
00000120: c4f2 acbd cf21 f5bd 526d 86bd 8a29 d93d
00000130: 16f9 86bd fff9 12bd ad93 eebe 855c 223b
00000140: e820 9dbd 6654 e5bd f1d3 75bd 54e8 c63d
00000150: 068c 74bd eae2 0fbd 53ff dabe ee49 593b
00000160: 8227 913e 49c2 7cbe 8b1c b93e 5b91 963d
00000170: 08f9 e5bc d58d 8abe e38d cebd 28d1 8c3e
00000180: a102 303e fe9d df3e ecd5 5abe ea30 3dbf
00000190: bc7a 2fbe d0e4 f83e bf4f ef3e 11fb b2be
000001a0: a7ca a83d e80d 543e 80dd d33e 18c5 b93e
000001b0: ced1 92be bf1e 893d e1b0 21bf cb3f c03a
000001c0: e037 a7bd 2847 ddbd 12a3 77bd 00ac ce3d
000001d0: e9d2 8bbd 9b73 01bd 5288 e2be cf0c b63a
000001e0: 00b7 7dbd 6b8f a73e 1a68 c23e 234c ac3e
000001f0: 628b 97be 940e 11be 391a da3e 8c74 323e
-0.07416347 -0.11049603 -0.058109365 0.09455583 -0.057320643 -0.035507273 -0.41635707 0.00397924
-0.079984084 -0.103824385 -0.059503417 0.09804585 -0.06753439 -0.029720038 -0.4313147 0.0006487903
-0.0802573 -0.11632948 -0.062783055 0.10141233 -0.06217793 -0.035910163 -0.44610533 0.003099042
-0.15115829 0.44188043 -0.24617037 -0.15050675 -0.026953267 0.3903926 0.58291644 -0.5565566
-0.07959757 -0.11479885 -0.061581664 0.100604035 -0.06235952 -0.035643596 -0.44195005 0.0032227912
0.32270783 -0.6770021 -0.0064460053 -1.6047862 0.62110263 -0.9384573 1.0258698 -0.15410155
-0.40982664 0.37816304 0.06146066 0.4009701 -0.00041856972 0.2922125 0.057408314 -0.09132299
0.29431793 0.51616764 0.0064690406 -0.34692916 0.0395856 -0.553168 0.313481 0.1666507
0.6512654 0.11837219 -0.011390751 -0.21439664 -0.073394574 -0.491927 0.27284756 0.8291424
-0.08444741 -0.11969339 -0.0656382 0.10603626 -0.06590478 -0.035882946 -0.46597043 0.0024774384
-0.07672292 -0.11197738 -0.060016576 0.09712282 -0.05970385 -0.03512851 -0.42772922 0.0033155638
0.28350455 -0.24683489 0.3615459 0.07351943 -0.028072849 -0.27061334 -0.100856565 0.27503324
0.17188503 0.43675226 -0.21370667 -0.7390276 -0.17136663 0.4861207 0.4674053 -0.34957173
0.08241778 0.2070843 0.4137993 0.36283183 -0.28675693 0.066953175 -0.6316052 0.0014667449
-0.08164954 -0.108045876 -0.06045825 0.100914 -0.06827337 -0.03160439 -0.4424463 0.0013889315
-0.0619421 0.32726607 0.37970048 0.33651838 -0.29598528 -0.14165717 0.4259813 0.17427272

decoder.4.bias f4 [16]
00000000: acda 5abd 8fee 61bd 8155 6bbd 03af c53e
00000010: 2a56 69bd 48db 933f c4d8 09be c40d 7b3e
00000020: b1f5 a4be c760 76bd 52e5 60bd 3f6a cebd
00000030: acc7 c63e db71 b83c 5238 69bd 7219 12bf
-0.053431198 -0.055159148 -0.05745459 0.38610086 -0.056966938 1.1551294 -0.13461596 0.2451697
-0.32218698 -0.060150888 -0.054906197 -0.100788586 0.38824213 0.022515228 -0.056938477 -0.57070076

decoder.6.weight f4 [3, 16]
00000000: 2a5e cabe 167c 48be 587a 43be 51db 94bd
00000010: 0d54 1ebf 8ad9 813d b1bd c5be d68a d23e
00000020: 6e03 0c3e 5d60 59bc eb01 5ebe e18b fabe
00000030: 63d5 393e 7385 03bf 24ec 64bf 793f 513d
00000040: 5a74 453f af08 5c3f ea5c 8d3f 4dd3 c2be
00000050: 4807 833f 46e1 67bf 21f4 02bf 68dd 9a3d
00000060: 1a06 ec3e 8cdb b13f 96cf 623f ca21 5a3e
00000070: 4213 52be a685 083d 1cd3 743f 6be2 d03e
00000080: 856e 4abe 52fa 36bf eb52 92be 5c57 e4bd
00000090: 097d 85be c9fc 143f 8630 b2be 2ce8 4c3e
000000a0: 6ba7 603e c89d c7be d15a 8ebe 98fa 9a3e
000000b0: aa40 bbbd 9ad4 9d3c bff6 18bf c51c 2ebf
-0.39524966 -0.19578585 -0.19089639 -0.07268394 -0.61847 0.063403204 -0.38621286 0.41121548
0.13673183 -0.013267604 -0.21680419 -0.48934844 0.18147807 -0.513755 -0.8942282 0.051085923
0.77130663 0.8595075 1.104398 -0.38051835 1.0236597 -0.90578115 -0.5115376 0.07561761
0.46098405 1.3895125 0.88598 0.21301952 -0.20515159 0.033330582 0.9563463 0.40797743
-0.19768722 -0.7147571 -0.28578886 -0.11149475 -0.26071957 0.5819822 -0.34802645 0.20010442
0.21938865 -0.38987565 -0.27803662 0.30269313 -0.09143193 0.019266415 -0.59751505 -0.6801265

decoder.6.bias f4 [3]
00000000: eca6 8b3e afc9 68bf 3fa1 473e
0.2727579 -0.90932745 0.19495104
