autoencoders/best_models_cuda/best_model_bone6.pth (torch, 8121 bytes, 15 tensors)

encoder.0.weight f4 [16, 3]
000000 55 7a 38 3e 36 b7 44 3f 6b 1e e1 bd f2 d9 a8 3e
       0.18015416 0.7684206 -0.1099213 0.3297878
000010 e0 94 b7 be cf 57 8e 3e ad 74 d4 3c 4b fc 48 be
       -0.3585577 0.27801368 0.025934542 -0.19627492
000020 be 2e 4c bf 5e b5 53 be 74 af 94 3e 90 d5 57 bd
       -0.7975882 -0.20674655 0.2904011 -0.052693903
000030 a3 53 19 be 81 9e 06 3f 07 ff 0b 3d 3c 08 f7 be
       -0.14973311 0.5258561 0.03417876 -0.4824847
000040 51 f7 5f be 5b d9 0b b9 91 6c e1 3c 3b 14 b5 bc
       -0.21871687 -0.00013337044 0.027517589 -0.022104373
000050 64 33 37 3f e2 ec a3 bc f7 14 47 3f c7 d3 b9 3e
       0.7156279 -0.020010415 0.77766365 0.36294386
000060 c2 63 ac 3e ed 24 33 be 94 89 be bc da fc e1 3c
       0.3366986 -0.17494555 -0.023258962 0.02758639
000070 6e 3e 1a 3f 62 8c ac bd 00 bc 7d 3e 8c f1 11 3f
       0.6025151 -0.084252134 0.24778748 0.57009196
000080 88 61 9e 3c 36 22 50 bd 88 b9 2a bd 14 31 a1 be
       0.019333616 -0.050813876 -0.041680843 -0.31482756
000090 7f df 07 bf 9a 0d 0d 3f 9f 53 c6 3e a9 80 45 be
       -0.530754 0.5509888 0.38735673 -0.19287361
0000a0 5b 2d f8 3d 77 96 65 bf e7 ec 88 be 7d 85 05 3f
       0.12118026 -0.89682716 -0.26743242 0.5215681
0000b0 99 49 25 3e 71 4e 0d bd 31 5a 86 3c 95 e3 1e bf
       0.16141357 -0.034498636 0.016400428 -0.6206601

encoder.0.bias f4 [16]
000000 2a 02 5e bd 50 d0 22 be 25 1d 34 bd e9 2c 5b 3d
       -0.054201283 -0.15899777 -0.043973107 0.053509627
000010 84 9d c0 3d bd bb 43 3c 34 0a 3c bc 21 f6 34 3d
       0.09405044 0.011946616 -0.011477042 0.04418004
000020 a5 5e 8a bd 28 a4 e3 3c d5 21 c7 3d a7 bc c9 ba
       -0.06756333 0.027788237 0.0972325 -0.0015391306
000030 78 55 57 3d 84 e8 f3 bb ea 78 58 3d 5b 34 9c bc
       0.052571744 -0.0074434895 0.052849688 -0.019067934

encoder.2.weight f4 [8, 16]
000000 21 66 86 be 09 c0 9f 3e cc 00 31 3e be 90 98 be
       -0.26249793 0.312012 0.1728546 -0.2979793
000010 87 ea 36 be ac 98 e2 bd ad a0 81 3e 47 50 96 3d
       -0.17862903 -0.11064276 0.25317898 0.073395304
000020 05 59 66 3d 61 6f e9 3d 46 82 2f be ed 17 44 3f
       0.05623724 0.11398197 -0.17139539 0.7659901
000030 25 23 24 be 0d f7 10 3c 64 4d 4a be dd b8 e7 3d
       -0.16029032 0.008847964 -0.19756085 0.11314557
000040 73 ab 32 3e 64 5c 09 be 2a bf 2d 3e 4c 38 9e 3e
       0.17448215 -0.1341415 0.16967455 0.30902326
000050 36 64 43 be c6 91 3c bd 85 36 27 bd 4f 3e cf be
       -0.19081196 -0.046037458 -0.04082348 -0.40477225
000060 81 fa 8c 3d 45 03 12 3e 7b cf c8 3d d0 93 e7 3d
       0.06883717 0.1425906 0.09805199 0.1130749
000070 98 2a 4c be 99 aa db bd 29 93 b4 be d8 89 e4 bd
       -0.19938123 -0.10725898 -0.35268524 -0.11159104
000080 6d 91 5d bd f2 c4 2d 3d 5c b0 50 bd a9 da 08 bd
       -0.054093767 0.04242415 -0.05094944 -0.033411656
000090 1e 61 17 bd e4 a4 0f bc 4d 4b b1 bd cf 7c 5f bd
       -0.036957853 -0.00876734 -0.086569406 -0.054562386
0000a0 84 09 ea 3c 1e 35 48 bd ba 5f f8 bc 27 3e 07 b8
       0.02856899 -0.04887878 -0.030319083 -3.2244392e-05
0000b0 7c 44 ae bd 83 bb db bd 3f 5f 6b bd 0d 7f f3 ba
       -0.08509156 -0.107291244 -0.05746388 -0.0018577293
0000c0 f8 d0 87 3d 98 58 0f 3f 2f c5 ad 3d 6a ee 9c bd
       0.066316545 0.5599456 0.084848754 -0.076626614
0000d0 9a 16 05 bc 32 3e 7b bd 63 18 c0 3e fb 64 01 bc
       -0.008123064 -0.06133861 0.37518606 -0.007897611
0000e0 fc d3 8c be 21 87 b5 bc 07 9f 11 3f da d9 8b 3e
       -0.2750548 -0.022159161 0.5688328 0.27314645
0000f0 de 98 a2 3e a9 84 85 3c 1d ec be bd 4d 03 8b be
       0.31757253 0.016298609 -0.09322379 -0.27150956
000100 c8 79 a0 3d ff 8f 52 3d a8 c2 97 bd 6b 13 09 bd
       0.07835728 0.051406857 -0.074101746 -0.033465784
000110 c8 d8 e3 3d 82 d9 30 bb 1e 71 bb be 0e 88 39 be
       0.11125332 -0.0026985114 -0.3660974 -0.18118307
000120 ff 48 65 3c 90 63 a8 bd e1 24 40 bd 47 4f bf bc
       0.013994454 -0.08222115 -0.04691017 -0.023353232
000130 53 38 3f bd 11 d1 4d be 0a 22 04 3e 35 3a 1e 3d
       -0.046684574 -0.20099284 0.1290361 0.03862973
000140 03 66 ce 3e 6f 67 88 3e 98 5e 12 3e 30 e8 c8 be
       0.40312204 0.26641414 0.14293897 -0.39239645
000150 e9 a5 9c be d8 04 0d bc 4b 0d c7 3e 0b b3 ec bd
       -0.3059533 -0.008607112 0.3887733 -0.11557587
000160 c9 55 89 3e c5 d1 bb be 3b d3 32 be 3a b9 9b be
       0.2682326 -0.3668348 -0.1746339 -0.30414754
000170 d3 cf 20 be 2d 76 60 3e 73 c3 e0 bd 85 ed 7c 3e
       -0.15704279 0.2192008 -0.10974779 0.24699982
000180 32 e1 78 3e d1 be 10 bd 85 51 0a 3e 99 b1 98 3d
       0.24304655 -0.035338227 0.1350766 0.07455749
000190 8b 9b 99 3d 94 97 1d 3d a0 ec 31 be 8d 93 20 bd
       0.075003706 0.038474634 -0.17375422 -0.039203215
0001a0 a6 7c b7 bd 35 e8 65 3d d8 27 1d 3d 17 02 1c 3e
       -0.08959322 0.056129653 0.038368076 0.15235172
0001b0 45 87 34 be ad 90 ef 3d 62 d6 d3 bc 8a 14 52 bd
       -0.17629726 0.116975166 -0.025859062 -0.05128912
0001c0 0a bc d4 bd bd 28 99 3c b4 03 0a be fb 82 9c 3c
       -0.10387428 0.018696183 -0.13477975 0.019105425
0001d0 32 f3 fc bd 22 34 2a bd bc 45 c9 bd 06 c3 5b be
       -0.12351073 -0.041553624 -0.09827754 -0.21461114
0001e0 a3 78 31 3d a2 cf bd 3c ff 29 1e 3e 5f 75 c9 bd
       0.04332794 0.023170296 0.15445708 -0.0983684
0001f0 81 e1 ed be 01 cf 1e 3c 00 e9 6c bd 68 76 44 3e
       -0.46461108 0.009692908 -0.057839394 0.19185793

encoder.2.bias f4 [8]
000000 89 1d a9 bd d9 db e3 bc 7f ee d7 bc 89 de 82 3c
       -0.082575865 -0.027814792 -0.026358841 0.015975254
000010 65 f1 c9 3a 1c fa ab bd eb 23 66 3c 23 bb c2 3c
       0.0015407024 -0.08397314 0.014046649 0.023770874

encoder.4.weight f4 [4, 8]
000000 c1 76 64 3f 65 9b f0 be 82 8a 8f 3e 16 06 b7 be
       0.89243704 -0.46993557 0.2803536 -0.3574683
000010 8b 5a 97 3e 60 06 1e 3f 54 37 5b 3f d2 42 e1 3d
       0.29561266 0.6172848 0.856313 0.10999073
000020 54 93 49 3e 67 49 63 be 42 cb 47 3e 42 c7 23 3e
       0.19685107 -0.2219597 0.1951113 0.1599398
000030 f0 ad 82 bc a0 20 2a be 84 94 8f 3e d9 18 83 3e
       -0.01595208 -0.16614008 0.28042996 0.25604895
000040 7f 69 fe bd b4 78 b6 be 32 62 9e bd 40 b5 0a bf
       -0.124224655 -0.35638964 -0.07733573 -0.54182816
000050 ea fc cb be ac 67 dc bd d2 c2 b9 be c8 7e 1c be
       -0.39841396 -0.10761961 -0.3628145 -0.15282738
000060 8b 41 bb be 13 26 bc 3d c8 0e 0f be 10 37 b8 bd
       -0.36573443 0.091869496 -0.13970482 -0.08994877
000070 b0 70 8b bd 32 07 ea 3e f1 d7 fb 3e 40 87 46 bf
       -0.06808603 0.45708615 0.49188188 -0.77550125

encoder.4.bias f4 [4]
000000 44 78 77 3d 6f 2e 06 be cb 03 d0 3d 3e 32 08 3e
       0.06041743 -0.1310365 0.101569735 0.13300416

encoder.6.weight f4 [1, 4]
000000 1b df 26 bf 90 2e ad 3d e6 62 1a bf d3 61 bd be
       -0.6518418 0.08456147 -0.6030716 -0.36988696

decoder.0.weight f4 [4, 1]
000000 9e 1f 8f bf 0b 03 38 3f 62 9d ab bf 4f dd f6 be
       -1.1181524 0.71879643 -1.3407404 -0.4821572

decoder.0.bias f4 [4]
000000 3b 9b 21 3f 2e 35 8f 3e 7f 66 5b bd 18 22 0b bf
       0.6312749 0.2797026 -0.053564545 -0.543489

decoder.2.weight f4 [8, 4]
000000 60 a7 61 bf f6 ff 9a 3c 72 63 d4 3e 51 95 74 3f
       -0.8814602 0.01892088 0.4148212 0.9554034
000010 97 c1 6c bf 28 e9 07 3f b1 ff 20 bf 75 11 2a be
       -0.92482895 0.53090143 -0.62890154 -0.16608222
000020 de 5e 8c 3e 28 c6 92 be 94 ce 20 bd 38 0a af bc
       0.27416128 -0.28666806 -0.03925951 -0.021367177
000030 6f 62 86 3d 62 4c c2 be ba 59 ac bc c0 b6 84 bd
       0.065617435 -0.379489 -0.021038879 -0.06480169
000040 95 b3 92 be e3 89 01 bf 1a 66 97 3f bf fb d4 bd
       -0.28652635 -0.50601023 1.1828034 -0.10399579
000050 82 51 11 bf 74 66 2a be 77 cc 5f 3f 98 ac c8 3e
       -0.56764996 -0.16640645 0.87421364 0.3919418
000060 56 73 41 3e 8b cd 43 bf 6d 11 17 3f d4 85 01 bd
       0.18891653 -0.7648551 0.59010965 -0.03162177
000070 3a e2 2b be a6 cb d3 3c 5e ad 7f 3c 8f aa 93 bc
       -0.16785517 0.025853943 0.015605299 -0.018025665

decoder.2.bias f4 [8]
000000 f8 96 b6 be 8d 18 02 be c6 a9 7b be 8f fa 30 be
       -0.35662055 -0.12704678 -0.24576482 -0.1728308
000010 16 b6 de bd c1 6a 48 be 3f c6 c5 bc 75 11 9a 3d
       -0.10874574 -0.19571973 -0.024142383 0.07522861

decoder.4.weight f4 [16, 8]
000000 bd 3e dd 3d 89 4f 6d bd 2b 54 24 3e 6d f9 58 3d
       0.10802982 -0.05793718 0.16047733 0.052972246
000010 88 0a 1d be 77 0a 97 3e cc e5 cf 3e b0 8a 00 3d
       -0.15336049 0.29500172 0.4060501 0.031382263
000020 95 1b 6a 3e a7 a4 19 3f 79 fb 79 3d ba b3 8d bd
       0.22862084 0.60016865 0.06103084 -0.06919046
000030 b9 6a a3 3e 8f 6a 14 bd d2 81 ce be 7e 2a e8 3d
       0.3191736 -0.036234435 -0.4033342 0.1133623
000040 8a be e6 3d 29 ef 78 3d cb f6 8a bd ed f7 a1 3d
       0.11266811 0.060774956 -0.06785353 0.07908616
000050 c5 d8 d2 3c 09 aa ce 3e 6d 74 3d 3f 2b 38 05 bd
       0.02573813 0.40364102 0.74005777 -0.03252427
000060 81 10 8e 3d 7c 99 82 3c 02 c3 8c bd da 24 e6 bd
       0.069367416 0.015942328 -0.06873132 -0.11237498
000070 08 83 c9 be 50 51 71 be 49 de be be 21 6d a6 3d
       -0.3935778 -0.23566175 -0.37278965 0.081262834
000080 e7 d2 96 3e 7f b2 67 3d 84 6e 39 3e ec d0 eb 3d
       0.2945778 0.05656671 0.18108565 0.11514458
000090 7c be 26 3f 2b cb c5 be 6e ba d0 bd ce d8 7e be
       0.65134406 -0.38631567 -0.10191809 -0.24887392
0000a0 02 c4 85 be 68 74 29 be 45 a3 2e 3e c6 a2 21 be
       -0.26126105 -0.16548312 0.1705447 -0.1578475
0000b0 fb 93 94 3e f0 f6 75 be ae 66 d2 3d 1f 7f 29 be
       0.2901915 -0.2401998 0.10273491 -0.16552399
0000c0 25 9b 8e be 40 a4 a4 bd be f6 a4 3e 65 b4 a6 bd
       -0.2785274 -0.08039141 0.322195 -0.08139876
0000d0 de 05 fa 3d b7 4f 1e be 10 e1 3f 3f ba 63 c7 bd
       0.1220815 -0.15460096 0.74952793 -0.09735818
0000e0 46 11 62 3e e1 d4 e1 bc a8 71 4c be 1f ba 83 bd
       0.22076902 -0.027567329 -0.19965231 -0.06431984
0000f0 a0 48 fe 3e 88 d7 b5 bd aa 82 36 3f 56 82 03 bd
       0.49664783 -0.08879 0.7129313 -0.03210672
000100 8b 79 9e 3b ea cb 9c 3e 1c a1 99 bd ed 32 a2 bd
       0.0048362664 0.30624324 -0.07501432 -0.079198696
000110 aa 24 01 be 47 9f 82 bd a2 09 1c be aa aa 16 3d
       -0.12611642 -0.06378036 -0.1523805 0.03678385
000120 d4 d0 db 3e 46 5c ed 3d 49 ac b8 3e cf 72 69 3d
       0.4293276 0.115898654 0.36068943 0.056994256
000130 b8 41 a8 bd 05 00 f1 3b 30 c3 a2 bc 2f 11 b3 3d
       -0.0821566 0.0073547387 -0.019868463 0.08743512
000140 f7 45 23 be 3c 95 68 3e 47 6f 10 be 1e 7b 0e be
       -0.15944658 0.22713178 -0.14104949 -0.13914153
000150 16 2b 18 bd 2a aa 1e be 43 41 e3 bd 30 5d 23 3d
       -0.037150465 -0.154946 -0.11096432 0.039883792
000160 6d 21 ed 3d 2a fd 68 3e ea a6 f8 3e 85 66 39 3e
       0.11578641 0.22752824 0.48564845 0.18105514
000170 af 7d 12 3e 24 26 bf be 9d 8b cc 3e 81 42 d2 ba
       0.14305757 -0.37333786 0.39950266 -0.0016041548
000180 14 17 fe 3e ef 19 9e 3d 30 87 a5 bc 0f e5 90 3d
       0.49626982 0.0771979 -0.020206064 0.070749395
000190 96 31 27 3c 70 d2 1e 3e 63 6c 1a be c2 e5 b9 3d
       0.010204693 0.15509963 -0.15080409 0.09077026
0001a0 34 9f 16 be 20 51 8a 3e 82 d5 b4 3e e0 71 f7 bb
       -0.14709169 0.27015018 0.35319144 -0.0075514168
0001b0 16 3e b9 bd 6f cb 51 3f a2 5c 79 3e 84 8e 77 bd
       -0.09045045 0.8195104 0.24351743 -0.060438648
0001c0 6c a8 69 3e 4c bf 80 3e 66 63 d1 bd a9 04 4f be
       0.22818154 0.25145948 -0.10224037 -0.20216621
0001d0 32 44 32 3e 9c 61 01 be 04 fb 90 bd d2 f1 b1 3e
       0.17408827 -0.12634891 -0.070791274 0.34754807
0001e0 25 fe cf be 3f ff 77 3f 82 39 99 be c7 53 99 be
       -0.40623584 0.9687385 -0.29926687 -0.2994673
0001f0 74 02 68 be 08 b9 a5 be 73 e8 a9 be 46 b1 8c 3d
       -0.22657186 -0.3236773 -0.33185157 0.0686975

decoder.4.bias f4 [16]
000000 62 c6 bf bc d6 b3 16 be 51 31 df 3b 00 7d 73 bd
       -0.023410026 -0.1471704 0.006811299 -0.05944538
000010 05 f5 82 bd 48 20 21 3e 72 a4 2c 3e cd ad ac bd
       -0.0639439 0.1573497 0.16859606 -0.08431587
000020 e7 8d 0f 3c f6 98 c0 be 76 84 08 3e 8c 53 5c be
       0.0087618595 -0.376167 0.1333178 -0.21516246
000030 98 10 d7 be 6f 6d df bd 7a a9 ca 3b 63 5a c0 3e
       -0.42004848 -0.10909545 0.006184754 0.3756896

decoder.6.weight f4 [3, 16]
000000 e5 3f 58 be ba bf b8 3e 1c d0 6f be 4f 91 26 3e
       -0.21118124 0.36083776 -0.23419231 0.16266368
000010 ee 98 66 3e c3 81 cb 3d 13 07 f7 3d 94 8f 40 be
       0.22519276 0.099368595 0.12061896 -0.1880477
000020 0f 87 f9 3c 24 ca 9f 3e a2 dc 94 3d 0e 96 51 3e
       0.030459909 0.3120891 0.07268645 0.20467398
000030 c7 07 08 3f 76 e7 ae 3e 54 5f b1 be 40 08 6f be
       0.5313687 0.34160966 -0.34643042 -0.23342991
000040 3d dd 1e be 17 7e e6 3c cb 9e d1 bd 99 73 fe be
       -0.15514083 0.028136296 -0.102353655 -0.4969757
000050 e5 66 9a 3e be ad d2 3e 00 1f c5 3e a4 0e dd be
       0.30156627 0.4114818 0.38500214 -0.43175232
000060 4a b4 05 be 23 24 1e bf 62 27 a0 3e d7 b0 ae bd
       -0.13057056 -0.6177389 0.31280047 -0.08529823
000070 ae b5 17 bf cc 5a 11 3e 78 ae ae 3d 2d cf 98 3e
       -0.59261596 0.14194793 0.08529371 0.29845563
000080 7a 5b d1 be a9 9a ed 3e ce cb 26 3d 44 7f 5f 3e
       -0.40890104 0.4640706 0.040721707 0.21825892
000090 54 50 8f be bd d8 52 be 35 eb 2b be e3 cb af be
       -0.27990973 -0.20590492 -0.16788943 -0.3433524
0000a0 f0 03 a0 3e c3 f7 58 3c 9c 76 43 3e 7d 70 ea bd
       0.31253004 0.013242665 0.19088215 -0.11447237
0000b0 95 2b 84 bd 4c 9f c4 be c3 4e ce bc ed 49 54 3f
       -0.06453625 -0.38402784 -0.02518404 0.829253

decoder.6.bias f4 [3]
000000 54 41 06 bf 21 c0 09 3f df 16 ea 3d
       -0.5244343 0.5380879 0.114301436
