autoencoders/best_models_cuda/best_model_bone11.pth (torch, 8143 bytes, 15 tensors)

encoder.0.weight f4 [16, 3]
00000000: 6cec 2fbd 0a8a 393e 9fb2 25bf d7a6 bebb
00000010: 5d8e 5539 4987 e239 405b afbc cbcf 273b
00000020: 5a30 a63d dfe0 ebbe a45e 0c3e 7367 10bf
00000030: 1068 53bd 7957 64bb 7edb 8f3d 26b1 e3be
00000040: c79d 823d 8fdc f33c c5aa 8cbe 3699 163c
00000050: 3827 2a3d 2d7d babe 978c 213e 9670 0cbf
00000060: c21b c4b9 bf94 6cb7 dd1e 1f38 6aac d13e
00000070: 261c 11be b0d1 67bf bb3d 3ebe f866 9e3c
00000080: 30af aebe a863 633e 986e cdbc 43bc 9c3c
00000090: 074d 2bbe 5bea 3b3c a2da 5bbe 61d1 ef3d
000000a0: 9c5b 9a3d 6f8c e6be 8fa0 c7be 3d51 15be
000000b0: b53a f0be 6ea9 e43d 5006 27bc 3e9e 713d
-0.04295008 0.18119064 -0.6472568 -0.0058182287 0.00020366297 0.00043206874 -0.021405816 0.0025606032
0.08114691 -0.4607 0.13707978 -0.5640785 -0.051612914 -0.0034842177 0.07024287 -0.4447109
0.0637775 0.029768256 -0.27474037 0.009191802 0.04154131 -0.36423627 0.15776287 -0.5485929
-0.00037404714 -1.4101329e-05 3.7937298e-05 0.40951854 -0.14170894 -0.9055433 -0.18578236 0.019336209
-0.34118032 0.22205985 -0.02507715 0.019132739 -0.16728602 0.011469449 -0.2147012 0.11709858
0.07537004 -0.45029017 -0.38989684 -0.14581771 -0.4691979 0.11165129 -0.010194376 0.058988802

encoder.0.bias f4 [16]
00000000: ff1a 7abb 3bbd e139 231e ac3b 8e0b cf3b
00000010: a5bf 4ebc a1ba 863c be0d 5e3d 5fa4 07bd
00000020: ddac 8a37 6394 2f3d ce97 4d3c 5cfb 23bd
00000030: 0079 e83c c977 733d d4b3 df3c 4fa0 ecbc
-0.0038163064 0.00043056332 0.005252616 0.006318516 -0.012618934 0.016446413 0.054212324 -0.03311574
1.6531378e-05 0.042866122 0.0125484 -0.040034637 0.02837801 0.059440408 0.027307428 -0.028885035

encoder.2.weight f4 [8, 16]
00000000: 83b5 5ebd 00e4 ad3b 234c 62bd 4257 06be
00000010: 3d94 bdbd 3f72 cb3d f2b0 f53d 81e8 0cbe
00000020: 3d85 b039 a987 213f f092 e13e 3a51 6fbe
00000030: b152 ca3e 6a68 023e b392 44be eb0d 9ebe
00000040: e57d 483f 2bdc 62b9 2e6d c63d 3330 143e
00000050: ef1c 093d 99bc 9aba 2ce7 7f3d 6dd9 49bd
00000060: 6988 36b7 d37f 9a3e e3d8 85be 62d4 e3bd
00000070: aa16 723e 5a18 fc3c b167 0bbe ff05 0b3d
00000080: 9285 6e3d 1b2f 0d3a 7bee 3c3e 00a7 4c3e
00000090: 2d19 c13e 93b2 373c e516 a63d b038 18be
000000a0: 03e6 bc38 ad97 c03e a70e c83c 3b38 fbbd
000000b0: 5839 c53c 5a32 0c3e 02d7 fc3e 7129 bb3c
000000c0: 4286 f53e d47c 2bbb 2bb8 fbbd 5f02 f03d
000000d0: 511c debb a4c3 5bbd dbc9 ed3d 52e9 99be
000000e0: 9677 7db9 ddf8 9a3e 1222 f7bd ef00 f3bb
000000f0: a5ce 513e 0829 a83e 4d4e 9c3e 5f62 773d
00000100: fa8d 853e 67e2 39ba 91ae 9a3c ae6f 8dbe
00000110: 7d40 4c3d f045 fabc 9b98 2b3d 0bf5 1e3c
00000120: 4f29 29b9 e6df a23e ecd8 88be 3056 bf3c
00000130: 9261 88be a092 f73d 2abf 9a3e b8ad 543d
00000140: adc3 213d 2bbe 2c37 c973 3537 c39f bf3b
00000150: 5db9 d437 b346 803a 68dc 103a 80fa 5ebc
00000160: 28ca c535 1d75 82bc ac85 3abb e067 13ba
00000170: c91c c539 d6a1 a5b9 bd9a 40bc b73c c1b9
00000180: 487b c8bd f84a 883b 7b31 aebd d5e0 e83c
00000190: f847 1fbc 2dc5 a33d 9e91 803e 3c7d 273e
000001a0: a2c9 6939 66e1 863d 46ad 30bd 60a2 f33c
000001b0: ce79 c93e a981 b4bc 7237 a8bd 7dc5 a83d
000001c0: be3d a2bc 732e e038 d32e 1d3a 00ca 68bc
000001d0: 360f 4dba cc4a 703c 03ca 003c 8f42 53bc
000001e0: b38e a737 84c5 4ebd 5012 1ebc b424 cdbb
000001f0: ebab a5bb 72b9 9ebc 4b2c 36bc e3e5 86bb
-0.05437232 0.0053067207 -0.05524839 -0.13119224 -0.0925679 0.099339 0.1199664 -0.13760568
0.00033668606 0.63097626 0.44057417 -0.23370829 0.39516214 0.12735143 -0.19196586 -0.30869994
0.783171 -0.00021635059 0.09688793 0.14471512 0.03347486 -0.0011805474 0.062476322 -0.04927962
-1.0879806e-05 0.30175647 -0.26142034 -0.11124493 0.23641458 0.03077333 -0.13613774 0.033941265
0.05823285 0.00053857424 0.18450348 0.1998558 0.3771452 0.011212009 0.081098355 -0.14865375
9.0073816e-05 0.3761572 0.02442105 -0.122665845 0.024075195 0.13691083 0.49382788 0.02284691
0.47953993 -0.0026166933 -0.122909866 0.11719202 -0.006778278 -0.053653374 0.116107665 -0.30060822
-0.0002417251 0.30267993 -0.12067045 -0.007415883 0.20488985 0.32843804 0.3052849 0.06039655
0.26084882 -0.00070909265 0.018882068 -0.27624267 0.04986619 -0.030550927 0.041893583 0.0097019775
-0.00016132485 0.31811446 -0.26727998 0.023356527 -0.2663694 0.120885134 0.30223972 0.051923484
0.03949325 1.0296276e-05 1.0815399e-05 0.0058479025 2.5358686e-05 0.0009786695 0.0005526007 -0.013609529
1.4736479e-06 -0.015924985 -0.0028461022 -0.00056230836 0.00037596215 -0.0003159183 -0.0117556425 -0.00036857065
-0.09789139 0.0041593276 -0.085055314 0.02842752 -0.0097217485 0.07996593 0.25111097 0.16356367
0.00022295726 0.0658596 -0.043133996 0.029740512 0.39350742 -0.022034483 -0.082137 0.08240793
-0.019804832 0.00010689804 0.0005996052 -0.014208317 -0.0007822396 0.01466627 0.007860663 -0.012894287
1.99744e-05 -0.050481334 -0.009647921 -0.006260479 -0.0050558946 -0.019375537 -0.011118959 -0.00411676

encoder.2.bias f4 [8]
00000000: 3ef8 5b3d 6f4e 9b3a 35c8 343d 3b35 cf3c
00000010: 3fd5 86bc 179c 0e3a eb78 513b 3154 db3b
0.05370354 0.0011848937 0.044136245 0.025293937 -0.016459106 0.00054401293 0.0031962942 0.006693386

encoder.4.weight f4 [4, 8]
00000000: bb7a 25be 2eef e5ba ce1c 54be 305e 3d3e
00000010: 5fc1 9b3e 0776 03bb e407 b0be 2545 0b3e
00000020: 29dd 3d3e 7650 023e dcba ca3e 0436 463f
00000030: a50f 23bf bb3d 1abc 40a0 60be 07f9 c23e
00000040: b837 cfbd 7714 97bd 65d3 33bd 825d b6bd
00000050: 2959 dbbd 887c fe3a 9779 793c cb43 bb3c
00000060: 0adb 343e 698f 8d3d 484c 8b3f 6df2 433c
00000070: 76cf 073f 824d d43b 299e 1abe 4050 afbd
-0.16160099 -0.0017542595 -0.20714113 0.18492961 0.30420968 -0.0020059363 -0.3438102 0.13600595
0.18541397 0.12726006 0.39595687 0.7742617 -0.63695747 -0.009414132 -0.2193613 0.38080618
-0.101180494 -0.0737695 -0.043902773 -0.08904554 -0.10710365 0.0019415775 0.015226743 0.022859475
0.17661682 0.06912119 1.0882654 0.011959654 0.53050935 0.006478966 -0.15099396 -0.08560228

encoder.4.bias f4 [4]
00000000: 2c28 aebd 7d75 c73c a05c 283d 0e0b 3a3d
-0.08503756 0.024348015 0.04110396 0.0454207

encoder.6.weight f4 [1, 4]
00000000: abe2 cf3e 604a 7bbe aad0 d7bd d93e babe
0.4060262 -0.2454009 -0.105378464 -0.36376074

decoder.0.weight f4 [4, 1]
00000000: f6e4 e03d 2ea2 503e aaf2 1bc0 11ca 06c0
0.10981171 0.20374367 -2.436686 -2.1060832

decoder.0.bias f4 [4]
00000000: 71f3 4bbd 38ed e3be 937a 073c 8620 a9bc
-0.04979271 -0.4451692 0.00826897 -0.020645391

decoder.2.weight f4 [8, 4]
00000000: bfe6 243b fed9 00bc ec2a b1bd 75c7 9abd
00000010: 85eb d83e 6146 273f 88ca a33e eb01 04be
00000020: 1272 b93c 7dc4 353f f330 02bf 73d9 3b3f
00000030: 6903 d73c 17da 2d3e dd70 babd 47c1 8dbd
00000040: ae94 3ebe 1dcc 163e 1685 2ebe 5e66 213f
00000050: 9379 22bd a9a0 5bbe 5781 3b3d 8bbc f0bd
00000060: 5d3d 263e b410 603f 89b0 993e 10b1 40be
00000070: d2bd c6be 5960 b6be 643c 73be ff9f 473f
0.002516195 -0.007864473 -0.08650765 -0.07557575 0.42367187 0.65341765 0.31990457 -0.12891357
0.0226374 0.7100294 -0.5085594 0.73378676 0.026246743 0.16977726 -0.09103558 -0.0692163
-0.18611404 0.147263 -0.17042956 0.63046825 -0.039666723 -0.21448006 0.045777645 -0.11754712
0.16234346 0.87525487 0.30017498 -0.18817544 -0.38816696 -0.35620382 -0.23753506 0.7797851

decoder.2.bias f4 [8]
00000000: fead 9a3c 2778 943c ef22 d2bd e105 85be
00000010: 8aed aabd 03b2 913e 3157 d9bd 42a7 563d
0.018881794 0.0181237 -0.10260569 -0.25981048 -0.08346088 0.28456125 -0.106123336 0.052405603

decoder.4.weight f4 [16, 8]
00000000: 4897 b5bc d0a8 d4bd 1b99 c8bd bfeb cbbd
00000010: f628 17be a43f 833d 6007 b6bd abbb 8c3d
00000020: 5e52 6a3e 7c2a a03e 3096 a4bc a9df 10bd
00000030: 0e77 c83d 245b 033e 165f e53e cc85 943e
00000040: e27a 2abe 43ae 80bb 6bf1 133e 2380 cc3d
00000050: d454 d0bd 703c 8ebd dbf9 bdbd 2c9a 453e
00000060: 8508 313e f059 853f e68d fe3e b8d0 013f
00000070: 677d 3fbd a482 d5bb 5faf 5dbc 0a00 1e3c
00000080: 9589 ec3c 8dd1 36be 9c0c cd3d 87ca 113e
00000090: 2a09 c83e 020d 07be 7b51 313e 492c bebe
000000a0: 812c 793c 76e3 803d 82d0 013e b5e0 003e
000000b0: 916f b3bd a80f 90bd 5d56 113e cc00 68be
000000c0: 5f1f 4cbf f893 143f b0f7 9dbd 8c89 9abd
000000d0: ff08 5c3e 1811 9abe b63a 32be bc67 683f
000000e0: 6278 143c 6449 203f 5cbb 5a3f f929 e13d
000000f0: d3d9 9a3e 8543 06be 9924 d13e c1d0 bf3c
00000100: c086 6cbe 9ed4 eabc 3b9c 523e 79ac 543d
00000110: fe3d 88be 90e5 b4be 6cb2 643d 6673 f43d
00000120: 08db f8bd 9f38 cb3c afc1 513e 087a 903d
00000130: be63 d03e 2728 63bc 6c27 6bbe 2cf7 023e
00000140: ccbd c53c 805e e53d 59c9 443e a697 3c3e
00000150: d8a5 b1bd 26bc e5bd 3215 5b3e 7986 91be
00000160: 84af 8e3d 1540 1abe 5665 0cbe 48f1 08bd
00000170: 4e02 2bbe 12c9 ad3d e047 0fbe f535 e9bd
00000180: 514e 2cbe 45e3 b7be 84d1 5f3e e79e 94be
00000190: 3cbd b33d 698c 12bd 25e5 fe3c 241d b63e
000001a0: 96d7 0abd 1a28 9c3e 3664 6a3c 42a4 d73d
000001b0: 1f81 c7be 3119 efbd 0b0d 5e3e 6478 083f
000001c0: e7bc 4cbe feae 15bf f9e2 cb3e 2cba 1e3e
000001d0: d563 0a3e 953f abbe 30ae e8bd 2ea7 563d
000001e0: 36c6 4abd e8eb 7ebe b1b5 11bd 36c6 a3bc
000001f0: 987c ca3a 932e 0f3e 979c 033f 4b35 983e
-0.022166863 -0.10383761 -0.097948276 -0.099570744 -0.14761719 0.06408623 -0.088881254 0.06871732
0.22882983 0.31282413 -0.020091146 -0.03536955 0.09788333 0.12827736 0.44799107 0.2900833
-0.16648439 -0.0039270236 0.14447562 0.09985378 -0.1017243 -0.06945121 -0.09276172 0.19297093
0.17288406 1.0418072 0.49717635 0.50709105 -0.046750452 -0.0065158177 -0.013530581 0.009643564
0.028874198 -0.17853375 0.10012171 0.14237414 0.39069492 -0.13188556 0.17316239 -0.37143162
0.015208364 0.06293385 0.12677196 0.12585719 -0.08761514 -0.07034236 0.14193101 -0.22656554
-0.7973537 0.5803828 -0.07713258 -0.07545766 0.21487807 -0.30091166 -0.17405209 0.90783286
0.009061905 0.62611985 0.8544214 0.10994334 0.30244312 -0.13111694 0.40848234 0.023414971
-0.23098278 -0.028665837 0.2056741 0.051922295 -0.26609796 -0.35331392 0.05583422 0.11936073
-0.12151152 0.024807272 0.2048404 0.070545256 0.40701097 -0.0138645535 -0.22964257 0.12789601
0.024138354 0.11199665 0.19217433 0.18417224 -0.0867421 -0.11217527 0.21394804 -0.28422907
0.06967071 -0.15063508 -0.13710532 -0.03343323 -0.16700098 0.08485617 -0.13992262 -0.113872446
-0.1682675 -0.3591558 0.21857268 -0.29027483 0.08776328 -0.035778437 0.031115124 0.35569108
-0.033897005 0.30499345 0.014306119 0.105293766 -0.389657 -0.11674727 0.21684663 0.533087
-0.19993936 -0.5847014 0.39821604 0.15500706 0.13514645 -0.33446947 -0.11361349 0.05240553
-0.049505435 -0.24894679 -0.035573665 -0.019991975 0.0015448509 0.1398261 0.5141081 0.2972816

decoder.4.bias f4 [16]
00000000: 716c 0c3e ed50 a43b 16d5 9c3d cbbd 19be
00000010: 86d9 57be b9aa 52be 8ed6 d43c 8f37 00bd
00000020: 1a61 8cbd e01b 403e 01a9 98be e84d 213e
00000030: d162 ec3a 5f6e 68bd d7eb 2cbe 8bfa 4dbd
0.13713242 0.00501453 0.076578304 -0.15013807 -0.21079072 -0.20572938 0.025981214 -0.031302985
-0.06854458 0.18760633 -0.2981644 0.15752375 0.0018034821 -0.056745883 -0.16886841 -0.050287765

decoder.6.weight f4 [3, 16]
00000000: b853 6abd 9534 ecbd 5952 b3bd 2979 643e
00000010: a9f2 fb3e 3528 b03e 8d6f ffbd eb43 743e
00000020: 6791 d73e ad5b 9bbe d733 463f 7063 aebe
00000030: 8c6d 493d 0482 693d 1d5b c83e 382d 81bb
00000040: 570f 733e 430e 3cbe c11f 88bd f58b 863c
00000050: 2af4 083e 8f6b 41be 030a 24bd 06d4 513d
00000060: 7239 ad3e f538 49bd 26b8 ddbd a095 0c3e
00000070: 2981 973e 7e0d 923e d002 6abd fa6d 0fbe
00000080: e2d0 d23e 801c f9be af5b 233d 16b4 54bd
00000090: b53b cc3d 7ec3 4c3d 065c 94be 2a44 8fbe
000000a0: 4a97 e23d 4019 04be 43af 0f3e 6572 513e
000000b0: ae3c 4c3e 4c05 49be db7a d23c bb4d 70be
-0.057208747 -0.11533467 -0.08755941 0.22311844 0.49208573 0.34405676 -0.124724485 0.23854034
0.4210312 -0.3034338 0.7742285 -0.3406024 0.049176738 0.05700876 0.39132014 -0.003942158
0.2373632 -0.18364815 -0.066466816 0.016424159 0.13374391 -0.18888687 -0.04004861 0.051227592
0.3383289 -0.049126584 -0.10826139 0.13728952 0.2959073 0.2852592 -0.05713159 -0.14006796
0.4117499 -0.48654556 0.03988236 -0.051929556 0.09972326 0.049991123 -0.28976458 -0.27981693
0.11064012 -0.12900257 0.14031701 0.20453794 0.19945022 -0.19630927 0.025693348 -0.23467152

decoder.6.bias f4 [3]
00000000: 10f5 12bf 96d5 a13d f580 9a3c
-0.57405186 0.079020664 0.01886032
