autoencoders/best_models_cuda/best_model_bone8.pth (torch, 8121 bytes, 15 tensors)

encoder.0.weight f4 [16, 3]
000000 e4 66 ab 3e 4f e5 f9 be 54 fe 06 be 94 3f 3c 3d
       0.33476937 -0.4880776 -0.13182956 0.04595907
000010 c4 ac b4 3c a7 44 aa 3d 28 f3 05 3e 24 62 39 be
       0.022055037 0.08313876 0.13081038 -0.18103844
000020 e5 9d a6 be c8 ed 22 3c fc d6 50 bb 6c 11 cf 3d
       -0.3254234 0.009944387 -0.0031866422 0.10110745
000030 9f eb f3 be 4a 0b 99 3e fb b9 ff be 36 c6 b7 3e
       -0.47640702 0.29891425 -0.4994658 0.3589341
000040 e7 4f eb bd ea e6 2b bf 74 f3 47 bd 02 0c 63 3c
       -0.114898495 -0.6714922 -0.04881616 0.013857843
000050 9d 21 47 3e a7 c1 63 be e0 30 0c bf ca 3b 05 bf
       0.19446416 -0.22241841 -0.5476208 -0.52044356
000060 5d 29 9d be 2f c7 f2 3c 50 56 47 3e ad cf 1a 3e
       -0.3069562 0.029635994 0.1946652 0.15118285
000070 f1 bc 1e bd 7e c9 b6 bf c8 be ef bc eb 0b 74 3c
       -0.038754407 -1.428024 -0.029265776 0.01489542
000080 2a bc 3e 3e 4c 05 fa 3a 04 45 0e bb 58 0d b1 bd
       0.18626466 0.0019075065 -0.0021708617 -0.08645123
000090 bc e3 02 bf 8f 4d 7e 3e fb f6 d8 be 38 f2 91 bd
       -0.51128745 0.24834274 -0.4237593 -0.07126278
0000a0 5d c4 c2 3c 70 33 6b 3e 68 5f af 3d 51 0a 21 bd
       0.023775274 0.2296884 0.08563119 -0.03931648
0000b0 fd 72 06 be 27 25 c1 bd ab 88 13 3d 7b 7d 31 3e
       -0.13129802 -0.09430914 0.03601901 0.17333023

encoder.0.bias f4 [16]
000000 44 ef 28 be 84 29 b3 3c fd 0c 55 bd 62 be 6d bc
       -0.16497523 0.021870382 -0.05201434 -0.014510723
000010 9f f3 02 3e 1e a6 2b 3e 5d d3 0e 3d 55 81 30 bd
       0.12788247 0.16762587 0.03486954 -0.04309209
000020 be 8a c5 3d 2c a8 c3 bc 68 8a c6 3c d2 22 3b bc
       0.096456036 -0.023883902 0.02423592 -0.011421876
000030 a0 81 27 bd 3b 63 51 3d a9 8c 96 bd 9a 85 95 3d
       -0.040895104 0.051120024 -0.073510475 0.07300873

encoder.2.weight f4 [8, 16]
000000 cd 25 b3 be ca df e8 3c d6 9a 93 be cf 08 ce be
       -0.34989777 0.028427023 -0.28829068 -0.40241095
000010 8a 38 78 3e d3 7c 5d 3e 76 45 92 be 79 73 4f be
       0.24240318 0.21629648 -0.2856862 -0.20258893
000020 65 0a 5f be ae 61 9f bb b9 ac 90 ba 9a b4 26 be
       -0.21781309 -0.0048639392 -0.0011037803 -0.16279832
000030 ed 9d 4c bd 01 14 8a 3e ea 73 37 3d 38 3f 5d bd
       -0.049955297 0.26968387 0.04478828 -0.05401537
000040 a5 95 07 3e d7 13 46 3d a8 14 a0 3d f0 1e f7 bd
       0.13240679 0.048358764 0.0781644 -0.12066448
000050 f7 13 8e be 87 5a a3 bd 8f 92 a2 3d 44 a5 26 3e
       -0.27749607 -0.07976251 0.0793811 0.16273981
000060 7a cd 1f be 01 65 59 bc 15 fc c0 3d 42 28 52 3c
       -0.15605727 -0.01326871 0.09423081 0.012826981
000070 f0 bf 76 bb db 2f ba 3d 82 e0 ee bd 3e a3 8d bd
       -0.0037651025 0.09091159 -0.11663915 -0.069159016
000080 2b 98 c4 bb 1c e0 09 bb b0 0d b8 3c 93 f0 23 bb
       -0.005999585 -0.002103812 0.022467464 -0.002501522
000090 8d 48 e6 3c 36 ef 14 3c 9e 4d 49 bb 30 76 0b bd
       0.028110767 0.009090235 -0.003071643 -0.03404826
0000a0 47 e7 1e bb 72 58 16 3c f6 a4 50 bb 62 ef 46 bb
       -0.0024246739 0.00917636 -0.0031836606 -0.0030355086
0000b0 d5 33 94 bd b1 fa 4c bb 32 df 8d bb f5 61 28 bb
       -0.07236449 -0.0031277353 -0.0043295855 -0.0025693153
0000c0 79 79 62 bc c9 ba d7 3b 66 4f 67 be 71 9d c8 3b
       -0.013822907 0.006583546 -0.22588882 0.006122284
0000d0 60 8e 09 bd 8c 1a 06 3e f2 f7 66 3c cc 8e ae 3e
       -0.033583045 0.13096064 0.014097201 0.3409332
0000e0 18 0c 04 3d 5c de 15 3d 24 5e 58 3c 03 f6 eb 3c
       0.032238096 0.03658901 0.013206039 0.028803831
0000f0 47 9b 82 bd 1d 74 6f 3c b1 76 b6 bb 05 20 8b 3c
       -0.06377273 0.014615086 -0.0055683483 0.016983042
000100 05 c4 c5 bd 8b bf b3 be a2 7d da 3d f5 f7 d7 be
       -0.096565284 -0.35107073 0.10668494 -0.42181364
000110 d8 5d a2 bd 7a cf 2c 3e 11 6d 25 3e 3b 9f 27 3e
       -0.079280555 0.16876021 0.16154887 0.16369335
000120 fa ce c8 bd d1 cd e7 bd 6f 30 65 be 08 e1 5f 3e
       -0.09805103 -0.11318553 -0.22381757 0.21863186
000130 62 d7 b2 39 62 ad 26 3e c2 3e 0b bf 2e aa 8a be
       0.00034111278 0.16277078 -0.54392636 -0.27082962
000140 10 40 1d be ad 94 58 be a0 ac 50 3e 80 ea 32 be
       -0.15356469 -0.21150465 0.20378351 -0.17472267
000150 92 39 ca 3e 81 0d 3e 3e 72 8e 07 bd 38 28 03 3f
       0.39497048 0.18559839 -0.03309483 0.51233244
000160 ed de 82 3e 17 a2 fa 3e 62 79 1d 3e e0 f0 9b 3e
       0.25560704 0.4895179 0.15378335 0.3045721
000170 51 02 82 3e 4d 94 55 be 10 58 85 3e 99 66 3a be
       0.25392392 -0.20857354 0.2604375 -0.182032
000180 11 3c 9a bd 68 fc bc bb 84 29 0f 3e b3 f1 24 be
       -0.07530988 -0.005767394 0.1398068 -0.16107826
000190 10 dd ee 3e ca 43 15 3e 4e 40 3e bd 02 f2 5e 3e
       0.46653032 0.1457664 -0.046448044 0.21772006
0001a0 b1 66 05 be 2c 36 ee be a4 39 33 3b 78 e7 c6 3d
       -0.13027455 -0.46525705 0.002734759 0.09712118
0001b0 07 ad fe bd 5f ea 88 bd e8 1f 19 3d b9 ae 9e be
       -0.12435346 -0.06685328 0.037383944 -0.30992678
0001c0 ff aa 10 be 81 ee fc be 55 80 0f be 2a 7b a0 bd
       -0.1412773 -0.49400714 -0.14013799 -0.07835992
0001d0 a9 8b fd 3e f9 64 02 3f 1c 3b f1 be ea 1d 12 bf
       0.49520615 0.5093532 -0.4711541 -0.57076895
0001e0 57 bc 16 be ea ec 18 be ce 76 14 bf 34 99 b8 3e
       -0.14720283 -0.14934126 -0.5799378 0.36054385
0001f0 1e c8 ab be c3 c4 9a be 85 82 ba 3e 67 7a f4 be
       -0.33551115 -0.30228242 0.36427703 -0.47749636

encoder.2.bias f4 [8]
000000 d8 1c d5 3d 4a 5d c1 bd 48 3d 97 3b 72 cb f7 3c
       0.10405892 -0.094416216 0.0046154596 0.030248377
000010 63 77 7c 3e 2c 04 fc 3c 56 4f 90 3d 39 2f 15 3e
       0.24654917 0.030763708 0.07046382 0.14568795

encoder.4.weight f4 [4, 8]
000000 79 54 d1 bb 35 c4 75 3b 4e 81 b3 3b 25 d7 95 bb
       -0.0063882438 0.0037500982 0.005478061 -0.0045727664
000010 e4 5e 81 bb 38 8e 0a be aa 8e db bc 99 91 c6 bd
       -0.0039480794 -0.13530815 -0.026801426 -0.09695739
000020 15 e0 10 bd a3 c3 1d 3d c3 fb b0 ba 30 84 ba bc
       -0.03536995 0.03851665 -0.0013502765 -0.02276811
000030 4b de f9 bc 99 ff 79 be 4c 29 5d 3d 4b 65 ae 3d
       -0.030501505 -0.24413909 0.053994462 0.08515414
000040 32 83 8a be 26 bd e6 be 7a 93 ce 39 b3 a4 a7 3d
       -0.2705322 -0.45066184 0.0003940126 0.08185711
000050 fd 1a a6 bd 91 f4 d6 3e 70 74 c7 3e 69 d1 c9 be
       -0.08110616 0.41983464 0.38956022 -0.3941758
000060 90 10 6a 3d 2b 29 37 3f b6 f1 8a 3b 14 cf b8 be
       0.0571447 0.7154719 0.00424024 -0.36095488
000070 56 3b b7 bc aa ed 52 3d 73 fa 50 bd a9 75 52 3d
       -0.02236716 0.051496185 -0.051020097 0.05138174

encoder.4.bias f4 [4]
000000 f0 55 9e 3c 4e 0d e6 bd c7 be 89 3c 51 f0 05 bd
       0.019328088 -0.112330064 0.016814603 -0.032699887

encoder.6.weight f4 [1, 4]
000000 1e e7 5c be 2f 4f 08 3f 70 b9 35 3f 70 fc 1b 3e
       -0.21572539 0.53245825 0.7098608 0.15233016

decoder.0.weight f4 [4, 1]
000000 e3 db d0 3f c1 4b 86 3f d6 78 4d be 1a 0e 3c 3f
       1.6317104 1.0491868 -0.20065627 0.7345902

decoder.0.bias f4 [4]
000000 b5 09 57 3d 7e 12 e3 3d 81 17 8f bd 7e e5 3f be
       0.05249949 0.110875115 -0.06986905 -0.18739888

decoder.2.weight f4 [8, 4]
000000 f8 30 2a be 21 45 2a 3e 9c 88 65 bb 14 79 07 3e
       -0.16620243 0.16627933 -0.0035024052 0.13229781
000010 5f c6 33 3f 9b 00 27 be 25 19 6c 3f 4a 1a 9c 3e
       0.70224565 -0.16308825 0.9222587 0.30488807
000020 00 0d 96 3e 22 0c c4 3e 1d 7a 8f be af d0 08 3f
       0.29306793 0.38290507 -0.28022853 0.53443426
000030 b8 42 6c be b5 ad b4 be c9 1c 36 3e 82 a7 90 3f
       -0.23072326 -0.35288778 0.17784418 1.1301119
000040 be 05 c4 bc c7 34 d8 3e b6 40 aa 3e d3 29 2b 3e
       -0.02392852 0.42227766 0.33252496 0.16715173
000050 80 e6 a8 3c 9e cf d0 be fa ca 89 3d ee c7 01 3e
       0.020617723 -0.407834 0.06728168 0.12673923
000060 67 e5 a1 3e 4b 3c 06 3e 76 96 d9 3e ff 12 cd 3e
       0.31620333 0.13108937 0.42497605 0.40053555
000070 2b d6 6f be 32 10 a8 bc 04 f2 0f 3d e9 ff 7d 3d
       -0.23421542 -0.020515535 0.035142913 0.062011633

decoder.2.bias f4 [8]
000000 f4 2c ff bb 0f cc 88 3b 43 37 3b 3d be bf 05 be
       -0.0077873413 0.0041747163 0.045707 -0.13061425
000010 c9 e8 bb bd e5 fb 27 be 23 3d 83 bd b4 fd fb bd
       -0.091752596 -0.16404684 -0.06408145 -0.123042494

decoder.4.weight f4 [16, 8]
000000 39 c9 df bb a5 e4 1e bc 36 12 75 bd 3e e6 be bd
       -0.0068294075 -0.009698068 -0.05983182 -0.09321259
000010 11 38 a4 bc f5 03 46 bd d1 05 40 bd 21 4f 0d bd
       -0.020046266 -0.048343617 -0.046880547 -0.03449929
000020 8d 78 b8 3b 28 7c 34 3e 41 97 d1 3e cf 45 8c 3e
       0.005629605 0.17625487 0.4093571 0.2739701
000030 6d 1e 08 3f fe 8f 63 3e 52 0b 3e 3f ff 6f 7c 3c
       0.53171426 0.22222897 0.74236023 0.015407561
000040 16 a8 55 bb b2 6c 87 bd 9f 5d 8d be 08 23 33 bc
       -0.0032601408 -0.06612529 -0.2761049 -0.010933645
000050 56 16 5b bd f6 0f 8f 3d 9d 70 31 bd 6c c1 69 3d
       -0.053488098 0.06985466 -0.043320287 0.057069227
000060 94 84 98 ba 34 ec 04 bd 8b 89 0d be 63 0a 66 3c
       -0.0011636191 -0.032451823 -0.13822 0.014040562
000070 8c 5a 9c bc 5e 65 03 3d 33 f6 26 bd a0 12 fc 3c
       -0.019086145 0.032079093 -0.040762138 0.0307706
000080 2f ac 9e bb 8f b6 89 bd 5b c5 1c be ff 83 4a bd
       -0.004842303 -0.067242734 -0.1530966 -0.049442288
000090 64 f6 32 bd 87 76 1c bc 4c d6 88 3c ce 8c b9 bc
       -0.043692008 -0.0095497435 0.016703747 -0.022650149
0000a0 7a ac 8b ba 08 dc 3e 3b 0d 4a 88 bd b3 ee ab bb
       -0.001065626 0.0029122848 -0.06654749 -0.005246961
0000b0 a8 3b 48 bc cc 2e 0f 3c 2d 65 8e bd 57 73 22 3c
       -0.012221254 0.008739185 -0.069528915 0.0099151945
0000c0 6e ef 53 bb 86 c6 a6 bd ce 38 00 be e4 21 ef bc
       -0.0032338756 -0.08143334 -0.1252167 -0.029190965
0000d0 7a 87 ad bc dd b0 1d 3b b9 4f 85 3c 5d 15 05 3b
       -0.021182764 0.0024061718 0.016273366 0.0020306923
0000e0 55 fb 2d 3b 3e cc 0a 3e 17 80 39 3f b4 4f e7 be
       0.002654751 0.13554475 0.72461075 -0.45177996
0000f0 d5 a2 18 3f 0b f9 c0 be f1 8f 1a 3e ae 29 62 3d
       0.5962346 -0.37690005 0.15093972 0.05521553
000100 d3 7c 5a bc 4d 68 53 be e8 d3 33 be 25 58 e7 bd
       -0.0133354245 -0.20645256 -0.17561305 -0.11296109
000110 4f 19 77 bd e6 7a 1b 3d 11 f8 2c be 3f 23 48 3d
       -0.06032687 0.037959002 -0.16891505 0.04886174
000120 5c 00 b2 3a b1 5e 9b 3e 87 52 87 3d 11 8c 21 3e
       0.0013580429 0.3034568 0.06607538 0.15776087
000130 1e 43 aa 3d ed 59 54 3b 9f 2c 27 be d7 19 ff bd
       0.08313583 0.0032402233 -0.16325615 -0.124561004
000140 d8 b9 c2 bb 14 ff 4a bd e6 d6 47 3f f6 1d a0 bd
       -0.0059425645 -0.049559668 0.78062284 -0.078182146
000150 01 4c d2 3c f0 c9 34 bf eb 04 aa 3d 30 92 91 be
       0.025671007 -0.7062063 0.08301719 -0.28431845
000160 d9 69 7f bb 55 cf b9 bc 07 46 0f be 9f bf 5a bc
       -0.0038973002 -0.022681871 -0.13991557 -0.01335135
000170 7c 87 e0 bc 25 84 80 3c 91 c4 86 bd f4 76 56 3c
       -0.027408354 0.015688011 -0.06580461 0.013089884
000180 48 c2 0b 3a 9f 5d 41 3f 38 17 f3 3e 5c 35 0d 3f
       0.00053313794 0.7553348 0.47478652 0.55159545
000190 4d ca 62 be 4c 8b 12 3e 26 d6 c8 bd c4 5c 38 be
       -0.22147484 0.1431095 -0.098064706 -0.18004137
0001a0 e9 27 fc ba de 69 8d bd 7e ae 35 bd a4 59 88 39
       -0.0019237968 -0.06904958 -0.04435586 0.0002600673
0001b0 c1 39 fa bc 74 62 86 3c 28 a8 de bd 50 23 c6 3c
       -0.030545117 0.016404368 -0.10871917 0.02418676
0001c0 39 3a 98 bb 2b dd 9a bd 0d 07 f8 bd 82 9b 94 bd
       -0.0046456126 -0.07561716 -0.1211072 -0.07256223
0001d0 d4 a5 2c bd 51 29 ea bc 44 bd 2c bd e6 b8 6b bc
       -0.042150334 -0.028584154 -0.042172685 -0.014387345
0001e0 e0 0b a3 3b d6 15 e3 bd cf 51 8e 3d 8e 5a 91 3d
       0.004975781 -0.11088149 0.069491975 0.0709735
0001f0 8d b6 e0 3d a3 36 63 3d f5 aa 78 bd ae 27 91 3e
       0.10972319 0.055472028 -0.060709912 0.28350586

decoder.4.bias f4 [16]
000000 94 01 21 3e 66 af 35 bd 8d 7b 1c 3c c2 68 46 bd
       0.15723258 -0.044356726 0.009550941 -0.04843975
000010 15 b6 75 3d 94 d6 a5 3c 7b b4 6a 3d 95 fa 88 3d
       0.0599881 0.02024392 0.057301026 0.0668842
000020 fe 0a 1d 3e bd 79 3f 3c 33 ba f2 3d 69 35 e6 bc
       0.15336224 0.0116867395 0.11851921 -0.02810164
000030 e1 b6 42 3d 5e 5a 2e bd c8 11 14 3e 1d d3 16 be
       0.04753769 -0.04256665 0.14459908 -0.14728971

decoder.6.weight f4 [3, 16]
000000 1e a8 6b be 23 50 4d 3d ab fd 64 3d 8b 37 76 3e
       -0.2301335 0.050125252 0.05590598 0.24044625
000010 a6 65 15 bd 2a c8 44 bd 51 80 c8 bd ac bb 4e be
       -0.036473893 -0.048042454 -0.097900994 -0.20188779
000020 3f 3d 95 be 77 df 1e be 4f 93 51 be 3b b3 95 3e
       -0.2914829 -0.15514933 -0.2046635 0.29238304
000030 00 17 b7 3e 6d c5 6e 3e 10 f1 e9 be 12 a5 cf 3e
       0.35759735 0.233175 -0.4569173 0.40555626
000040 2e 78 31 3e 25 94 11 be 60 50 14 be db 1c 43 bc
       0.17331001 -0.14216669 -0.14483786 -0.011908735
000050 27 b9 df 3d 72 b5 0a be 00 76 14 bd 79 fe 08 be
       0.10923987 -0.13545778 -0.036245346 -0.13378324
000060 a5 5b 36 3e a4 e3 3e bd 51 44 45 3e 77 c4 b8 3d
       0.17808397 -0.046603814 0.19264342 0.09021848
000070 78 3c 4e 3e 06 d0 92 3c be 68 2c bd 2a de 20 bd
       0.20140254 0.017921459 -0.042092077 -0.039274372
000080 b6 70 82 bd 5d 6f 43 be e4 4e c0 3e 80 58 33 3e
       -0.06369154 -0.1908545 0.3756019 0.17514229
000090 82 b9 68 3e 85 3f 08 3e fd 2e 54 3e 89 18 ae be
       0.22727016 0.13305481 0.2072105 -0.34003094
0000a0 47 3b 22 3f ca cd b2 3c 01 86 89 be 63 ca 4f 3e
       0.633717 0.021826643 -0.2686005 0.20292048
0000b0 33 da a8 be d5 7e 16 3e 1c c0 53 3c 2c c2 5b 3e
       -0.32978973 0.1469682 0.01292422 0.2146079

decoder.6.bias f4 [3]
000000 52 19 b6 be fc 02 a1 3e bc 06 6a bd
       -0.35566193 0.3144759 -0.05713533
