autoencoders/best_models_cuda/best_model_bone0.pth (torch, 8121 bytes, 15 tensors)

encoder.0.weight f4 [16, 3]
0	0x3fbbaea7	1.4662675
1	0x3ee7a983	0.45246515
2	0x3e99a9b0	0.30012274
3	0x3eeab332	0.4583984
4	0xbeb97864	-0.36224663
5	0x3f0b8d9c	0.54512954
6	0xbd7e098d	-0.062020827
7	0x3deb91a8	0.11502391
8	0x3c8cdf36	0.017196279
9	0x3bf6a254	0.0075266752
10	0xbd86a62f	-0.06574666
11	0x3ebd1047	0.3692648
12	0x3e0c2e25	0.13689478
13	0xbf97d669	-1.1862308
14	0xbd9a547f	-0.075356476
15	0xbe5478f7	-0.2074927
16	0xbd2cc299	-0.04217777
17	0x3ea6046b	0.32425246
18	0xbe10fec3	-0.14159684
19	0xbd9cecca	-0.076623514
20	0x3d6310f3	0.055436086
21	0x3ec64d16	0.38730687
22	0xbe3f1301	-0.18659593
23	0xbf11f10b	-0.5700843
24	0xbea63cd8	-0.32468295
25	0x3d3d5dcd	0.046232034
26	0xbe9aab7f	-0.30208966
27	0xbd6e61fd	-0.058198918
28	0x3ddb680c	0.10713205
29	0x3c89aeb9	0.016806947
30	0xbb1242ee	-0.0022317725
31	0xbe64eda1	-0.22356273
32	0x3ec7af9b	0.39001164
33	0x3cb14a8f	0.021641998
34	0x3cd71a4b	0.026257655
35	0xbd4acc5e	-0.049511306
36	0x3c640010	0.0139160305
37	0xbf25fcda	-0.64838946
38	0xbf09b834	-0.53796697
39	0xbd7b2467	-0.061314013
40	0x3de88ceb	0.11355003
41	0x3c8bc8de	0.017063554
42	0xbd801f36	-0.06255953
43	0x3dee7669	0.11643679
44	0x3c8b6545	0.017016063
45	0x3e25b641	0.16182806
46	0xbd596863	-0.053078067
47	0x3ee6204d	0.4494652

encoder.0.bias f4 [16]
0	0x3e31afae	0.17352173
1	0xbdf2fe48	-0.118649065
2	0xba2c5e46	-0.0006575327
3	0xbd6e295d	-0.058144916
4	0x3e0491e1	0.12946273
5	0xbd1b7b21	-0.03795922
6	0xbe89034a	-0.26760322
7	0x3e617822	0.22018483
8	0x3ada8352	0.0016671217
9	0xba305be2	-0.0006727559
10	0xbca71810	-0.020397216
11	0xbb099864	-0.0020995373
12	0x3e636564	0.22206646
13	0xba2d11fd	-0.0006602107
14	0xba2b91af	-0.0006544841
15	0xbd2f6463	-0.042820346

encoder.2.weight f4 [8, 16]
0	0x3e24935e	0.16071841
1	0xbe379daf	-0.17931245
2	0xbef6fc02	-0.48239142
3	0x3df59976	0.11992161
4	0xbd850479	-0.06494994
5	0xbeafb44d	-0.34317246
6	0xbe427aa9	-0.18992104
7	0x3e9ba086	0.30395907
8	0xbe53134f	-0.20612834
9	0xbd0fef81	-0.035140518
10	0x3ddbf8ba	0.107408
11	0xbd2e4053	-0.042541813
12	0x3e47ebba	0.19523516
13	0xbe1de489	-0.1541921
14	0xbe793890	-0.24337983
15	0x3e709cee	0.23497364
16	0x3e53a649	0.20668902
17	0x3e2d11c0	0.16901302
18	0xbeb880e4	-0.36035836
19	0xbe232ccc	-0.15935057
20	0xbe5f2f5d	-0.21795411
21	0xbd82f5f8	-0.06394571
22	0xbeae71d7	-0.34071228
23	0x3f1c41b9	0.61037785
24	0x3e6c3aea	0.23069349
25	0xbea45d66	-0.32102507
26	0xbeb01a7c	-0.34395206
27	0x3dc1a794	0.09455791
28	0x3e82da2a	0.2555707
29	0xbef843c9	-0.48489216
30	0xbe9ab26a	-0.30214244
31	0xbe067bc2	-0.13133147
32	0x3c818134	0.01580868
33	0xbdb17640	-0.086651325
34	0xbecd3520	-0.40079594
35	0xbc3babce	-0.011454536
36	0x3eb676a7	0.356374
37	0x3ea2377b	0.31682953
38	0xbe83b69a	-0.2572525
39	0x3ebc86a2	0.36821467
40	0x3eac3e71	0.3364139
41	0xbd21584f	-0.03939086
42	0x3d20af6b	0.03922979
43	0x3d5db783	0.05413009
44	0x3ec63ac0	0.38716698
45	0xbef0bb85	-0.47018066
46	0xbf0e65e4	-0.5562422
47	0x3e60bffd	0.21948238
48	0x3e9faea0	0.31187916
49	0xbe6a7155	-0.22894795
50	0x3dbaa963	0.09114339
51	0xbe1edf9d	-0.15514989
52	0x3ec8ddc1	0.39231685
53	0x3c00b750	0.007856205
54	0x3cfa75e5	0.030573795
55	0x3dde2173	0.10846224
56	0xbdcce98f	-0.10005485
57	0x3d9129e7	0.0708807
58	0x3d3465fb	0.04404257
59	0xbc0e2568	-0.0086759105
60	0x3ec38067	0.381839
61	0xbe51ea31	-0.20499493
62	0xbef0d77c	-0.47039402
63	0xbe068b8c	-0.1313917
64	0x3e445d11	0.19176127
65	0xbe7271e3	-0.23676257
66	0x3e071572	0.13191774
67	0xbc292cbd	-0.010325608
68	0x3ea3006c	0.3183626
69	0x3cc4bd67	0.024016095
70	0xbe71b588	-0.23604405
71	0xbe571bd2	-0.21006706
72	0x3c8344cc	0.016024016
73	0x3dc0edd3	0.09420361
74	0xbc78f1d6	-0.015194377
75	0x3c545691	0.012960092
76	0x3e737f94	0.23779136
77	0xbe1a5d85	-0.15074737
78	0xbe356a1f	-0.17716263
79	0xbc152064	-0.009101961
80	0x3dd5316f	0.10409819
81	0x3dcbcae0	0.09950805
82	0xbdc047cf	-0.093886964
83	0xbdfb02a4	-0.12256363
84	0xbd80eccb	-0.06295165
85	0xbe3b7eea	-0.18310133
86	0xbdedc232	-0.116093054
87	0xbdf3b4ed	-0.11899743
88	0xbc20f0ff	-0.009823083
89	0xbe5e2da7	-0.21697102
90	0xbea63c75	-0.32468
91	0x3c592282	0.013252856
92	0x3ea277ea	0.31732112
93	0xbd0814ea	-0.03322307
94	0xbd4cbed9	-0.049986694
95	0xbe226657	-0.15859352
96	0x3d7fce2f	0.06245249
97	0xbe011c0a	-0.12608352
98	0x3dd91ef3	0.10601606
99	0xbdb6913e	-0.089144215
100	0x3d89aa35	0.067219175
101	0x3da4da2c	0.080494255
102	0x3e6e7ce6	0.23289832
103	0x3d4635a6	0.048391007
104	0xbaf4c5ae	-0.0018674636
105	0x3ea7b708	0.3275683
106	0x3edc5154	0.43030798
107	0x3e0aeba2	0.1356645
108	0xbdabb64f	-0.08384382
109	0xbd5c86c9	-0.05383948
110	0x3e1a1f1b	0.15050928
111	0x3e616b25	0.22013529
112	0x3dafc4e5	0.085824765
113	0xbe94e8f8	-0.2908399
114	0xbeb0c6e4	-0.34526742
115	0x3cba72d0	0.022759825
116	0xbd48f66b	-0.049063127
117	0xbe8b1ff4	-0.27172816
118	0x3e8164e6	0.25272292
119	0x3c0e5aa1	0.0086886
120	0xbeaaba7d	-0.33345404
121	0xbe2ab7cd	-0.16671677
122	0x3e82ed3c	0.2557162
123	0xbcbe10a0	-0.023201287
124	0x3e83cbba	0.2574137
125	0xbd7c46c2	-0.061590917
126	0xbd9096ed	-0.07060037
127	0xbd6ac289	-0.05731443

encoder.2.bias f4 [8]
0	0x3e543b6a	0.2072579
1	0x3e5c32d4	0.21503764
2	0x3e5fe307	0.21863948
3	0x3e310127	0.17285596
4	0x3deec00e	0.11657725
5	0x3db6ba68	0.08922273
6	0xbdd72be1	-0.10506416
7	0x3e29ad73	0.16570072

encoder.4.weight f4 [4, 8]
0	0xbc528143	-0.012848201
1	0xbd29ddcd	-0.04147129
2	0xbcc68996	-0.024235528
3	0x3ce191db	0.02753537
4	0x3dfed1d8	0.12442368
5	0x3d4d99e6	0.050195597
6	0xbe6a3852	-0.22873047
7	0xbe2f0827	-0.17092954
8	0x3e659659	0.22420634
9	0x3ee1c7ad	0.44097653
10	0xbd1d59cd	-0.03841572
11	0x3da0e50f	0.078561895
12	0x3e1f11c0	0.15534115
13	0xbd39b730	-0.045340717
14	0x3dc04d08	0.093896925
15	0x3ec2719b	0.379773
16	0x3ef884d5	0.48538843
17	0x3f3df1d7	0.74197143
18	0x3f42c99d	0.7608889
19	0x3ea0fe2e	0.31443924
20	0x3e2ac07b	0.16674988
21	0x3e25f574	0.16206914
22	0xbf4c561d	-0.798189
23	0x3e3cf95e	0.18454501
24	0xbc5696ca	-0.013097474
25	0xbc8a2db8	-0.016867504
26	0xbd9a6153	-0.07538094
27	0xbd7c1457	-0.061542835
28	0xbcf68136	-0.03009091
29	0xbb9b1b62	-0.004733489
30	0xbba6a455	-0.005085508
31	0xbb208a9e	-0.0024496685

encoder.4.bias f4 [4]
0	0xbda68313	-0.08130469
1	0x3ddaf705	0.106916465
2	0x3e65b6e8	0.22433054
3	0xbad1cad6	-0.0016005884

encoder.6.weight f4 [1, 4]
0	0xbe9cd502	-0.30631262
1	0x3dda5346	0.106604144
2	0x3f1a91c6	0.6037868
3	0xbf279780	-0.65465546

decoder.0.weight f4 [4, 1]
0	0xbe904d99	-0.28184202
1	0x3f5f2af7	0.87174934
2	0xbe982482	-0.29715353
3	0x3e5c13b9	0.21491899

decoder.0.bias f4 [4]
0	0xbc0a37d2	-0.00843616
1	0x3ebb99e5	0.3664085
2	0xbc15aae9	-0.009134986
3	0xbfee92c8	-1.8638544

decoder.2.weight f4 [8, 4]
0	0x3fbb15dc	1.4616046
1	0x3e1a2af0	0.15055442
2	0x4010f383	2.2648628
3	0x3f01e795	0.5074399
4	0x3e90d83e	0.2828998
5	0x3e003f9f	0.1252427
6	0x3e97bc6f	0.2963595
7	0xbcd17d2d	-0.025572384
8	0x3c635da4	0.013877306
9	0xbe832fac	-0.25622308
10	0x3c6360bc	0.013878044
11	0xbd2cae9c	-0.042158708
12	0xbf1bdbe3	-0.60882396
13	0x3f75161d	0.9573687
14	0xbf85f4c9	-1.0465328
15	0xbe3e42fd	-0.18580242
16	0xbe14bd84	-0.1452542
17	0x3d006c57	0.03135332
18	0x3eb28796	0.3486907
19	0x3e84bbaa	0.25924426
20	0xbe2e9e31	-0.17052533
21	0x3f100889	0.56263024
22	0x3e8add0f	0.2712178
23	0xbeeba7a2	-0.4602633
24	0x3ec7d97c	0.39033115
25	0x3ee95d7d	0.45579138
26	0xbf65f49a	-0.8982636
27	0xbd23550c	-0.03987603
28	0x3c635666	0.013875579
29	0xbe842ec9	-0.25816944
30	0x3c6359e7	0.013876415
31	0xbd2b9e17	-0.041898813

decoder.2.bias f4 [8]
0	0xbf9900d7	-1.1953381
1	0xbdc66fbe	-0.09689282
2	0xbc09915b	-0.008396472
3	0x3ecac947	0.39606687
4	0x3c5c8b6f	0.013460978
5	0xbd964ddf	-0.073390715
6	0x3f0bf29f	0.54667085
7	0xbc09383a	-0.008375222

decoder.4.weight f4 [16, 8]
0	0xbfc63623	-1.5485271
1	0xbf028afd	-0.5099333
2	0x3c945316	0.018106025
3	0x3ddff54f	0.10935461
4	0x3d7c6d21	0.06162751
5	0x3d4805c9	0.048833642
6	0x3ec1a7e0	0.3782339
7	0xbf1b3ee2	-0.60642827
8	0xbe509373	-0.20368747
9	0x3d820d6d	0.06350217
10	0xbe1efab6	-0.15525326
11	0x3f22934b	0.63506
12	0x3e31643a	0.1732339
13	0xbc13cd3d	-0.009021101
14	0x3e64ad7b	0.22331803
15	0x3e4b64a7	0.19862615
16	0xc015cb00	-2.3405151
17	0x3e37c15f	0.17944859
18	0xbf313574	-0.6922219
19	0x3f1e5920	0.61854744
20	0xbe15b0ce	-0.14618227
21	0x3efcb7aa	0.49358875
22	0x3d8e558a	0.06949909
23	0xbf6f359f	-0.93441194
24	0x3f8b2828	1.087163
25	0x3e9224bf	0.2854366
26	0x3f0ef12c	0.5583675
27	0x3e2ecfe5	0.17071493
28	0x3eab77ac	0.3348974
29	0x3dbf1bdd	0.093314864
30	0xbcaed3b1	-0.021341177
31	0x3e861757	0.26189682
32	0x3b2a089a	0.0025945068
33	0xbc51454a	-0.012772867
34	0x3c1063ae	0.008812828
35	0xbe211758	-0.15731561
36	0xbc2bdd3d	-0.010489759
37	0xbd8f382b	-0.06993135
38	0xbd9746fb	-0.07386585
39	0x3c106456	0.008812984
40	0xbe8827fc	-0.26593006
41	0x3d2ca03f	0.04214501
42	0xbe41241b	-0.1886143
43	0xbc8be966	-0.017079066
44	0x3c94b668	0.018153384
45	0x3c6f3e75	0.014602293
46	0x3d07cd53	0.033154797
47	0xbe40cdd4	-0.18828517
48	0x3dc8c468	0.098030865
49	0x3e8ef1dc	0.279189
50	0x3e128c5b	0.14311354
51	0x3e8dc132	0.2768646
52	0x3cce4fae	0.025184479
53	0x3e05ca61	0.13065483
54	0x3d0d753a	0.034535624
55	0xbeec1593	-0.4611021
56	0x3f75dbae	0.9603833
57	0x3f668f75	0.9006265
58	0xbf14fc15	-0.58197147
59	0x3e501d89	0.20323767
60	0x3e828ecb	0.25499567
61	0xbcf7860f	-0.030215291
62	0x3eb44a7a	0.3521307
63	0x3ec512d0	0.38490915
64	0x3b34ad56	0.0027569137
65	0xbc51e3af	-0.012810632
66	0x3c12015b	0.008911456
67	0xbe275c9e	-0.16343924
68	0xbc2d285c	-0.010568704
69	0xbd941263	-0.072300695
70	0xbd9c9b30	-0.07646787
71	0x3c120214	0.008911628
72	0x3a3134ff	0.0006759911
73	0xbc435762	-0.011922689
74	0x3c01dd01	0.007926227
75	0xbe170b47	-0.14750396
76	0xbc221fb4	-0.009895254
77	0xbd85f0c2	-0.065400615
78	0xbd8d84f9	-0.06910128
79	0x3c01dd9d	0.007926372
80	0xbd94bbf3	-0.07262411
81	0xbeefb595	-0.46818224
82	0x3e06f02c	0.13177556
83	0x3e532395	0.20619042
84	0xbe6d6e1e	-0.23186538
85	0x3e27ab6f	0.1637399
86	0x3d6801b7	0.05664226
87	0xbe7a59ab	-0.24448268
88	0xbfe5d926	-1.7956893
89	0x3e370cc7	0.17875968
90	0xbefba13a	-0.49146444
91	0x3e93847d	0.28812018
92	0x3e29706a	0.16546789
93	0xbe6e36e4	-0.23263127
94	0x3ef693d2	0.48159653
95	0xbedd8014	-0.43261778
96	0x3b27c1fc	0.0025597801
97	0xbc44a9b6	-0.012003353
98	0x3c099036	0.008396199
99	0xbe1de5a2	-0.15419629
100	0xbc2289d4	-0.009920556
101	0xbd8b6173	-0.06805696
102	0xbd938004	-0.072021514
103	0x3c0990ef	0.008396371
104	0x3a44adc5	0.00075027003
105	0xbc4ac5db	-0.012376274
106	0x3c05c6c3	0.008165064
107	0xbe16121f	-0.1465535
108	0xbc274aaa	-0.010210672
109	0xbd86006e	-0.06543051
110	0xbd8d5394	-0.06900707
111	0x3c05c749	0.008165189
112	0x3b015ccb	0.0019739147
113	0xbc49178c	-0.01227368
114	0x3c09a6af	0.008401557
115	0xbe1bc148	-0.1521045
116	0xbc260ce3	-0.010134908
117	0xbd8a269e	-0.06745647
118	0xbd91fecb	-0.07128676
119	0x3c09a753	0.00840171
120	0x3f804369	1.0020572
121	0x3e0b088b	0.13577478
122	0x3e815997	0.25263664
123	0x3dd95420	0.10611749
124	0x3f26af12	0.65110886
125	0x3e5bf25c	0.21479172
126	0x3ec5c45e	0.3862638
127	0x3f2e378f	0.68053526

decoder.4.bias f4 [16]
0	0x3ebf3ac6	0.37349528
1	0x3df3f397	0.119116955
2	0x3f9a206c	1.2041144
3	0xbece3efe	-0.40282434
4	0xbbb47a1d	-0.005507721
5	0x3e328c4a	0.17436329
6	0xbe24480a	-0.16043106
7	0x3d3f16ec	0.04665272
8	0xbbbbd0d3	-0.005731681
9	0xbbaa7e2b	-0.0052030287
10	0x3dd11bb0	0.10210359
11	0x3f519f9d	0.81884176
12	0xbbb2872e	-0.0054482436
13	0xbba94e6a	-0.0051668184
14	0xbbb077bd	-0.0053853677
15	0xbee3f9e6	-0.44526595

decoder.6.weight f4 [3, 16]
0	0xbf5b9fee	-0.8579091
1	0x3e479213	0.19489317
2	0x3e5c3338	0.21503913
3	0xbe977432	-0.29580837
4	0xbdf07d27	-0.11742621
5	0xbf982fe8	-1.188962
6	0x3ef2d92e	0.4743132
7	0xbdb78b89	-0.08962161
8	0xbecf2d6a	-0.40464336
9	0xbf15331c	-0.5828111
10	0xbb1a7b1b	-0.0023571912
11	0x3f509a74	0.81485677
12	0xbe8eb089	-0.2786906
13	0xbed67825	-0.41888538
14	0xbea6bcc1	-0.32565883
15	0x3d1b5f40	0.037932634
16	0xbf51ba4f	-0.8192491
17	0xbec2944b	-0.38003764
18	0xbf0618be	-0.52381504
19	0x3e25000b	0.16113298
20	0x3eb3e25c	0.35133636
21	0xc03cf3af	-2.9523733
22	0x3ebd7356	0.37002057
23	0xbedacb29	-0.42733124
24	0x3ee00c5e	0.43759435
25	0x3e1bec99	0.15226974
26	0xbed7cfa9	-0.4215062
27	0xbf155195	-0.5832761
28	0x3e5585ab	0.20851772
29	0x3e46b9f3	0.19406871
30	0x3e67dd90	0.22643113
31	0x3d9b219a	0.07574768
32	0xbf15264b	-0.58261555
33	0xbe4e6f3a	-0.20159617
34	0x3f33c3d3	0.7022068
35	0xbebcde96	-0.3688857
36	0xbf56b1ba	-0.8386494
37	0xbf48c674	-0.78427815
38	0xbe8158c2	-0.2526303
39	0xbed331e9	-0.41249016
40	0xbfb4e29f	-1.4131659
41	0xbf6462a4	-0.89213014
42	0x3d31e790	0.043433726
43	0x3f332101	0.69972235
44	0xbf881b2b	-1.0633291
45	0xbf21b006	-0.63159215
46	0xbf5d2359	-0.8638206
47	0xbf0231e1	-0.5085736

decoder.6.bias f4 [3]
0	0x3ecadee5	0.3962318
1	0xbe45634d	-0.19276161
2	0x3f56bfc4	0.8388636
