autoencoders/best_models_cuda/best_model_bone13.pth (torch, 8143 bytes, 15 tensors)

encoder.0.weight f4 [16, 3]
0	0xbb8cde3f	-0.0042989547
1	0x3b8c2b99	0.004277658
2	0xbb8698f7	-0.0041075903
3	0xbd5f4997	-0.05451354
4	0x3cc7b407	0.024377836
5	0xbb4add86	-0.0030954792
6	0xbe997969	-0.2997544
7	0x3f18f878	0.59754133
8	0xbed6f1ae	-0.41981262
9	0xbd33b015	-0.043869097
10	0x3db20e1a	0.08694096
11	0xbbe40e54	-0.006959716
12	0x3dea948e	0.11454116
13	0x3dae2380	0.08502865
14	0x3c037935	0.0080245035
15	0x3d8a2aed	0.06746469
16	0x3aceaa0f	0.0015767234
17	0xbcb0597e	-0.021527048
18	0x3c0c496c	0.008562427
19	0xbd937b9f	-0.07201313
20	0xbb0476b0	-0.0020212345
21	0xbe1b5ec0	-0.15172863
22	0x3e8a4bb5	0.27010885
23	0x3eca4bb8	0.39510894
24	0x3d88027e	0.066411
25	0x3c288052	0.0102845
26	0x3a82cb21	0.000997875
27	0x3df01015	0.117218174
28	0x3d8359ab	0.06413587
29	0xbc872064	-0.016494937
30	0xbc59dce1	-0.013297291
31	0xbd8a9fc3	-0.067687534
32	0x3ae9b240	0.0017829612
33	0x3e5dde69	0.21666874
34	0x3ec54ee6	0.38536757
35	0x3f0ac49c	0.5420625
36	0xbf01e4f8	-0.50740004
37	0x3ea0937e	0.31362528
38	0xbf53c795	-0.82726413
39	0xbd565889	-0.052330527
40	0xbdea5bc7	-0.114432864
41	0x3d039951	0.032128636
42	0x3d02e2c6	0.03195455
43	0xbd3e499f	-0.04645693
44	0xbcf8ea87	-0.030385269
45	0x3d42af41	0.047530416
46	0x3c269c05	0.010169034
47	0xb922d6cb	-0.0001552954

encoder.0.bias f4 [16]
0	0x3b38697a	0.002813904
1	0x3a01a688	0.00049457746
2	0x3cab4f01	0.020911695
3	0xbb24ec2b	-0.002516518
4	0x3bff6d3a	0.0077950032
5	0x3c262ff3	0.010143268
6	0x3d29fea6	0.041502617
7	0xbcd1e8c3	-0.025623685
8	0x3c9b0c8c	0.018926881
9	0x3d3f1448	0.0466502
10	0x3be66c28	0.007031936
11	0x3d10e9d2	0.03537924
12	0x3d433b60	0.047664046
13	0x3bf607de	0.007508262
14	0x3c8409ee	0.016118016
15	0x3bbc95e7	0.0057551744

encoder.2.weight f4 [8, 16]
0	0x37005872	7.649987e-06
1	0xb5ff72ba	-1.903237e-06
2	0x37aa6f70	2.0317471e-05
3	0xb79c00b2	-1.8596973e-05
4	0xb6dcc0f6	-6.5789745e-06
5	0xb6e47d3b	-6.8095082e-06
6	0xb6e076a3	-6.6895313e-06
7	0xb86a1045	-5.58051e-05
8	0xb6e17984	-6.719669e-06
9	0xb6e0fd7d	-6.70523e-06
10	0xb6c8d198	-5.9848644e-06
11	0xb6de5197	-6.625614e-06
12	0x37f9f888	2.9798844e-05
13	0xb6d00a46	-6.200079e-06
14	0xb6e2dc37	-6.7609612e-06
15	0xb6c9c48f	-6.0131492e-06
16	0x3909c74e	0.00013139585
17	0x393292fa	0.00017030156
18	0x3a377b64	0.00069992826
19	0x39d17594	0.0003995119
20	0xba12fdbd	-0.0005607268
21	0xba198e51	-0.00058576936
22	0xba19595b	-0.0005849802
23	0x39ecfdf7	0.00045202646
24	0xba17e754	-0.00057946634
25	0xba1a4c8e	-0.00058860413
26	0xba059168	-0.00050952146
27	0xba16c524	-0.0005751422
28	0x3a2f38ed	0.0006684203
29	0xba0a2458	-0.0005269698
30	0xba18af99	-0.0005824506
31	0xba06151a	-0.0005114839
32	0x3b91e9d7	0.0044529247
33	0x3d4d423c	0.050111994
34	0x3f01bf16	0.506822
35	0xbd42fda3	-0.047605168
36	0xbd9d8c49	-0.07692773
37	0xbded91f1	-0.11600102
38	0xbea4bb22	-0.3217402
39	0x3cf0f5d3	0.029414093
40	0xbd8245c0	-0.0636096
41	0xbeb5f8e7	-0.3554146
42	0x3d93e811	0.072219975
43	0xbf10406b	-0.56348294
44	0x3ef10989	0.47077587
45	0xbc96252e	-0.018328276
46	0xbe0defd4	-0.13861018
47	0x3dbdd9bd	0.09270046
48	0x3b8f1b56	0.0043672724
49	0x3debb903	0.115098976
50	0x3e0416ea	0.12899366
51	0xbe23bfc5	-0.15991123
52	0x3c4a83b3	0.012360501
53	0x3c7c4226	0.01539663
54	0xbdd9a6b4	-0.10627499
55	0x3e5ed299	0.21760024
56	0xbe5529fc	-0.20816797
57	0xbde684e7	-0.11255818
58	0xbe38efc0	-0.18060207
59	0xbe0c3bde	-0.13694713
60	0x3e97673a	0.29570943
61	0xbe1fc4aa	-0.15602365
62	0xbd9afc09	-0.07567603
63	0xbdf0614f	-0.1173731
64	0xbb27653d	-0.002554252
65	0xbb766ea5	-0.003760257
66	0xbd86db57	-0.065848045
67	0x39c80dc2	0.00038157223
68	0xbb6fe876	-0.0036607063
69	0xbb8dfa6f	-0.0043328325
70	0xbb79494f	-0.003803808
71	0x3aa5ef96	0.0012659903
72	0xbb7a9c18	-0.0038240012
73	0xbb7b1213	-0.0038310334
74	0xbb5b58fd	-0.003346979
75	0xbb83b101	-0.0040189032
76	0x3c56aa5b	0.013102139
77	0xbb634bf0	-0.0034682713
78	0xbb832c72	-0.004003101
79	0xbb5e0808	-0.0033879299
80	0xbb9c0fbf	-0.0047626193
81	0xbe443122	-0.19159368
82	0x3c6c1e9c	0.014411595
83	0xbe172518	-0.14760244
84	0x3c715b76	0.014731279
85	0x3cf712db	0.030160358
86	0x3cf1429f	0.029450713
87	0xbe6a1d20	-0.22862673
88	0x3d2b65ab	0.041845005
89	0x3c2fb336	0.01072388
90	0x3bf22a10	0.007390268
91	0x3d2df5d5	0.04247077
92	0x3d952141	0.07281733
93	0x3ca7248a	0.020403165
94	0x3c0aa565	0.008462285
95	0x3d0a0a8b	0.03370146
96	0xb9fe0291	-0.00048448567
97	0xbc00baaf	-0.007857009
98	0xbda3557e	-0.07975291
99	0xbc3fa91e	-0.0116980355
100	0x3bcfb542	0.0063387463
101	0x3be3eb7f	0.0069555636
102	0x3be1b3f4	0.006887907
103	0xbcc7baab	-0.024381002
104	0x3bdd4a7c	0.006753264
105	0x3be43d5f	0.006965324
106	0x3badda82	0.005305589
107	0x3bdd103e	0.006746321
108	0xbdb65ca7	-0.08904391
109	0x3bb8964a	0.00563315
110	0x3bdf9c4f	0.0068240534
111	0x3bb1ecb6	0.0054298295
112	0x3b8ff2c2	0.0043929527
113	0xbe9b85a2	-0.3037539
114	0x3e9000bd	0.28125563
115	0x3e834737	0.2564027
116	0xbd993289	-0.07480342
117	0xbda7afbf	-0.08187818
118	0xbdd21aca	-0.10259016
119	0x3eb3a2ac	0.35085046
120	0xbd9bb574	-0.07602969
121	0xbe02f55b	-0.12788908
122	0xbd9c8474	-0.07642451
123	0xbd420be3	-0.047374617
124	0x3ef534b0	0.4789176
125	0x3cfe8916	0.031071227
126	0xbd9873aa	-0.07443936
127	0xbe131b05	-0.14365776

encoder.2.bias f4 [8]
0	0x373b5da4	1.1167871e-05
1	0x3a413671	0.0007370478
2	0x3d94ed4c	0.07271823
3	0x3d602c1e	0.054729573
4	0x3ba41b1b	0.005008114
5	0xbb254b0f	-0.002522174
6	0xbbe31574	-0.0069300476
7	0x3cf1fbf7	0.029539092

encoder.4.weight f4 [4, 8]
0	0xb28ed9fa	-1.66301e-08
1	0xbb0aa2cd	-0.0021154166
2	0x3d8089cc	0.06276283
3	0x3d9f765b	0.077862464
4	0x391b8e22	0.000148349
5	0x392f3945	0.00016710635
6	0x38290fd4	4.030748e-05
7	0xbdf8385f	-0.12120127
8	0x3869dd0e	5.5757402e-05
9	0x3af53bba	0.0018709817
10	0x3f135e81	0.57566077
11	0x3e8dd7bf	0.27703664
12	0x3d00a2c4	0.031405225
13	0xbdb0fa1d	-0.08641455
14	0x3e5c5dd9	0.21520175
15	0x3e9a2552	0.30106598
16	0xb759e5c4	-1.2987704e-05
17	0x3ae0570f	0.0017115789
18	0x3e2d1878	0.16903865
19	0x3e287cf0	0.1645391
20	0xbe1a37e7	-0.15060388
21	0xbdb06cbe	-0.08614491
22	0xbde654d2	-0.11246647
23	0x3d19f12b	0.03758351
24	0x3922230e	0.00015462583
25	0x3bfe4ffd	0.007761
26	0xbcb14961	-0.021641435
27	0xbd5015d3	-0.050802063
28	0x3c30b7f7	0.010786048
29	0xbc9d398e	-0.019192483
30	0xbb97668f	-0.0046203802
31	0xbd36bc2a	-0.04461304

encoder.4.bias f4 [4]
0	0xb9a4c3c6	-0.0003142638
1	0x3dd7919c	0.1052582
2	0x3d131c16	0.035915457
3	0x3d6190bf	0.05506968

encoder.6.weight f4 [1, 4]
0	0xb9e8e6a8	-0.0004442234
1	0xbe9958f1	-0.2995067
2	0xbdfcc0ac	-0.12341437
3	0x3edbc5f2	0.42924458

decoder.0.weight f4 [4, 1]
0	0x3e942d59	0.28940848
1	0xbfc5b662	-1.5446284
2	0x367d9885	3.7788716e-06
3	0xbf9379f6	-1.1521595

decoder.0.bias f4 [4]
0	0x3d7b89c9	0.0614107
1	0x3d16e4b0	0.036839187
2	0x3750e6ca	1.2451501e-05
3	0x3d6845fd	0.05670737

decoder.2.weight f4 [8, 4]
0	0x3cb53fe5	0.022125194
1	0xbe51cdd7	-0.20488678
2	0xb70bb5e7	-8.327398e-06
3	0x3dbb4da6	0.0914567
4	0xbf91752c	-1.1363883
5	0x3f5175c3	0.81820315
6	0xb98fc640	-0.00027422793
7	0x3f187449	0.5955244
8	0x3d7bfb37	0.061518874
9	0xbe9a627f	-0.30153272
10	0xb7a36c94	-1.9481675e-05
11	0x3e584a94	0.211222
12	0x3eeb550c	0.45963323
13	0x3ee1278b	0.4397548
14	0x3a677e27	0.0008830749
15	0xba69b29a	-0.00089148583
16	0xbb498cbb	-0.0030754048
17	0x3db94754	0.09046808
18	0xb6ff45fe	-7.6077404e-06
19	0xbe876b30	-0.26448965
20	0x3ccb5eaa	0.024825413
21	0xbc0d2363	-0.008614394
22	0xb7d0e5aa	-2.4902478e-05
23	0xbe03f172	-0.12885073
24	0xbc7fc507	-0.01561094
25	0xbe10aa34	-0.14127427
26	0xb7bf9f46	-2.2843142e-05
27	0x3c1252c5	0.008930867
28	0xbce761be	-0.02824485
29	0xbe47d8b0	-0.19516253
30	0xb7a90727	-2.01497e-05
31	0x3cf74bbe	0.030187484

decoder.2.bias f4 [8]
0	0x3ca5571d	0.02018314
1	0x3de2f678	0.110821664
2	0x3c9f305e	0.019432243
3	0xbd3faa0c	-0.04679303
4	0x3b1a95f7	0.0023587921
5	0x3c0ccdde	0.008594004
6	0x3c6cd8a9	0.014455953
7	0x3c90a11e	0.017654952

decoder.4.weight f4 [16, 8]
0	0x3eb40d66	0.35166472
1	0x3f4618f2	0.77381814
2	0xbe5d1d45	-0.21593197
3	0x3ed88567	0.42289278
4	0xbcb86e19	-0.022513436
5	0x3e6017c2	0.21884063
6	0xbead5312	-0.3385244
7	0x3d481afc	0.04885386
8	0xbbd70435	-0.006561781
9	0xbde24d08	-0.11049849
10	0xbc0a2fe5	-0.0084342705
11	0xba1d4344	-0.0005999098
12	0xbbd9b5c3	-0.006643982
13	0xbbd665ce	-0.006542898
14	0xbbc6e4dc	-0.0060697626
15	0xbc1c9ec3	-0.009559336
16	0xbbb16cfe	-0.005414604
17	0xbdce37e9	-0.10069258
18	0x3a4106cb	0.0007363378
19	0x3d40cf90	0.047072947
20	0x3c0464e3	0.008080694
21	0x3b2dcf5e	0.0026521306
22	0x3af32775	0.0018551188
23	0xb98b9c38	-0.00026628538
24	0xbe45116e	-0.1924493
25	0x3ea43e5d	0.3207883
26	0x3ea76139	0.32691363
27	0xbdec0545	-0.115244426
28	0xbe3f3f80	-0.18676567
29	0xbe7cc850	-0.24685788
30	0x3e9b4c6c	0.30331743
31	0x3d681c9f	0.05666792
32	0xbee7d95e	-0.45283026
33	0x3f0d7550	0.5525713
34	0xbf2675b4	-0.6502335
35	0xbe0b4670	-0.13601089
36	0xbe835188	-0.2564814
37	0xbc71a640	-0.01474911
38	0xbea25ac6	-0.3170988
39	0xbea12165	-0.3147079
40	0xbe8491ef	-0.25892588
41	0x3ed940a2	0.42432123
42	0xbeb875e1	-0.36027434
43	0x3dee1e7c	0.11626908
44	0x3e8846aa	0.26616412
45	0xbead18da	-0.33808023
46	0xbe99c866	-0.30035704
47	0xbdcfd6ab	-0.101483665
48	0x3eadc76b	0.33941206
49	0xbd5e5449	-0.0542796
50	0x3ea8fd66	0.33005828
51	0x3ed86b22	0.42269236
52	0x3e829e51	0.2551141
53	0x3e0154db	0.12630026
54	0x3bb5045f	0.0055242027
55	0x3ebc8e0f	0.36827132
56	0x3c252bd5	0.010081251
57	0xbe139a44	-0.14414316
58	0x3c2d7177	0.010586134
59	0xbcb897b8	-0.022533283
60	0x3c123e9b	0.008926059
61	0x3c1149a5	0.008867656
62	0x3c20f691	0.009824411
63	0x3c364747	0.011125392
64	0x3a2237bd	0.0006188115
65	0x3ba6dce5	0.0050922506
66	0x3a236455	0.0006232907
67	0xbc8a3d73	-0.016875004
68	0x3a0ed5b0	0.0005448712
69	0x3a0807e8	0.00051891664
70	0x3a1d672d	0.0006004449
71	0x3a19586c	0.00058496627
72	0xbc356d7f	-0.011073469
73	0xbdce0e76	-0.10061352
74	0xbc4f840b	-0.012665759
75	0x3bae8311	0.005325683
76	0xbc229c22	-0.00992492
77	0xbc1c9740	-0.009557545
78	0xbc30a1ea	-0.010780791
79	0xbc68ba7c	-0.014204618
80	0xbaa18c56	-0.0012325149
81	0xbdbf5f04	-0.09344295
82	0xba193a44	-0.0005845169
83	0xbcd0c041	-0.025482299
84	0xba970510	-0.0011521894
85	0xba754503	-0.0009356292
86	0xbb419049	-0.0029535464
87	0xbae2f217	-0.001731458
88	0xbe38baf6	-0.1804007
89	0x3eec04a6	0.46097296
90	0xbd5f10ab	-0.054459255
91	0x3f3c5bab	0.73577374
92	0xbd9b3c6a	-0.075798824
93	0x3d44fe5b	0.048094135
94	0x3dd7827e	0.10522936
95	0xbf0829b8	-0.5318866
96	0xbc0ed510	-0.00871779
97	0xbde3eb45	-0.111288585
98	0xbc1b6d7c	-0.009486552
99	0x3b94b309	0.004537944
100	0xbbf512ef	-0.0074790637
101	0xbbed5cbd	-0.0072437213
102	0xbc09e4e7	-0.008416391
103	0xbc2e993c	-0.010656651
104	0xbc6f848a	-0.014619002
105	0xbdf25612	-0.11832823
106	0xbc8c4131	-0.01712093
107	0x3c2d7a46	0.010588234
108	0xbc614429	-0.013749161
109	0xbc59f300	-0.013302565
110	0xbc6d716a	-0.014492372
111	0xbc991984	-0.018688925
112	0xbbbc9f67	-0.005756307
113	0xbde27f1a	-0.11059399
114	0xbc096940	-0.00838691
115	0xbb01d7bc	-0.0019812426
116	0xbbe13759	-0.006873053
117	0xbbc9457a	-0.0061423155
118	0xbbd30b48	-0.006440554
119	0xbc2846d9	-0.010270798
120	0x3db00d30	0.08596265
121	0xbd814c79	-0.06313414
122	0xbd88448f	-0.066537015
123	0xbd92cc13	-0.0716783
124	0xbb6f533c	-0.0036518117
125	0x3c93e4a4	0.01805336
126	0xbb34f94c	-0.0027614413
127	0x3d060818	0.032722563

decoder.4.bias f4 [16]
0	0xbaf3cd4c	-0.0018600612
1	0x3c0580c6	0.008148378
2	0x3b63a89c	0.003473795
3	0x3d6f7690	0.05846268
4	0x3dab1e33	0.083553694
5	0x3d922b82	0.07137205
6	0xbd90d308	-0.07071501
7	0xbc09bfe5	-0.008407568
8	0xb9d2c69e	-0.00040202303
9	0x3c3e4588	0.011613257
10	0x3b2fa552	0.002680142
11	0x3d8eef2b	0.069792114
12	0x3c13aa57	0.00901278
13	0x3c788219	0.015167736
14	0x3c0d2a1c	0.008615997
15	0x3c27a5cb	0.010232399

decoder.6.weight f4 [3, 16]
0	0xbdd52f16	-0.104093716
1	0x3e5d89f3	0.21634655
2	0x3c941bff	0.018079756
3	0xbe8ef64d	-0.27922288
4	0xbed8b50e	-0.42325634
5	0xbf347b68	-0.70500803
6	0x3dec3deb	0.115352474
7	0xbe219dcd	-0.15782852
8	0xbc028f02	-0.007968666
9	0x3e87b09d	0.26501933
10	0xbd809030	-0.062775016
11	0xbdb4a57e	-0.08820628
12	0x3e38c0b1	0.18042256
13	0x3ed9e073	0.42554054
14	0x3de8db87	0.113699965
15	0x3eed8623	0.463914
16	0x3e64feb1	0.22362782
17	0xbc90ca7e	-0.01767468
18	0xbe9afbaa	-0.3027013
19	0x3eada7b1	0.33917
20	0x3dfb3eb0	0.12267816
21	0xbe175220	-0.14777422
22	0xbea2c6a7	-0.31792185
23	0x3e422668	0.18959963
24	0xbc94f3e5	-0.018182704
25	0xbe1ca9cb	-0.15299146
26	0xbe9c8b58	-0.3057506
27	0x3f01ae79	0.5065685
28	0xbe3f8ce2	-0.18706086
29	0xbcd790b1	-0.026314111
30	0xbe947253	-0.28993472
31	0xbdd52858	-0.104080856
32	0xbe71895e	-0.23587558
33	0x3ea8bb05	0.32955185
34	0xbde12fbd	-0.109954335
35	0x3ed2d28e	0.41176265
36	0x3d25ca0d	0.040475894
37	0xbef2b23b	-0.47401604
38	0xbd123b1b	-0.0357009
39	0x3c67190f	0.0141050955
40	0xbc9be0e2	-0.01902813
41	0xbe8c7a9e	-0.274373
42	0x3ddeb80a	0.108749464
43	0x3de73458	0.11289281
44	0xbbcd7a0c	-0.0062706526
45	0x3cf82962	0.03029317
46	0x3db4d60c	0.08829889
47	0xbcdcdf49	-0.02696194

decoder.6.bias f4 [3]
0	0xbdb8bbf4	-0.09020224
1	0x3dd506f8	0.1040172
2	0xbcd238b3	-0.025661802
