autoencoders/best_models_cuda/best_model_bone2.pth (torch, 8121 bytes, 15 tensors)

encoder.0.weight f4 [16, 3]
00000000: 02b2 bcbd 1c94 3c3e edaa ec3e 854f 4cbf
00000010: 6b2a 2cbf 6ea8 cfbe 1561 1ebf 3f24 b1be
00000020: 175e b93b 48fa 3bbf d910 a23d 6ff9 a4bc
00000030: 9bc4 ce3e 2d69 3dbe 5b78 0bbf fa61 103e
00000040: c50d 973e 59d2 bdb9 d102 4fbd 0978 403e
00000050: a6a0 7c3e 74d0 c2be f200 ca3e 0fb1 36bf
00000060: 3986 383d 112f 983e 09eb 2f3e 65b6 89be
00000070: c402 cb3e 5da6 1dbe fb67 40be 0ccd 1f3e
00000080: 1d1e 8cbe f760 40b6 f6e5 fd36 9c84 82b6
00000090: 924b 87be 2e7d e23d 1efc d8bd efc0 94be
000000a0: a5f4 253e 62f5 913a 215d 18be 047b b83d
000000b0: 5bca 0a3f 08d1 473e f7c0 4cbe 3b0c 93bd
-0.0921364 0.18415874 0.46224156 -0.7980884 -0.67252225 -0.4055819 -0.61866885 -0.34597966
0.0056569683 -0.73428774 0.0791337 -0.02013847 0.40384373 -0.18497153 -0.5448052 0.14099875
0.29502693 -0.0003620561 -0.050539795 0.1879579 0.24670658 -0.38049662 0.39453846 -0.7136392
0.04504988 0.2972341 0.17179503 -0.26896968 0.39650548 -0.15395494 -0.18789665 0.15605563
-0.27366725 -2.866667e-06 7.5667585e-06 -3.8897397e-06 -0.26424843 0.110590324 -0.105949625 -0.29053447
0.16206606 0.0011135752 -0.14879276 0.09007838 0.5421502 0.19513333 -0.19995485 -0.07180067

encoder.0.bias f4 [16]
00000000: 8217 0a38 24ea 4d3d 8e98 c73b dd87 4f3c
00000010: 0035 2e3e d93c 8f3b c85b 1b3d 28cb 093d
00000020: c172 df3c efe3 a23c cb98 dc3b b422 65b8
00000030: c61d 9c3d a441 0fbb 07ae 183c 94d0 8a3b
3.2923657e-05 0.050272122 0.006091184 0.01266667 0.17012405 0.0043712673 0.037929326 0.03364101
0.027276399 0.019884078 0.0067320815 -5.4630174e-05 0.07622866 -0.0021859193 0.009318835 0.00423629

encoder.2.weight f4 [8, 16]
00000000: bed4 35be e72b e93e 940a 573e 90c2 6b3d
00000010: 07eb c33e 04e3 2a3e 95fb 983e fe90 143f
00000020: f47d cc3d 4a87 523e 2c34 913d ef6e 49b7
00000030: 240d 8c3e 5377 ca3d 51d6 dcbe 9bf2 1abb
00000040: 0520 45be 8694 ce3e a77a 91be 7de8 293e
00000050: 51dd ab3e 066c 82be 143b 4c3e 36c7 f2bd
00000060: 0f66 a4bd d382 413e e952 bebc 8428 7738
00000070: 0e48 abbd 9d44 11be 79ce a43e 41a1 7a3e
00000080: 1677 72be 4971 f63d aa31 1bbe 4bde 9ebd
00000090: 92b9 a3bd 9a01 023c 3952 23be 921d ccbd
000000a0: 2839 48be 9b56 2f3e d2d7 c0b9 47e8 97b8
000000b0: 416c 883c fe8d 193e 5014 94be 4016 2cbe
000000c0: 1ded 07be 4733 003e 8d59 f03d 325c a43c
000000d0: 9b1b 8dbd 1e6c df3d 7e3d 61bd 2415 a8bd
000000e0: 5310 dabd 53be d4bd 4a76 4c3e d0ba 77b8
000000f0: 5068 ad3d 3a3b bfbc b2e8 7dbe e2b8 9ebd
00000100: 87a0 a1bc 5267 8cbd ee87 26bd 1351 cdbd
00000110: abf2 f1bb 2cea 84bc 25d1 9abc 9892 54bd
00000120: 0185 43bc 8539 dcbd 7c89 aabd c787 66b5
00000130: d718 60bd c6a3 6bbd 91bc aabc 369c c63c
00000140: de3b 7abc 42ef 97bd d4e6 42bd 12b9 00be
00000150: 5d30 40bc 4fa8 9abc 95aa 89bc cce0 56bd
00000160: 5706 72bc 6032 e9bd 4046 f8bd 2d45 09b6
00000170: 5ba2 81bd ffa8 8fbd c439 89bc 5d50 e73c
00000180: 3884 d9bd b0d1 0f3f 1a51 43bd f3ea 96bc
00000190: 6d96 3bbe 1ba2 21bc 4e5d dcbd 5653 8abe
000001a0: 0621 e63d 458c 71bc ba0d 933e 7721 0039
000001b0: 5dbb 45be 9d04 af3e 9fc0 993e f1b2 bdbd
000001c0: 3744 493b ff63 1a3e a642 9c3b 067e 03be
000001d0: 52bf b03e 75c9 2b3c 7528 fb3d 04bb 17bd
000001e0: 8407 c93d 3621 653c cb4b 223e e018 fbb7
000001f0: 0888 7abd 2be6 273d 3e96 223a e8ee 273c
-0.17756936 0.45541307 0.21000129 0.057558596 0.3826525 0.16688162 0.29879442 0.5803374
0.09984961 0.20559421 0.07090029 -1.2006362e-05 0.27353776 0.098860405 -0.4313226 -0.002364314
-0.19250496 0.4034769 -0.2841389 0.16592593 0.3356729 -0.2547304 0.19944412 -0.11854403
-0.08027279 0.18897562 -0.023232894 5.8927122e-05 -0.08363353 -0.1418633 0.32188776 0.24475576
-0.2367824 0.12033326 -0.15155664 -0.07757243 -0.07994379 0.007934952 -0.15949334 -0.099665776
-0.19553053 0.17122881 -0.00036781892 -7.243506e-05 0.016653182 0.14995572 -0.28921747 -0.16805363
-0.13274045 0.12519561 0.117358305 0.020063493 -0.06890031 0.109092936 -0.054990284 -0.08207157
-0.10647645 -0.10387864 0.19966999 -5.906337e-05 0.08467162 -0.023343671 -0.24795797 -0.07750107
-0.019729866 -0.06855644 -0.040656976 -0.10025229 -0.0073836646 -0.016224943 -0.018898556 -0.051897615
-0.011933566 -0.107531585 -0.08327004 -8.587926e-07 -0.05471119 -0.057529233 -0.020841869 0.024244409
-0.0152730625 -0.07418682 -0.047583416 -0.12570599 -0.011730281 -0.018879084 -0.016804973 -0.052460477
-0.014772019 -0.113865614 -0.12122774 -2.0454856e-06 -0.06329795 -0.07014655 -0.016751178 0.028236562
-0.10620922 0.5617933 -0.047684766 -0.01842258 -0.18319102 -0.009865309 -0.10759984 -0.27016705
0.112367675 -0.0147429155 0.2872141 0.00012219498 -0.19309755 0.34183207 0.3002977 -0.09262646
0.0030710825 0.15077208 0.0047686873 -0.12841043 0.34520966 0.010485043 0.12263576 -0.037043586
0.098158866 0.013984969 0.15849225 -2.9933115e-05 -0.061164886 0.04099099 0.00062021974 0.010249831

encoder.2.bias f4 [8]
00000000: f88a 833d 7e89 693d 0f72 69bb 967a cb3c
00000010: 4a45 8cbc ebb2 a9bc 5219 373d a023 abbb
0.064229906 0.05701589 -0.0035620963 0.024838727 -0.017122883 -0.020715198 0.04470188 -0.0052227527

encoder.4.weight f4 [4, 8]
00000000: c5d4 45bd ff50 fc3a 09e5 91be a883 23be
00000010: c14d 243d 7e42 253d 9276 c0bd eab9 d2bc
00000020: b306 f73e c2c9 ec3d b392 99bd e488 80be
00000030: 88c6 76bb 8211 f5be c39c bcbd 4e89 b93d
00000040: 1ce6 1e3e 5d85 56bf 54d3 c8be cd4e 7fbe
00000050: adb4 fe3e 6d8d 243e 1297 a5bd 96fe 213e
00000060: 3762 5b3f 5c30 443e 02e2 5abe 385c 8a3e
00000070: 8201 2dbe 0206 b9be 3ef9 9ebd 6ecd d73d
-0.048298616 0.0019250213 -0.28495052 -0.15968192 0.040113214 0.040346615 -0.093976155 -0.025723416
0.482473 0.1156192 -0.07498684 -0.2510444 -0.0037654955 -0.4786492 -0.092095874 0.09059392
0.15517467 -0.83797246 -0.3922373 -0.24932404 0.4974722 0.16069575 -0.08085455 0.15819773
0.8569674 0.19159073 -0.21375278 0.27023482 -0.16895106 -0.36137396 -0.07762383 0.105372295

encoder.4.bias f4 [4]
00000000: ea74 0bbd 2601 5e3d 674a 4dbd f4ec 5a3d
-0.034047045 0.054200314 -0.050119784 0.053448632

encoder.6.weight f4 [1, 4]
00000000: 3100 093f b827 14bf 1573 ed3e a53f a1be
0.5351592 -0.57873106 0.46376863 -0.3149387

decoder.0.weight f4 [4, 1]
00000000: 769a 4fbf 96ec 61bf 99de af3e 1772 cb3e
-0.81095064 -0.88251626 0.34349516 0.3973548

decoder.0.bias f4 [4]
00000000: c252 e93e 5779 f7bc f253 1f3f 1f49 51bf
0.45570952 -0.030209227 0.62237465 -0.817522

decoder.2.weight f4 [8, 4]
00000000: 9aa4 873e 80b9 8bbe c302 743f b715 6bbf
00000010: 698d 94be bc45 3dbe fc50 3fbe c101 883e
00000020: 8b4f 8ebe 27a7 1abe e5a3 30be 335a b03e
00000030: 6b2b 32bd d640 003f d4b8 383d f897 78be
00000040: ee45 99be 96fe 06be f23b 4dbe b3ad a53e
00000050: ed29 4e3f 6c82 2c3e a687 163d 3401 29bf
00000060: 1a3e 8bbe c272 13be df78 3fbe 0090 b93e
00000070: b274 ee3e 0b09 6e3f 9ae9 28bf 2723 183d
0.2649277 -0.27289963 0.95316714 -0.9183001 -0.29014137 -0.18483633 -0.18683237 0.26563838
-0.2779506 -0.15102826 -0.17250021 0.34443817 -0.043498438 0.5009893 0.04509814 -0.24276721
-0.29936165 -0.13183054 -0.20042399 0.32359084 0.80532724 0.16846627 0.03675046 -0.6601746
-0.27195817 -0.14399245 -0.18698452 0.36242676 0.46573406 0.9298255 -0.6598145 0.0371429

decoder.2.bias f4 [8]
00000000: 1b41 983f 7cf4 83be bde0 9fbe c08a 0fbe
00000010: 5357 9ebe 7f72 90bd 6398 a9be 9853 bdbd
1.1894869 -0.25772464 -0.3122615 -0.14017773 -0.30925998 -0.070530884 -0.33124074 -0.0924446

decoder.4.weight f4 [16, 8]
00000000: 75ff b2be 6eb2 87be a0d8 773e 9dfd f23e
00000010: ed01 103f bd01 d53e 21b8 e33e 5223 ba3e
00000020: f47f 273f 7b16 07be fd87 e9be 567a fd3e
00000030: c870 44be 3633 ae3d 75ad a1be 3103 77be
00000040: 854e aa3f 2c92 f1be c6a5 bebe 64ce 2ebf
00000050: 33ae 82bf c6af 9f3d adb1 5ebf 6188 b63d
00000060: a9d6 d4be 7901 f63e 2d9d 7e3e 3c79 b2be
00000070: 024e 6f3e 4085 0d3f 5bd0 42be 1225 273f
00000080: 184a 4f3e 3851 b9be d221 f9be 3d62 ccbe
00000090: 4ba1 be3d 4da2 90be 61bb 09bf bcd8 923e
000000a0: d97a 86be 47b8 d2bd 0973 853e f0bc a8bb
000000b0: e7ef ab3d 4015 a83e f4a9 163e a2a9 903e
000000c0: 412d 9cbc 2304 31be e311 8e3d c406 13be
000000d0: 8e44 06be e8e9 f63e 2518 d8bc 4f87 563e
000000e0: c1e1 f2bd 19d2 c33c 2acc fc3c f777 44bd
000000f0: 017d 013d c5e9 f7bd 20d4 073d 6732 d3bd
00000100: 6094 b4be e02c c7bd de55 733e 45da 89be
00000110: cb1a 35be 4889 873d c8a7 0a3e c12a 393e
00000120: 35ff b93d ad33 273d 7f71 81be 2f6f 24bd
00000130: 9ab1 1fbd 2156 f03e 1f18 003e 947b 9ebe
00000140: 8fe4 bf3e e153 8abe 6dca 073e a4f9 453d
00000150: f099 1abe d970 503e e077 a73d 89df 45be
00000160: feab 4cbe c53f 983d 9bb8 a63d 2780 3dbd
00000170: 6a65 a63d 4e67 13be f452 aa3d bbcf 9bbd
00000180: 00d9 ba3d 93df 59be c91a dabe 5855 763e
00000190: 02b8 51be ca27 ba3e ceb4 c03b b333 a63d
000001a0: 3326 34be c40d 313d b7f0 513d f7d6 58bd
000001b0: 1704 553d 74b9 17be 290c 5d3d 430c e9bd
000001c0: 9c28 a3bd a999 13be d0c7 cfbd 3d9d c5bc
000001d0: 8ecc c9bd 4867 aebd f7b3 d0bd 86b2 3abc
000001e0: 918f 91bc 19c1 2abd f51c 90bd 1074 6f3c
000001f0: 39b8 a3bd 62cd 0c3e de74 85bd 392f c53d
-0.34960523 -0.2650332 0.2420373 0.47459117 0.5625294 0.4160289 0.44476417 0.36355072
0.65429616 -0.1319217 -0.45611563 0.49507397 -0.19183648 0.085058615 -0.3157765 -0.24122311
1.3305212 -0.47181833 -0.3723585 -0.6828368 -1.0209411 0.07797198 -0.8698986 0.08912731
-0.41570023 0.48048 0.24864645 -0.3485812 0.23369601 0.5528145 -0.19024794 0.6529094
0.20243108 -0.36194777 -0.48658615 -0.399187 0.09308108 -0.28248826 -0.5380154 0.2868098
-0.262656 -0.10289054 0.26064327 -0.005149476 0.08395367 0.32828712 0.1471327 0.2825442
-0.019064547 -0.17286734 0.06937005 -0.1435805 -0.13112089 0.4822533 -0.0263787 0.20950054
-0.118594654 0.023903893 0.030859072 -0.04796597 0.031613354 -0.12105135 0.033161283 -0.10312348
-0.3526945 -0.09725356 0.23763224 -0.2692434 -0.17686002 0.06617981 0.13540566 0.18082716
0.0908188 0.040820766 -0.25281903 -0.040145095 -0.038987733 0.4694071 0.12509201 -0.30953658
0.37479064 -0.2701712 0.13260813 0.04833378 -0.15097785 0.20355548 0.08177161 -0.19323553
-0.19987485 0.07434038 0.081406794 -0.046264794 0.08124812 -0.14394876 0.08316603 -0.07607981
0.09123421 -0.21276693 -0.4259856 0.24055994 -0.2048035 0.36358482 0.0058809286 0.081153296
-0.17592697 0.04322602 0.051254954 -0.05293938 0.052005854 -0.14816839 0.053966675 -0.11379292
-0.0796673 -0.14414085 -0.10145533 -0.024122829 -0.09853469 -0.08515793 -0.101905756 -0.011395102
-0.017768653 -0.04168806 -0.07036773 0.014615074 -0.07994122 0.13750222 -0.06516431 0.09628148

decoder.4.bias f4 [16]
00000000: 2710 edbd a901 383e a549 233f fda0 40be
00000010: 6b40 283e 7749 6fbd 86eb 07bd 57f8 1abd
00000020: 6545 bbbd fc04 183d 3538 0d3d 385b 8fbd
00000030: 90e7 133e 7c82 65bd a77b 423d f606 053d
-0.115753464 0.17969383 0.6378425 -0.18811412 0.16430824 -0.05841967 -0.033183597 -0.03783449
-0.09144095 0.03711413 0.03447743 -0.069998205 0.14443803 -0.056032643 0.047481205 0.03247734

decoder.6.weight f4 [3, 16]
00000000: d1cf 15bc 49ef 4dbe 71aa 24bf 16d8 923e
00000010: 4d5d 88be cc24 4ebe 24af c4bd d73d 9e3e
00000020: cc96 7abd 1155 3bbd d717 c8be 0f0e 833e
00000030: 014b c0be 733a 073f 7b97 90bd 1307 103d
00000040: 9c11 96be d5a1 d93e 46fe f03e 4c4a 9dbb
00000050: 7620 2d3e 26a0 72bd fb40 c43d 64eb a1be
00000060: d0c4 3d3e 88d0 713a dada abbe a458 92be
00000070: dfc4 be3e a5fb a8be 80b9 edbe 159c 9e3e
00000080: c92d 06bf ad68 113f 7135 133f 4e81 89be
00000090: c8ff 173f d0ad acbe 9226 52be bb7c db3d
000000a0: 4ec8 6cbe 1a7a bb3d fedd a03e 3431 51be
000000b0: 2e08 a0bd 1692 fd3d 0076 30be 3abe 7bbd
-0.009143786 -0.20110811 -0.6432257 0.28680485 -0.26633683 -0.20131224 -0.09603718 0.30906555
-0.061178967 -0.045735423 -0.39080688 0.25596663 -0.37557223 0.5282356 -0.070601426 0.035162997
-0.2931031 0.4250628 0.47068995 -0.0048001166 0.16906914 -0.05923476 0.095827065 -0.316249
0.1853211 0.0009224494 -0.33565408 -0.28583252 0.37259576 -0.3300449 -0.46430588 0.30978456
-0.5241361 0.5680035 0.5750342 -0.26856464 0.59374666 -0.33726358 -0.20522526 0.1071715
-0.23123285 0.091541484 0.31419367 -0.20428926 -0.0781406 0.12381379 -0.17232513 -0.06146071

decoder.6.bias f4 [3]
00000000: 9068 89be 64c2 6f3e 3d09 103e
-0.26837587 0.23413998 0.14066024
