autoencoders/best_models_cuda/best_model_bone10.pth (torch, 8143 bytes, 16 tensors)

encoder.0.weight f4 [16, 3]
00000000: 16fe 313e 54fa c03e 7eec da3e 24d3 04bf
00000010: 9c3b bf3d 5a1a 76be d6d2 333c 47b3 173e
00000020: 8d96 4a3e f62b b9bc 1d57 963f b04d 70bc
00000030: 0969 50bf 05ef 823f 982d 40bf 4790 a83e
00000040: f210 d83d 8a6b c23e 743f 79be 7457 6bbe
00000050: e2f3 2fbf 8c3b 243e 0495 c23e 192a 3c3f
00000060: 6a73 5f3e 4f1e b13e 6893 df3e f198 bcbe
00000070: c252 65be ccf8 d23d fb0e 22bf 3228 2fbf
00000080: ab9b 37bf 879b 7fbc 3935 2dbd 8646 62be
00000090: 1813 4cbe 11ff 59be 4f90 af3e bb96 193f
000000a0: 65fa 9e3e 5572 eebd 1a9e f73d f1bd ddbe
000000b0: 3827 48bf 1c6f b9bd 56df 10bf 544b 28bf
0.17382082 0.37690985 0.42758554 -0.51884675 0.093375415 -0.2403349 0.01097556 0.14814483
0.19783993 -0.02260397 1.1745335 -0.01466696 -0.8141027 1.0229193 -0.7506957 0.32922575
0.10550107 0.3797267 -0.24340612 -0.2298258 -0.6873151 0.1603834 0.38004315 0.73501736
0.2182137 0.34593436 0.4366715 -0.36835435 -0.22394851 0.103013605 -0.6330411 -0.6842071
-0.71721905 -0.015601045 -0.042287085 -0.22097215 -0.19929159 -0.21288706 0.34289786 0.5999562
0.3105041 -0.11642901 0.12090702 -0.43308976 -0.78184843 -0.090543956 -0.56590784 -0.6573994

encoder.0.bias f4 [16]
00000000: 4567 42bc dcd7 d1bc ca8f 073d 4da4 1a3e
00000010: d308 ff3c f18f 3cbd e327 0abe d3b2 1ebc
00000020: 04c4 423c 5157 5b3d 0c91 98bd a449 cf3c
00000030: 936a ec3c 0fe7 ba3d 4c44 063d 3470 3d3d
-0.011865442 -0.025615625 0.033096112 0.15101738 0.031132137 -0.04603571 -0.13491778 -0.00968619
0.011887554 0.05355007 -0.074495405 0.02530367 0.028859412 0.09126102 0.032779977 0.046249583

encoder.2.weight f4 [8, 16]
00000000: 8016 1d3e 0b17 78be 12fe 7e3d 94c1 483e
00000010: d4b8 933d 9c6b 203e e2c4 a93e c534 313e
00000020: 2831 e93d 6022 89be 3559 843c dc84 943e
00000030: ebb6 a93e c1be ea3e a26a 95be 7950 1a3e
00000040: 2cd4 403e 38a9 a8bd 7cb8 b8be ee82 9a3e
00000050: ccf5 113e ad7a 05bd 734d d03e 2f5f a7be
00000060: 091d 81be 4a8b 09be a48a 9f3e 776a 413e
00000070: ff9e 6c3e d3ce 083e 1f84 1b3e 567c b33e
00000080: 085e a33c b636 0e3d e042 a33e 5aac 6f3e
00000090: fdb8 1e3e 7304 68be 50dd 7cbe aada 8f3e
000000a0: 35fd 713d ded7 9a3e 022a a63e 7238 8d3d
000000b0: e028 593d d3fc 9a3e e19b 8a3d aa88 333e
000000c0: bb0e c7be 5bc2 733d 6e5b d73c f0e5 e43e
000000d0: 1ffa 203e cb5f 113f 42c3 3ebd 4e7e 9a3e
000000e0: 53a1 a23e ad1f 653e 4426 4a3c 2620 a63e
000000f0: 398d 653d 3e1d 6ebd 6b0d 91bc cfbc 67be
00000100: 0115 07be 1061 9abe 5119 a9be a1fd 2d3e
00000110: 90d4 5b3d 30e1 4fbe 289e b5be c6af bcbe
00000120: 6757 a9be b44d e7bd a079 f43e 8fdc 063f
00000130: 4e95 193e 627a 11bf 97cf 0fbe 0f3d 81bc
00000140: db46 e13d c020 98bd 367b 423d 1b6d 823d
00000150: e60e 52be 2220 983d 45a8 cd3b 171e 1d3e
00000160: ffad da3d d1ff b13c 77d9 003e f0f6 cfbb
00000170: 12c0 443d 6c7b 673d 1875 08bd 9174 11bc
00000180: bb85 26be c15b 153e 544b eabb 8d63 0a3f
00000190: d47c d03c 9cec 1b3c 2359 b83e 86e8 80bd
000001a0: 9dc3 2ebe b118 193e 5699 513e e25f c23e
000001b0: 1fec febd 5dfb 73be 5acc 353d b501 ad3e
000001c0: 0ae8 dd3d 1fa2 6cbd ca5c ad3d 5093 adbe
000001d0: fd88 cdbe ec4e f83d 05a3 adbd 7179 a83e
000001e0: 9024 e53d 9799 843e c76f 023d ad8c 9abd
000001f0: 5bd0 bb3e 6e0d 84bd f449 a4bd b871 adbd
0.15340614 -0.2422754 0.06225402 0.19605094 0.072129875 0.1566605 0.33158022 0.17305286
0.11386329 -0.2678404 0.016155818 0.29007614 0.33147368 0.4584866 -0.29182917 0.1506976
0.18830937 -0.08235401 -0.3607825 0.30178016 0.1425392 -0.032587696 0.4068409 -0.32689807
-0.25217465 -0.13432041 0.31160462 0.1888827 0.23107527 0.13360147 0.15187119 0.35055798
0.019942299 0.034720145 0.3188696 0.2340559 0.15500255 -0.22657947 -0.24693799 0.28096515
0.059079368 0.3024282 0.32453924 0.06895532 0.053017497 0.30271015 0.06768013 0.17532602
-0.38878426 0.059511524 0.026288714 0.44706678 0.15720414 0.56786793 -0.04657293 0.30174488
0.31763706 0.22375365 0.012338225 0.32446402 0.056042884 -0.058133356 -0.017706593 -0.22630619
-0.13191606 -0.30152178 -0.33027127 0.16991283 0.053669512 -0.20300746 -0.35472226 -0.36852854
-0.33074495 -0.112941176 0.47749043 0.52680296 0.14998361 -0.56827366 -0.14044033 -0.015776185
0.10999843 -0.074281216 0.047480784 0.063684665 -0.20513496 0.07428004 0.006276163 0.1534351
0.10677718 0.021728428 0.12582956 -0.006346576 0.048034735 0.05651419 -0.033314794 -0.008877889
-0.16261952 0.14585783 -0.007150093 0.5405815 0.025450148 0.009516861 0.36005506 -0.0629435
-0.17066808 0.14950825 0.2046865 0.37963778 -0.1244738 -0.23826356 0.044384338 0.33790365
0.108352736 -0.0577718 0.08464964 -0.33901453 -0.40143576 0.12124428 -0.08478359 0.32905152
0.11188614 0.2589843 0.03184488 -0.07546363 0.366824 -0.06447874 -0.08021918 -0.08468956

encoder.2.bias f4 [8]
00000000: e3ff 87bd 8b99 473d 2250 673d 578f 7bbb
00000010: bdfe 223d 9413 10bc 8086 573d 74ed 273d
-0.066406034 0.048730414 0.056472905 -0.0038384998 0.03979372 -0.00879373 0.052618504 0.040997937

encoder.4.weight f4 [4, 8]
00000000: 46bb 16bd 453c f4bd 108f 21bd 3c7b 423e
00000010: 3ca2 07be 248c 99be 0edf 91bd b4f5 8c3e
00000020: d053 073f ac8b a33e 1458 ce3e 60f0 88bd
00000030: aa82 0fbf e46c 1c3d d8d4 64be fd07 8ebe
00000040: 30ae 103e 7c7d 1dbe b3eb 053f f404 c33e
00000050: d901 50be 9f79 45be aec8 9e3d 6e86 173f
00000060: a44b a7be f22f 713e dd8c 0e3f f589 f3bc
00000070: d67e 51be 447d f3be 93df ef3e 03a5 59bd
-0.03679969 -0.11925558 -0.039443076 0.18992323 -0.13245481 -0.2998973 -0.071226224 0.27531207
0.5286226 0.319425 0.40301573 -0.06686473 -0.5605875 0.038189784 -0.22346818 -0.2774047
0.14128947 -0.153799 0.52312773 0.38089716 -0.20313205 -0.19284676 0.0775312 0.591895
-0.32674897 0.23553446 0.5568369 -0.029728869 -0.2045854 -0.47556508 0.4685026 -0.053135883

encoder.4.bias f4 [4]
00000000: b56c a93d 631b 4f3d d338 9cbe 9d93 873d
0.08272687 0.050563227 -0.30512103 0.06619952

encoder.6.weight f4 [2, 4]
00000000: 7729 74bf 3c45 dd3d a4f4 753f 54c1 4cbe
00000010: 96a5 87be 8600 f73e ce56 13bf 590c 543f
-0.9537577 0.10804221 0.96076417 -0.19995624 -0.2649352 0.48242587 -0.5755433 0.8283134

encoder.6.bias f4 [2]
00000000: c937 43bd d968 3b3d
-0.047660623 0.045754287

decoder.0.weight f4 [4, 2]
00000000: eda4 41bd 4bb5 9abe ca5c ab3f 5aba ee3e
00000010: 8fe5 19bd ac60 f93f b76c df3e 0bb3 f7be
-0.047276426 -0.3021644 1.3387692 0.4662655 -0.03757244 1.9482627 0.4363763 -0.48378786

decoder.0.bias f4 [4]
00000000: 7931 ac3e 1c2e 3abc 3f3d b53d a1d1 0e3e
0.33631495 -0.011363532 0.088495724 0.13947155

decoder.2.weight f4 [8, 4]
00000000: ada2 95be c7fe 103e 2f39 163e 9cea a2be
00000010: f842 ddbd 5b02 b7be 4849 8abe 840e 5cbe
00000020: a125 563f a4bb a03e d06e b43e 8cb4 a9be
00000030: 86c4 04bf e8de 983f 6003 7cbe f14f 66be
00000040: 130a ad3e 6081 063f 937b d6be e8dc 333f
00000050: 2adf 04be 2e89 c33e c1ab 6f3e 7dc0 f93c
00000060: f6dd 0dbe bb94 c5be 8184 7bbe e2ef 84be
00000070: 7406 b0bd cda0 afbd de4a adbe be65 25be
-0.29225674 0.1415969 0.14670251 -0.31819618 -0.10803789 -0.35743985 -0.27009034 -0.21489912
0.8365117 0.31393158 0.35240793 -0.3314556 -0.5186237 1.1943026 -0.24610662 -0.22491433
0.3379675 0.5254116 -0.41891155 0.7025895 -0.12975755 0.38190597 0.23405363 0.030487293
-0.13854203 -0.38590035 -0.24562265 -0.25964266 -0.08594981 -0.08575592 -0.33846182 -0.16152093

decoder.2.bias f4 [8]
00000000: 169d 8dbd 949f 96be 962d 823d d021 61bb
00000010: b88c 7f3d f091 fabc 494a b5be 6b84 e1bd
-0.069147274 -0.29418623 0.06356351 -0.003435243 0.06239006 -0.030587167 -0.35408238 -0.11011585

decoder.4.weight f4 [16, 8]
00000000: 97fb 9cbd 58d0 8ebe d2f0 c43c 9869 b4be
00000010: 548f ea3d 25a2 b9bd 457e 95be d7f8 5cbe
00000020: f658 b23e 1601 12bf 72c0 2ebf 6a4b 363f
00000030: 83ba 903e c72e f43e 5fb9 36bf c52b 95be
00000040: 811c fe3e 2cca 20be eafd fabb 5184 3b3e
00000050: 449f a4be 6309 55bd 6ea6 3a3e aa65 13be
00000060: 5b95 263f ac83 333f d70c d93e 5f2c aabe
00000070: 9d05 d7bc 15ac 38be 31a6 163e 05a1 8e3e
00000080: 20ef e13c db62 17bf 80ae 313e fb92 3ebd
00000090: 6ce2 2abe a744 61bd d30c 3bbf 6bff 69be
000000a0: e53e 2dbc d850 62bc 46bd 323e e4ca 803d
000000b0: 44c1 84bd c3b5 72be 5625 813d 837e 273e
000000c0: fcc6 1c3d 23fd 2abd edc0 a13e 9c32 943e
000000d0: d5b1 74be f02a a53e 105f 4f3e c422 6fbb
000000e0: 249e 2a3f 38c5 803e 9eae ca3d ff74 263f
000000f0: ed21 99bd fc41 f93d 8933 0e3e 9cea 8e3e
00000100: ebb1 003d ddf5 5f3e b52d 803c 0fe0 50be
00000110: ace4 96bd cabd 00bc 954a 763e 7933 063e
00000120: d6a1 6abc 92a2 b73d c65a 9dbe 062b 233e
00000130: 033e e6bd 51b8 d6bd cae4 e03d 4474 6a3c
00000140: 8314 093f dc96 b73e f22e e63e 996b e8be
00000150: c73a 8f3e 174a 563e a557 2abd ce83 d23e
00000160: ee0e 183d 2feb 65bd 085d 8c3d d289 c4bd
00000170: 6168 ddbc 0580 a93e 0cd6 86bd 937f 74bb
00000180: 9e6a 213f 8fdf 35be b6b3 a2bd cea1 183f
00000190: 07cc 083e cf40 bfbe 46e8 bc3d 2868 7ebd
000001a0: e093 a0be 2ae6 3fbe e41a ec3d 1a75 863c
000001b0: a5c0 a53e 28d7 14be 0fa2 4ebe efd0 f7bd
000001c0: 2068 c73b 5c76 85bd 8591 f53d 6ee1 79bd
000001d0: 4ded 5b3e 245e 0f3d 6f5d 963d f456 abbe
000001e0: bacb f03c f223 243e 892c 12be 3cc3 04be
000001f0: 1378 1fbe 184d a7bd 67bb 393e eceb 8e3d
-0.076651745 -0.2789333 0.024040613 -0.35236812 0.11453119 -0.0906413 -0.29197899 -0.215793
0.34833497 -0.57032907 -0.682624 0.7120882 0.28267297 0.47691938 -0.71376604 -0.29134956
0.49631122 -0.15702122 -0.0076596634 0.18312193 -0.3215276 -0.052010905 0.1822755 -0.1439425
0.6507165 0.7012279 0.4239261 -0.33236977 -0.026247794 -0.18034394 0.14711834 0.27857223
0.027579844 -0.59135216 0.17351723 -0.04652689 -0.16687936 -0.054997113 -0.73066443 -0.2285134
-0.010574077 -0.01381322 0.17455015 0.06288698 -0.06482175 -0.23702149 0.063059494 0.16356854
0.038275704 -0.041745316 0.31592503 0.28944862 -0.23895963 0.3225932 0.20251107 -0.0036489228
0.66647553 0.25150466 0.09896587 0.6502227 -0.07477174 0.12170789 0.13886847 0.27913368
0.031419676 0.21871133 0.015646795 -0.20397972 -0.073678344 -0.007857749 0.24051888 0.13105573
-0.014320811 0.08966555 -0.30733317 0.15934381 -0.112422965 -0.10484374 0.10981138 0.014309946
0.53546923 0.35857284 0.4495769 -0.4539459 0.2797453 0.209267 -0.04158749 0.41116184
0.037123613 -0.05613249 0.06853682 -0.095966 -0.02702731 0.33105484 -0.06583795 -0.0037307485
0.6305331 -0.17761062 -0.079444334 0.59621894 0.1335908 -0.37354133 0.0922399 -0.06211105
-0.3136282 -0.18740144 0.115285665 0.01641326 0.3237354 -0.145352 -0.20179008 -0.12100398
0.0060854107 -0.06516716 0.11990646 -0.061006002 0.21477242 0.03500189 0.0734204 -0.33464777
0.02939402 0.16029337 -0.14274801 -0.12965101 -0.15573148 -0.08169001 0.18137895 0.06978592

decoder.4.bias f4 [16]
00000000: c24b 633e abfb d83e f563 1ebd 58d2 51bc
00000010: 3318 ee3e cd65 973d 3e6a 62bd be49 ffbd
00000020: fd8b 47be 963b 0cbe 1093 2e3c 69fb 933d
00000030: 8d57 293e 2010 463e 2a2f 573d 68e1 29be
0.22196868 0.42379507 -0.038669545 -0.0128064975 0.46502838 0.07392464 -0.0552771 -0.12465237
-0.19486995 -0.13694605 0.01065518 0.07225687 0.16537304 0.19342089 0.052535214 -0.16589892

decoder.6.weight f4 [3, 16]
00000000: 9890 e8bd aad5 7cbe 2a09 48bc af33 d13d
00000010: b0ef 54bf b963 97be d001 f73b 31f5 9f3e
00000020: 3838 cc3e 3197 cd3e 7cd3 f7bd 5fd0 09be
00000030: 1066 acbc c090 91be c485 a93c fa05 013f
00000040: 980b f2be 326c bf3e 67ad 1a3e a00e 0dbe
00000050: 34a5 273b ea23 cc3d 2f74 203e 1be7 b83e
00000060: 0e99 b8bc dc65 313e 4914 b6be ff12 7a3c
00000070: b4be 283e dbf1 c1be 161a 60be 00ce 29bd
00000080: 9d31 5b3e 75e0 033f 6ccf acbe db4c bcbe
00000090: 03d4 7dbc a656 3ebd a485 15bf 8f95 20bf
000000a0: 7f8d 743e 44a0 afbe 52c2 84be 1b42 d0bc
000000b0: 5a09 ce3e 3452 ce3e 91ec 8c3e 4d52 83bd
-0.11355704 -0.24690881 -0.012209216 0.10214936 -0.83178234 -0.2956827 0.007538058 0.31241754
0.39886642 0.40154412 -0.12100884 -0.13458394 -0.021044761 -0.28430748 0.020693667 0.50399745
-0.4727447 0.37387234 0.1510521 -0.1377511 0.0025580646 0.099677876 0.1566932 0.3611382
-0.02253392 0.17324013 -0.3556235 0.015263318 0.16478997 -0.37879834 -0.21884951 -0.041456223
0.21405645 0.5151437 -0.33752 -0.36777386 -0.015492442 -0.046469353 -0.58407044 -0.6272821
0.23882101 -0.3430196 -0.25929505 -0.025422147 0.4024151 0.4029709 0.27524236 -0.06412182

decoder.6.bias f4 [3]
00000000: 74f3 f5be 8ea2 1a3d 2164 1d3d
-0.48037302 0.03775268 0.03842557
