autoencoders/best_models_cuda/best_model_bone13.pth (torch, 8143 bytes, 15 tensors)

encoder.0.weight f4 [16, 3]
0	0xb6a4bef2	-4.90981e-06
1	0xb6a2834e	-4.843262e-06
2	0x361d3266	2.3424159e-06
3	0x353362cc	6.6826465e-07
4	0x34f78e9f	4.6111106e-07
5	0xb5ae810c	-1.3001568e-06
6	0xbe9cd751	-0.30633023
7	0x3f18921f	0.59597963
8	0xbecec240	-0.40382576
9	0xb8b5074c	-8.632112e-05
10	0x382bfca4	4.1004867e-05
11	0x3982a295	0.00024916665
12	0x3dbac060	0.09118724
13	0x3d66d7cf	0.056358155
14	0x3ba8dc0b	0.0051531843
15	0x3d6c0681	0.05762339
16	0xbb1d68a4	-0.002401867
17	0xbbc658ba	-0.0060530575
18	0x3c5f408e	0.013626231
19	0xbd8f7bea	-0.070060566
20	0x3b6e358c	0.0036347834
21	0xbe2027e0	-0.15640211
22	0x3e890c50	0.26767206
23	0x3eaac2b4	0.33351672
24	0x3d7b7a8c	0.061396167
25	0x3b75d092	0.003750835
26	0x3b8bed8e	0.004270262
27	0x3de749db	0.11293384
28	0x3d59376a	0.053031363
29	0xbbfef126	-0.007780212
30	0xbc3d2629	-0.011544743
31	0xbc7bbd61	-0.015364976
32	0xba05629c	-0.00050882413
33	0x3e5cd8ba	0.2156705
34	0x3eb3f868	0.35150456
35	0x3ee82519	0.45340803
36	0xbf030cd5	-0.51191455
37	0x3ea38e42	0.31944472
38	0xbf4b3110	-0.7937174
39	0xbd1617ee	-0.036643915
40	0xbda91ac1	-0.08257056
41	0x3c4c1143	0.012455287
42	0x3d03f924	0.03222002
43	0xbd2e38fa	-0.042534806
44	0xbc47c441	-0.012192787
45	0x37984ef5	1.815658e-05
46	0x38848190	6.3183834e-05
47	0x3904de79	0.00012671378

encoder.0.bias f4 [16]
0	0x34239547	1.5234865e-07
1	0x33534a29	4.9194714e-08
2	0x3baca3e3	0.0052685603
3	0xb9ce5ac3	-0.00039359005
4	0x3b84200a	0.0040321397
5	0x3baef125	0.0053388053
6	0x3c9af81c	0.018917136
7	0xbca07f3f	-0.019591926
8	0x3bfd88a2	0.007737235
9	0x3cb2e378	0.021836981
10	0xb8c33d5d	-9.3097544e-05
11	0x3cdc3074	0.026878573
12	0x3ccd87f4	0.025089242
13	0x3b66f407	0.0035240666
14	0x3bfe3431	0.0077576865
15	0xb95a88ed	-0.00020841109

encoder.2.weight f4 [8, 16]
0	0x3573bfaa	9.080346e-07
1	0x32392715	1.07773035e-08
2	0x388e7446	6.792745e-05
3	0xb5deaf1b	-1.6591251e-06
4	0x3675ae85	3.6609429e-06
5	0xb4c4bd20	-3.6645451e-07
6	0xb660654f	-3.343757e-06
7	0x3873000e	5.7935766e-05
8	0xb57dbcaa	-9.4524387e-07
9	0xb6874736	-4.0316036e-06
10	0x35b6be02	1.3615356e-06
11	0xb5eed18c	-1.7793368e-06
12	0x389004e7	6.867368e-05
13	0x37c229e7	2.3146114e-05
14	0xb5d22ae6	-1.5658704e-06
15	0x36fa1bb3	7.453805e-06
16	0xafc59e48	-3.5946557e-10
17	0xab2a2209	-6.0443366e-13
18	0xb4c9d113	-3.759129e-07
19	0x3206c4a6	7.844539e-09
20	0xb3c3bce7	-9.114756e-08
21	0xb3a92dd1	-7.87801e-08
22	0xb38dbfb2	-6.600693e-08
23	0xb508d9ab	-5.0980697e-07
24	0xb3a51921	-7.687982e-08
25	0xb3847f8b	-6.169929e-08
26	0x31a6feea	4.8602162e-09
27	0xb3a3e9e7	-7.6328256e-08
28	0x35714117	8.9874214e-07
29	0xb3eb7182	-1.0963687e-07
30	0xb39edf44	-7.39806e-08
31	0x30788556	9.0411356e-10
32	0x372bf96b	1.0250466e-05
33	0x3707aadb	8.086407e-06
34	0x3f03086c	0.51184726
35	0xba2c1b7e	-0.0006565376
36	0xbd6611e9	-0.056169424
37	0xbdb745be	-0.08948849
38	0xbe830abd	-0.2559413
39	0x3d19dece	0.037566
40	0xbd43fc2b	-0.047847908
41	0xbe916241	-0.28395274
42	0x3d11ed25	0.03562655
43	0xbee487ed	-0.44634953
44	0x3ef44377	0.47707722
45	0xbbaa16d6	-0.0051907105
46	0xbddce815	-0.10786454
47	0x3a2d6973	0.00066151394
48	0xb71e0ea6	-9.4209445e-06
49	0xb6db958b	-6.5441177e-06
50	0x3e0bb0ac	0.13641614
51	0xb9a72ef7	-0.00031887714
52	0x3c54f941	0.01299888
53	0x3c697f04	0.014251474
54	0xbd8af1f2	-0.06784429
55	0x3e5519a9	0.2081057
56	0xbe08ccc9	-0.1335937
57	0xbd94b2c0	-0.07260656
58	0xbd42645d	-0.047458995
59	0xbdb20e64	-0.08694151
60	0x3e9976e1	0.2997351
61	0xbda9a8b8	-0.08284134
62	0xbd3dbf0c	-0.046324775
63	0xba311b12	-0.0006756048
64	0x33350566	4.2147256e-08
65	0x307fe0fb	9.3088176e-10
66	0xb9972b98	-0.00028833444
67	0xb4c6e2dc	-3.7045436e-07
68	0x34908fcf	2.6926725e-07
69	0xb62c0ec4	-2.5638592e-06
70	0xb6ba0f97	-5.545047e-06
71	0xb80eda0a	-3.4058503e-05
72	0xb64d017f	-3.0548251e-06
73	0xb6dadcda	-6.522617e-06
74	0x345c97b6	2.0544289e-07
75	0xb65619e8	-3.1903564e-06
76	0x39940977	0.00028235812
77	0x36cbf061	6.0778552e-06
78	0xb679db7d	-3.723165e-06
79	0x33a899c3	7.851079e-08
80	0x31ce8f13	6.0116547e-09
81	0xaf29749d	-1.541189e-10
82	0xbbd993f0	-0.00663995
83	0xb7ac6500	-2.055103e-05
84	0x3aeed8fe	0.0018222628
85	0x3b157d38	0.0022810232
86	0x3b274e91	0.0025529007
87	0xbdd94fe8	-0.10610944
88	0x3b21b508	0.0024674553
89	0x3b197295	0.0023414243
90	0xb6da5d78	-6.5077875e-06
91	0x3b250d97	0.0025185102
92	0x3d1f7cb0	0.03893727
93	0x3a9d5177	0.0012002428
94	0x3b091bd2	0.0020921123
95	0xb6607461	-3.3446343e-06
96	0x33efe41a	1.1170796e-07
97	0x323a8156	1.08560325e-08
98	0xbd9f3578	-0.0777387
99	0xb700a489	-7.667703e-06
100	0x3bc51031	0.006013893
101	0x3bd65e5a	0.0065420093
102	0x3be69f1b	0.00703801
103	0xbcca427a	-0.024689902
104	0x3bd915f1	0.00662493
105	0x3beb733c	0.007185368
106	0xb9880f97	-0.00025951557
107	0x3bdb4761	0.0066918586
108	0xbdb13161	-0.086519964
109	0x3b92e3a3	0.004482703
110	0x3bdcb42b	0.006735345
111	0x3777c831	1.4768958e-05
112	0xb71d21be	-9.365785e-06
113	0xb710dcfd	-8.634522e-06
114	0x3e919805	0.28436294
115	0x3ac8b41e	0.0015312468
116	0xbd299381	-0.041400436
117	0xbd469ba9	-0.048488293
118	0xbd81b4b4	-0.063332945
119	0x3ea83fc6	0.32861155
120	0xbd37719d	-0.044786084
121	0xbda49a0f	-0.08037197
122	0xbc98552f	-0.018595306
123	0xbcdb51b0	-0.02677235
124	0x3ef4ba6b	0.47798476
125	0x3cd69044	0.026191838
126	0xbd346ed9	-0.044051025
127	0xba0ee615	-0.0005451155

encoder.2.bias f4 [8]
0	0xb7c91fd0	-2.3975881e-05
1	0x323e52f4	1.1078317e-08
2	0x3d3df876	0.04637953
3	0x3cbf9210	0.023385078
4	0x37d0bc6c	2.4883273e-05
5	0xbb1fa075	-0.0024357114
6	0xbbdddd04	-0.006770732
7	0x3c07d5c5	0.008290713

encoder.4.weight f4 [4, 8]
0	0x34b30ab4	3.3349136e-07
1	0xade3515f	-2.5843048e-11
2	0x368a2784	4.1173207e-06
3	0xb6213eab	-2.4027347e-06
4	0x31b18fa2	5.167707e-09
5	0xb18ec3e6	-4.155015e-09
6	0xb3cb0c34	-9.455144e-08
7	0xb6644e48	-3.4020213e-06
8	0x386654cb	5.4915243e-05
9	0x354176b8	7.207086e-07
10	0x3f1510bf	0.5822868
11	0x3e906c6c	0.2820772
12	0x3aaf2717	0.001336309
13	0xbc11c327	-0.008896626
14	0x3e45af1e	0.19305083
15	0x3e9e6682	0.30937582
16	0x385d7f0e	5.2808835e-05
17	0xb608277b	-2.028856e-06
18	0x3e32d6da	0.17464772
19	0x3e293df8	0.16527545
20	0xbb32e17a	-0.002729504
21	0x3b8523dd	0.004063113
22	0xbda44966	-0.08021812
23	0x3d3a72dc	0.045519695
24	0xb84b5ecd	-4.848726e-05
25	0xb605f941	-1.996363e-06
26	0xbcd57713	-0.026057756
27	0xbd521d08	-0.051297218
28	0x3a45e09b	0.00075484224
29	0xbcf38be8	-0.029729798
30	0xbce08e7f	-0.027411697
31	0xbd46f374	-0.04857202

encoder.4.bias f4 [4]
0	0x3300b188	2.9963786e-08
1	0x3da2c81f	0.07948326
2	0x3c70112f	0.014652534
3	0x3d5dd2c8	0.054156095

encoder.6.weight f4 [1, 4]
0	0x333eacb7	4.4394906e-08
1	0xbe9ed70e	-0.3102345
2	0xbe04f33e	-0.12983415
3	0x3ed26000	0.41088867

decoder.0.weight f4 [4, 1]
0	0x3e78249b	0.24232714
1	0xbfc3c1cd	-1.5293518
2	0x31c30f72	5.677003e-09
3	0xbf90d3b8	-1.1314611

decoder.0.bias f4 [4]
0	0x3d67d59c	0.0566002
1	0x3ce1325b	0.027489832
2	0x34066459	1.2516229e-07
3	0x3d2d3ffa	0.04229734

decoder.2.weight f4 [8, 4]
0	0xbb0f2135	-0.0021839861
1	0xbe3c37f0	-0.18380713
2	0xb43920b8	-1.724137e-07
3	0x3d97e830	0.07417333
4	0xbf847238	-1.0347357
5	0x3f520d51	0.8205157
6	0xb59834da	-1.1340264e-06
7	0x3f190de7	0.5978684
8	0x3c1d9ba6	0.009619629
9	0xbe898fa8	-0.26867414
10	0xb44487df	-1.8303352e-07
11	0x3e34cea8	0.17656958
12	0x3eab90c4	0.33508885
13	0x3edafe78	0.4277227
14	0x365d26de	3.295419e-06
15	0x3acd4353	0.0015660323
16	0xbaf3b4e9	-0.0018593344
17	0x3d6432dd	0.05571257
18	0xb345e2a2	-4.6073758e-08
19	0xbe2688cb	-0.1626312
20	0x3aff54aa	0.0019480188
21	0xbc71537a	-0.014729375
22	0xb41dbe7b	-1.4691061e-07
23	0xbde6d4b1	-0.112710364
24	0xbc17a1c7	-0.009254879
25	0xbdf94ac4	-0.121724635
26	0xb40cc5e2	-1.3110505e-07
27	0x3b9b3072	0.0047359997
28	0xbc62667e	-0.013818381
29	0xbe261f1f	-0.1622281
30	0xb3ffaeb5	-1.1906142e-07
31	0x3cc3fdf5	0.023924807

decoder.2.bias f4 [8]
0	0x3c7ad93c	0.015310582
1	0x3dbfa60b	0.09357842
2	0x3c7edfd4	0.0155562945
3	0xbd099bfa	-0.033596016
4	0x3b289ed2	0.002572943
5	0x3c07f8ab	0.008299033
6	0x3c1bbf67	0.009506083
7	0x3c437bd4	0.011931378

decoder.4.weight f4 [16, 8]
0	0x3e765e46	0.240594
1	0x3f433613	0.76254386
2	0xbe1cf117	-0.15326343
3	0x3ec98f41	0.39367107
4	0xbc79c220	-0.015244037
5	0x3e13c159	0.14429225
6	0xbe707b8e	-0.23484632
7	0x3d013cb3	0.031552028
8	0xbb49be56	-0.0030783615
9	0xbdc952a3	-0.09830215
10	0xbb6a4bba	-0.0035750703
11	0xbbdbbb86	-0.006705704
12	0xbb0b8798	-0.0021290537
13	0xbb1d6604	-0.0024017105
14	0xbb35854b	-0.0027697857
15	0xbb7c04fe	-0.0038455124
16	0xb9a21406	-0.00030913966
17	0xbdc0abe6	-0.09407787
18	0xb90b71bf	-0.00013298447
19	0x3c63f30d	0.013912928
20	0x39a53099	0.0003150746
21	0x39a9d419	0.00032392217
22	0x397864fc	0.00023688743
23	0xb98ea0b4	-0.00027204084
24	0xbe10eb3e	-0.14152238
25	0x3ea6e88c	0.32599294
26	0x3e6ad50d	0.22932835
27	0xbdc07fd0	-0.09399378
28	0xbe031ba6	-0.12803516
29	0xbe322c73	-0.17399769
30	0x3e562a9c	0.20914692
31	0x3d14059c	0.036138162
32	0xbeb237f6	-0.3480832
33	0x3f0db42e	0.5535306
34	0xbf003fcc	-0.50097346
35	0xbdeeab39	-0.11653752
36	0xbe406b36	-0.18790898
37	0xbc6c6733	-0.0144289015
38	0xbe796133	-0.24353485
39	0xbe7bbbb7	-0.24583326
40	0xbe5fc24f	-0.21851467
41	0x3edbd0ad	0.42932644
42	0xbe9b816f	-0.30372187
43	0x3df7b5c1	0.12095214
44	0x3e5857ba	0.21127215
45	0xbe8e98f1	-0.2785106
46	0xbe80ef0d	-0.2518238
47	0xbdb5676c	-0.08857617
48	0x3e4a0725	0.19729288
49	0xbda09f8e	-0.07842933
50	0x3e479ba7	0.1949297
51	0x3ead6fff	0.3387451
52	0x3e099617	0.13436161
53	0x3da0c02d	0.078491546
54	0x3c9b37a0	0.018947423
55	0x3e5f55d9	0.21810092
56	0x3c0cd584	0.008595828
57	0xbdf8f060	-0.12155223
58	0x3c12fa17	0.008970759
59	0xbcb5b245	-0.022179732
60	0x3bcbd1c1	0.006220073
61	0x3bf5a835	0.0074968585
62	0x3c069e9b	0.008216525
63	0x3c15d077	0.00914394
64	0x33d170fd	9.752873e-08
65	0x349a65d5	2.8758828e-07
66	0x33d7a2b3	1.00413125e-07
67	0xb56e5ab8	-8.879392e-07
68	0x338c61a2	6.537017e-08
69	0x33b7c632	8.557653e-08
70	0x33c9900a	9.3859924e-08
71	0x33da62e3	1.01694035e-07
72	0xbb9db031	-0.0048122634
73	0xbdbbed7a	-0.091761544
74	0xbbb36f02	-0.0054758796
75	0xbb84b60b	-0.0040500215
76	0xbb4b958c	-0.0031064479
77	0xbb6dbdd1	-0.003627647
78	0xbb8f9b6f	-0.004382543
79	0xbbc19b0b	-0.005908375
80	0x3a86d098	0.0010285554
81	0xbdb09a79	-0.08623213
82	0x3a78644c	0.00094753946
83	0xbcad4b08	-0.021153942
84	0x3a2ebd65	0.0006665795
85	0x3a86fe8a	0.0010299247
86	0x3a85ed8c	0.0010217889
87	0x3a639767	0.00086819235
88	0xbe0d96d0	-0.13827062
89	0x3eec9d3f	0.4621372
90	0xbd38ca6a	-0.045114912
91	0x3f31a3f3	0.6939079
92	0xbd648068	-0.05578652
93	0x3cfdf18b	0.030998966
94	0x3d95f29a	0.07321663
95	0xbeced67c	-0.40398014
96	0xbb66e3cc	-0.0035230992
97	0xbdca6c69	-0.09883959
98	0xbb826930	-0.0039798245
99	0xbb8837e8	-0.004157055
100	0xbb164237	-0.002292765
101	0xbb2cddb4	-0.0026377263
102	0xbb50e454	-0.0031874375
103	0xbb8c29a4	-0.004277425
104	0xbc04efc0	-0.0081138015
105	0xbdd7e4ad	-0.10541663
106	0xbc152568	-0.009103157
107	0x3b06b539	0.0020554794
108	0xbbb83bf0	-0.0056223795
109	0xbbd4ac49	-0.0064902646
110	0xbbf7f5e2	-0.0075671533
111	0xbc1ebde4	-0.009688828
112	0xbb2dad86	-0.0026501133
113	0xbdcec70e	-0.100965604
114	0xbb54f512	-0.0032494706
115	0xbc0efb4f	-0.008726909
116	0xbaf0d448	-0.0018373812
117	0xbb048c91	-0.0020225386
118	0xbb1f84a0	-0.0024340525
119	0xbb6cf568	-0.0036157016
120	0x3cc8cfa1	0.024513068
121	0xbd8dcb81	-0.06923581
122	0xbcc5edb9	-0.024161207
123	0xbd86b923	-0.06578281
124	0xbb17f50e	-0.0023186835
125	0x3b6536f4	0.0034975382
126	0xbb37254c	-0.0027945815
127	0x3bfa8cdb	0.007646186

decoder.4.bias f4 [16]
0	0xba6364ef	-0.0008674403
1	0x3ba10011	0.004913338
2	0x3b14af4e	0.0022687498
3	0x3d1056bd	0.03523897
4	0x3d613e61	0.05499113
5	0x3d5b61c4	0.053560033
6	0xbd2122ad	-0.03933971
7	0xbbf52a45	-0.0074818456
8	0xb3628e54	-5.2749172e-08
9	0x3bdf287e	0.006810247
10	0x3a5b81a6	0.0008373506
11	0x3d3ac86d	0.045601297
12	0x3baeb4a1	0.0053315912
13	0x3c20c096	0.009811541
14	0x3b9dee7d	0.00481969
15	0x3c1ce60e	0.009576334

decoder.6.weight f4 [3, 16]
0	0xbdec7589	-0.115458556
1	0x3e44d9b9	0.1922368
2	0x3ca54794	0.020175733
3	0xbe8f972b	-0.2804502
4	0xbedaf237	-0.4276292
5	0xbf340310	-0.70317173
6	0x3da21ba8	0.07915431
7	0xbe07191c	-0.13193172
8	0xb23b20df	-1.0892307e-08
9	0x3e6ee7a4	0.23330551
10	0xbd4a590c	-0.049401328
11	0xbdca2e60	-0.098721266
12	0x3e24f219	0.16107978
13	0x3ebf5214	0.37367308
14	0x3dd3d8ba	0.10344072
15	0x3ece92b0	0.4034629
16	0x3e6d23bf	0.23158167
17	0xbca8e3c9	-0.020616429
18	0xbe841691	-0.25798467
19	0x3eab59c5	0.33466926
20	0x3e053942	0.13010123
21	0xbe0a3bad	-0.13499327
22	0xbe6e64af	-0.23280595
23	0x3e1d828d	0.15381832
24	0xb37c068d	-5.867928e-08
25	0xbe08b0d1	-0.133487
26	0xbe860e0c	-0.26182592
27	0x3f022c3b	0.5084874
28	0xbe26e657	-0.16298805
29	0xbce57b65	-0.02801294
30	0xbe7fd1bb	-0.2498235
31	0xbdbc7166	-0.092013165
32	0xbe6e90e3	-0.23297457
33	0x3e662424	0.22474724
34	0xbd93557d	-0.0719404
35	0x3ebf6f65	0.37389675
36	0x3d115f36	0.03549119
37	0xbee89f67	-0.45434114
38	0xbce3db4b	-0.027814528
39	0x3c5f3d8f	0.013625517
40	0xb3c1c151	-9.022427e-08
41	0xbe3a4add	-0.1819262
42	0x3d98a289	0.07452876
43	0x3dd7d6d5	0.10539023
44	0xbb215a26	-0.0024620383
45	0x3cb7c7b2	0.02243409
46	0x3d7cc811	0.061714236
47	0xbc89c4e1	-0.016817512

decoder.6.bias f4 [3]
0	0xbd965239	-0.073399015
1	0x3da9e351	0.0829531
2	0xbc7c7f57	-0.01541122
