autoencoders/best_models_cuda/best_model_bone12.pth (torch, 8143 bytes, 15 tensors)

encoder.0.weight f4 [16, 3]
000000 d8 46 2e bd 65 40 8c be ad f6 c7 3d 6f f3 f2 3b
       -0.04254803 -0.2739288 0.097638465 0.0074142735
000010 12 5e 2a 3d 3d 31 4b ba c1 08 02 3e 7c fb 15 3c
       0.04159362 -0.00077511725 0.12698652 0.009154197
000020 80 e8 99 bd 3e b1 ed be 61 48 f7 3e 98 46 18 bf
       -0.07515049 -0.46424288 0.48297408 -0.5948272
000030 2f 30 bb 3e 56 51 26 3e c9 49 db be 93 b1 87 be
       0.365602 0.16241965 -0.4282973 -0.26502666
000040 11 b7 f5 bd b2 fc 36 be f6 6a 0b 3c 33 f1 07 3d
       -0.11997808 -0.17869833 0.008509388 0.03318901
000050 4e 78 84 3d 69 3b 2a bc e4 ca 43 bd ea c2 22 3b
       0.06468259 -0.010390141 -0.047800913 0.0024835416
000060 de 26 12 3d d4 bb 23 3e 12 1a 1e 3e 2c 90 98 be
       0.035681598 0.1598962 0.15439633 -0.29797494
000070 69 1f 56 bd 6e 1d 90 bf 4b d8 6c 3e 68 a5 29 3d
       -0.05227605 -1.1258981 0.23129384 0.04141751
000080 01 15 e0 be 81 67 a5 3c b2 87 c4 3d fb 70 b3 3d
       -0.43766025 0.020190956 0.09596194 0.08761784
000090 41 51 dc 3d ca 22 86 be 6e 79 1a bd 43 ac 41 3d
       0.107576855 -0.26198417 -0.03771346 0.047283422
0000a0 37 dd 5d 3e 60 bc 5a 3e 2f 23 d9 bc d6 01 6d be
       0.21666418 0.21360922 -0.026506035 -0.23145232
0000b0 00 e9 10 3e 2e bd 18 3c e6 1e 1f bc b0 7d 26 3e
       0.14151382 0.009322448 -0.009711957 0.16258883

encoder.0.bias f4 [16]
000000 9b 17 b8 3d 83 82 51 bc 85 f7 66 bc 80 e8 7f bd
       0.089888774 -0.012787464 -0.014097099 -0.06247759
000010 9e f9 39 bd 89 9f d1 3c 0f 34 1e bc 31 1e 59 3c
       -0.04540407 0.025588768 -0.009655966 0.013251827
000020 80 29 4b bd 64 83 06 3a 57 cf a9 bb 2b b2 ee bc
       -0.049600124 0.0005131273 -0.0051821875 -0.029137691
000030 ca 7e 91 3d b2 e9 87 bd b0 51 7d 3d 1f 78 9e 39
       0.07104261 -0.06636371 0.06184548 0.00030225606

encoder.2.weight f4 [8, 16]
000000 b2 a7 01 bd a6 d8 ef 3a 10 be b5 3c 7e f2 56 bd
       -0.031654067 0.0018298819 0.022185355 -0.052477352
000010 90 14 0f bc 05 69 94 3d 57 9a db bc 90 96 86 ba
       -0.00873293 0.072465934 -0.026806993 -0.001026826
000020 87 47 87 bd ee 18 39 bb 5a bb f2 3c 44 47 25 bd
       -0.0660544 -0.002824362 0.029630352 -0.040351167
000030 02 8c 04 3c 95 72 b8 bd c3 0b 3b bd ce ae 38 bd
       0.008090021 -0.0900623 -0.045665514 -0.04508858
000040 1f d9 09 3d f7 14 b2 3c 38 e3 9d 3c 56 1b b6 3e
       0.03365433 0.021738512 0.019273385 0.3556773
000050 51 8a 1c 3f 5a 72 1c 3e d7 fe 27 3c 0f d0 ff bc
       0.61148554 0.15277997 0.01025363 -0.03122714
000060 0f 5a 12 3e 1a 06 a4 3e 45 03 e6 3e 0b b6 87 bb
       0.14292167 0.32035905 0.4492437 -0.0041415743
000070 76 44 5a be eb bd 80 be ba a5 95 3d 6c 49 af 3e
       -0.21315178 -0.25144896 0.073070005 0.34235704
000080 2a eb 47 3c dc 88 6b bb 69 26 5d 38 18 21 ca bc
       0.012202064 -0.003593973 5.272628e-05 -0.024673983
000090 cd 8b 77 bc e5 d7 90 3c cc ff b3 bb 3d bc 4a 3b
       -0.015109015 0.017681072 -0.00549314 0.0030934953
0000a0 83 65 8f bc 60 f2 81 3c d6 a8 54 bb 33 d4 3d bc
       -0.01750446 0.015862644 -0.0032449267 -0.011586237
0000b0 0a 45 77 3c 88 33 b5 bc 38 26 0f 3c 48 e3 82 bb
       0.015092144 -0.022119299 0.008737139 -0.003994379
0000c0 08 f5 cb bb 67 b7 42 bb 8d 5b f1 3c 1f 1e 81 bd
       -0.0062242784 -0.0029711367 0.0294626 -0.06304573
0000d0 1a a6 07 3e f7 c3 b6 3d 8d 8a 12 bd af c9 75 3b
       0.13246956 0.08924096 -0.035776664 0.0037504246
0000e0 06 e8 ab bd 50 3b 85 bd 09 ba 7e 3d c6 59 5b bd
       -0.08393864 -0.065054536 0.062189136 -0.05355241
0000f0 df e9 0e 3d a4 b5 e7 bd a4 04 c4 bc 42 32 33 bd
       0.034891006 -0.11313942 -0.023927994 -0.0437491
000100 db e2 34 bc 30 5d 0c 3c 93 e0 65 bd f8 b6 03 3e
       -0.011040415 0.0085671395 -0.056122374 0.12862766
000110 65 bd 97 39 5e 6b 3e be c4 06 9c 3d 5f 9b 40 bc
       0.00028942074 -0.18595645 0.07618478 -0.011755793
000120 6b c3 18 3e e8 85 81 bd a4 3f e8 bc 4f 25 d4 3d
       0.14918296 -0.06324369 -0.028350659 0.103586785
000130 b7 f3 89 bd d4 06 64 3e 18 ef cb 3c a1 86 90 3d
       -0.06735938 0.2226823 0.024894282 0.070569284
000140 8b 1b 8a 3e 69 61 08 bd a2 d6 a4 bd b6 4a b0 3b
       0.2697414 -0.033296023 -0.080487505 0.00538
000150 ce c8 49 3d e1 12 ee 3e 92 51 5d ba 93 ef 41 3d
       0.049263768 0.46498778 -0.0008442636 0.047347616
000160 79 3e cd bd 31 ec 1d 3f b2 07 1f 3e 72 13 07 bd
       -0.10021681 0.61688524 0.1553028 -0.03297753
000170 4f b7 87 3e dd a5 f4 bd 91 d8 aa 3e 4e 80 ab ba
       0.2650704 -0.119456984 0.33368352 -0.0013084502
000180 c9 c7 aa 3b 87 d5 8b ba 71 8c 87 ba d8 09 1c bc
       0.0052118045 -0.0010668495 -0.0010341537 -0.009523831
000190 f0 2f bf bb 7c ca a9 3b b8 7f f8 ba 26 2b 48 3a
       -0.005834572 0.0051816087 -0.0018958962 0.0007635824
0001a0 cb 89 d1 bb 1b 46 8a 3b a4 4a cd ba 5b 6f 89 bb
       -0.0063946 0.004219783 -0.0015662503 -0.004194183
0001b0 94 75 a4 3b 85 22 03 bc 42 ae 4b 3b 26 c5 e9 ba
       0.005018899 -0.008003836 0.0031079208 -0.0017835244
0001c0 0a 67 ca bc d6 db 02 3c 84 fa 4e bb 75 9a 6b 3d
       -0.024707336 0.007986983 -0.0031582424 0.05752035
0001d0 22 9f fe 3c 4d bb 4e bd 65 30 93 3c 80 d4 e3 bb
       0.03108174 -0.050471593 0.017967412 -0.006952822
0001e0 81 f0 5e 3d 70 5e c5 bc 93 bc a0 38 50 f1 10 3d
       0.05442858 -0.024092883 7.664519e-05 0.035386384
0001f0 ea 8c 15 bd d4 d9 8d 3d 18 e7 41 bc e8 ee a9 3c
       -0.03651134 0.06926313 -0.011834882 0.020743802

encoder.2.bias f4 [8]
000000 30 7d cc 3a df 88 2f bd 23 0d 77 3c 10 db e2 3c
       0.0015601274 -0.04285514 0.015078816 0.027692348
000010 81 ec 6a bd 47 c5 c3 3d 58 86 b7 3b ab 2d 13 bd
       -0.057354454 0.09559112 0.005600732 -0.035932224

encoder.4.weight f4 [4, 8]
000000 64 e8 17 3c 96 dd 6f 3e b2 cd 0b 3d 15 f2 67 3b
       0.009271715 0.23424372 0.034131713 0.0035392095
000010 ac 6a a8 be 4f e1 b1 3e 40 bb 37 3c cf f9 78 bd
       -0.32893884 0.3474221 0.0112140775 -0.06078511
000020 18 a1 ca bd f5 41 27 3f 3a b0 47 bd fa 86 de bd
       -0.098940074 0.6533502 -0.048752047 -0.108655885
000030 e6 61 45 bd 7b 2e 92 be 30 ae 90 bc ee 86 08 3e
       -0.048189066 -0.28551087 -0.017661184 0.13332722
000040 b1 b4 45 3d fe 7f 40 3d 3e 45 8c ba 60 14 81 3d
       0.048268024 0.046997063 -0.0010701788 0.06302714
000050 69 3e da 3d 24 49 88 3e a4 b5 46 3a 76 08 99 bc
       0.10656435 0.26618302 0.0007580167 -0.018680792
000060 8c c6 15 3e c9 1b e0 bd 21 ae 96 3c 1c e6 1e 3e
       0.14626521 -0.109427996 0.018393578 0.15517467
000070 be 9e a8 be 88 f7 24 be a4 00 cb 3b 73 5a 55 bd
       -0.3293361 -0.1611005 0.0061951447 -0.052088212

encoder.4.bias f4 [4]
000000 f3 c2 65 3d 54 2d 6f bd 22 3c e9 3c fc 43 9d bb
       0.05609412 -0.058392838 0.028471056 -0.004799364

encoder.6.weight f4 [1, 4]
000000 a0 5f d7 be 03 2a 84 be 2e c5 e1 be f5 67 e6 be
       -0.42065144 -0.25813302 -0.4409575 -0.45001188

decoder.0.weight f4 [4, 1]
000000 35 9e 52 3e 9b cd b2 bf 0b 47 21 bf 4c 14 31 bf
       0.20568164 -1.3968996 -0.6299903 -0.69171596

decoder.0.bias f4 [4]
000000 ba 43 0f be 76 7c 48 3e bf e0 7c bb 68 81 e0 bd
       -0.1399068 0.19578728 -0.0038586108 -0.10962182

decoder.2.weight f4 [8, 4]
000000 45 f9 35 bf 04 7d b3 be 8f 05 2a 3f ec 13 00 bc
       -0.7108348 -0.35056317 0.6641473 -0.00781725
000010 dd e0 f2 3c 3c de 8c be 8d 8b 0d be 72 58 17 be
       0.029648239 -0.275133 -0.13822766 -0.14779833
000020 79 64 87 bd f7 bb 27 3e 59 74 96 be f7 b6 82 3f
       -0.066109605 0.16380297 -0.2938564 1.0212086
000030 de e9 24 3d 2a 45 53 be 04 84 10 3e b9 a2 2e 3e
       0.040262096 -0.20631853 0.1411286 0.17054261
000040 e6 0f c0 3d 58 6b 79 be eb 1e 77 3e 7b cb 16 3f
       0.093780324 -0.24357355 0.24132888 0.58904237
000050 e9 80 86 3d 10 93 d3 be f9 6a 5e be 99 f1 79 be
       0.065675564 -0.41323137 -0.21720494 -0.24408568
000060 0a cb 15 bf c2 a9 1b 3f ba af e0 3d 4f f6 ef 3e
       -0.5851294 0.60805905 0.10971017 0.46867606
000070 7b 9e 20 3d 59 4c 13 be cf 95 a4 3d 36 c5 d8 3d
       0.03921364 -0.14384593 0.08036386 0.1058449

decoder.2.bias f4 [8]
000000 a7 50 95 3e ce 2b 11 3d db 0d 99 3d 6b 02 ed be
       0.29163095 0.035442166 0.07473346 -0.46290907
000010 fb 0f 1c be 64 31 99 3d 36 cc 74 3d 6c 64 c9 be
       -0.15240471 0.07480124 0.059765063 -0.39334428

decoder.4.weight f4 [16, 8]
000000 4c 86 00 be db 10 e9 3b 4e d9 1d bc 3a d7 bc 3d
       -0.1255123 0.007112605 -0.009634329 0.09220739
000010 6c b3 d8 3d c0 5b ef bd 17 30 e7 3e ac 6b 3c 3d
       0.10581097 -0.11687422 0.45153877 0.04600112
000020 cb ef 4c bc d8 2e 49 3e 3d 96 e7 3e 21 64 ab 3b
       -0.012508343 0.19646776 0.4523181 0.005230442
000030 0c f4 b3 bd 1c 17 81 bd 90 ef 08 3f 3e a2 86 3d
       -0.087867826 -0.06303236 0.53490543 0.06573914
000040 8e c3 23 3e ef fd eb be e5 1a bb 3a 09 4c 17 3e
       0.15992567 -0.46092173 0.0014274983 0.14775099
000050 a7 f3 67 bc 1c 4f e7 3d b7 3a d0 3e 17 0a a5 bd
       -0.014157212 0.11294386 0.40669796 -0.08058565
000060 ae 9b a8 3d 8d 64 15 bd d0 a6 44 3c 40 c1 bf be
       0.082328185 -0.036472846 0.012002662 -0.37452126
000070 46 94 7e be 19 c9 8c 3e 39 9c 4a be e5 56 a4 be
       -0.2486125 0.27497175 -0.19786157 -0.32097545
000080 af 63 ed bd bf fb 82 3d 18 c5 a1 3d 58 06 13 3e
       -0.11591279 0.06395673 0.07898921 0.14357889
000090 bf 58 a1 3e a8 81 f3 3d 5c a1 68 3e ed 07 23 3e
       0.3151302 0.11889964 0.22717804 0.15920992
0000a0 24 22 f1 bc 12 61 c3 3c 9b dc b4 3b 5f cf 00 3d
       -0.029435225 0.023849998 0.0055194623 0.031447764
0000b0 e0 4e bb 3c d8 14 e4 3c 8a bb d7 bd c6 27 e1 3c
       0.022864759 0.02784197 -0.10533817 0.027484786
0000c0 d0 a2 32 bd 91 6c f9 bb 37 4f aa 3b 64 1b a2 3d
       -0.0436123 -0.007611819 0.0051974314 0.079153806
0000d0 44 c2 94 3d 04 02 c2 bd 55 f5 9d bd 17 78 8f 3d
       0.07263616 -0.09473041 -0.07712809 0.07005327
0000e0 6a b9 b7 bd ba 79 b5 bd 18 6f 59 3b 30 3b 8e 3e
       -0.08970912 -0.08861108 0.003317779 0.2777953
0000f0 2b d8 27 3e 3d 7e 56 be e2 f9 10 be a0 17 71 3e
       0.16391055 -0.20946594 -0.14157823 0.23544168
000100 6c 5f 7a 3d c9 f7 1d 3e bb f9 0b 3b 4b 44 8c bd
       0.061126158 0.15426554 0.0021358568 -0.06848963
000110 d2 2b 62 bb 04 c8 e0 bd e8 7f 52 bd e6 a8 1c bd
       -0.0034510982 -0.1097565 -0.051391512 -0.03824701
000120 b9 92 bb 3e a5 98 8f 3e 5c cc fd 3e e3 7c df 3e
       0.36635378 0.28046146 0.49569976 0.43649969
000130 56 af fc 3d e5 33 48 3e 76 1a 22 3e cd a1 a5 3e
       0.1233813 0.19551046 0.15830407 0.32350007
000140 c5 46 ec be cb a1 a5 be 0b 3a 33 3e 21 1b 4d be
       -0.46147743 -0.3235 0.1750261 -0.2002988
000150 ea 40 5f 3e 31 60 64 be ad ad 2c 3e 3c 6e c4 be
       0.21802106 -0.22302319 0.16863127 -0.38365352
000160 8f 36 12 3e 4c 9a a0 be 9f 25 fc 3e 84 7c 6f be
       0.14278625 -0.3136772 0.49247453 -0.23387343
000170 94 39 f9 39 d6 6b ae 3c 03 2d a5 3e 3c 71 b4 3b
       0.0004753588 0.021291655 0.32260904 0.0055066627
000180 87 b9 a0 3d b6 fd 80 3c 00 d8 01 bd 48 0a 3d bd
       0.078478865 0.015745979 -0.031700134 -0.046152383
000190 02 ef f5 bc 48 7e ad bc 5d a8 ba bc d4 58 50 bd
       -0.030021194 -0.02117838 -0.02278536 -0.050865963
0001a0 bd 2a be bd 61 02 02 bd 36 c6 b3 3d 9d 0e 64 3e
       -0.092854954 -0.03174055 0.0877804 0.222712
0001b0 97 ee 2e 3e b7 c3 14 be 59 87 1b be 3b de 4e 3e
       0.17083202 -0.14527784 -0.1518835 0.20201962
0001c0 24 d2 28 be eb 18 44 3c 8e da e4 3e 3d 3e f8 3c
       -0.16486412 0.0119688315 0.44697994 0.030303115
0001d0 ff 1b fe bc 09 64 3a bc ce 1e 4e 3f 02 36 c6 bd
       -0.031019209 -0.011376389 0.80515754 -0.0967827
0001e0 2a 0d 13 be 5f 24 01 3d ce d8 08 3e 11 14 39 3e
       -0.1436049 0.031528827 0.13363954 0.18074061
0001f0 2b 9b 2f bd 8a cf 17 3e 87 71 9d 3e ad e3 7f 3e
       -0.04287259 0.14825264 0.30750677 0.24989195

decoder.4.bias f4 [16]
000000 73 18 f6 bd 5e 7e cd 3d 49 14 1c bd 51 9a d3 3e
       -0.12016382 0.10033868 -0.038105283 0.41328672
000010 34 f3 be bd fb e7 3d bd 01 7b ef bd 7f 14 b7 be
       -0.09323731 -0.046363812 -0.11693383 -0.35757825
000020 1a 31 a0 3b 56 3c 7c be 50 bf d0 3d 7c 5e b3 3d
       0.004888666 -0.24632391 0.1019274 0.08758256
000030 43 59 57 bd 68 ef 9c be 68 32 7c bd 8f 75 c3 bd
       -0.05257536 -0.30651402 -0.06157151 -0.09543907

decoder.6.weight f4 [3, 16]
000000 28 81 b0 bd 02 6e 0f bc 23 08 0f 3e cf 22 78 bd
       -0.086183846 -0.008754255 0.13967948 -0.06058007
000010 37 12 aa bd e5 6a 2f bd 9f 0e 8a 3e 38 71 f4 bd
       -0.083042555 -0.042826552 0.2696428 -0.11935657
000020 90 87 db 3e 54 2a ab 3e 9a 20 8f be 10 8f 1f 3e
       0.42876863 0.3343073 -0.2795456 0.15581918
000030 f4 d5 b7 3e aa 67 62 3e d3 f8 03 be a3 75 c8 bd
       0.3590542 0.22109857 -0.12887888 -0.097880624
000040 ae f7 56 3e 59 01 b3 be 1c f4 35 3d 91 f4 f7 be
       0.2099292 -0.34961966 0.044422254 -0.48428777
000050 09 a6 48 3e 73 a6 3f 3e 17 b6 92 3d d5 0e 44 3f
       0.19594587 0.18715839 0.07163637 0.7658513
000060 f2 2a 64 3e 92 20 f3 3e 68 4f 8c be 36 83 84 be
       0.22282007 0.47485787 -0.27404332 -0.25881356
000070 35 67 41 3e b6 b2 12 3f 50 15 fd 3d aa 42 5d 3e
       0.18887027 0.5730394 0.12357581 0.21607462
000080 97 4e 49 be 5a c5 11 bf 6d 62 f9 be 90 35 0c 3f
       -0.19658886 -0.5694176 -0.48707905 0.5476923
000090 e4 ae ef 3d b6 53 5f 3e 8b 80 d0 be 13 94 cd be
       0.117032796 0.21809277 -0.4072307 -0.40152034
0000a0 dc 36 0f 3e 81 1f 02 be b6 b8 cc be fc 4e f3 be
       0.13985771 -0.1270733 -0.39984673 -0.47521198
0000b0 1e 52 8b 3c 19 90 c1 be 6d 0c 05 be 38 70 21 3e
       0.01700693 -0.3780525 -0.12993021 0.15765464

decoder.6.bias f4 [3]
000000 d0 b5 73 bd d0 38 19 bf 47 b4 32 3d
       -0.05949956 -0.59852314 0.043628957
