autoencoders/best_models_cuda/best_model_bone1.pth (torch, 8121 bytes, 15 tensors)

encoder.0.weight f4 [16, 3]
000000 2e e0 84 3d 50 aa d3 3e 78 f2 59 3d 2b f5 6e 3e
       0.064880714 0.41340876 0.05320975 0.23335712
000010 b6 61 14 3f 7a 81 f4 3d 4f 15 ce 3e 11 f0 f2 3e
       0.57961595 0.11938758 0.40250632 0.4744878
000020 88 a4 39 bf d8 d6 5c be 53 31 0d 3d 01 91 ec 3d
       -0.7251668 -0.21566331 0.034470867 0.11551095
000030 cc ed 5f be 01 5f 13 3d d8 a7 f0 3d b1 34 80 3f
       -0.21868056 0.035979275 0.11750764 1.001608
000040 cb c1 f1 3e f9 90 69 bc cc db 44 be 40 a8 10 bf
       0.47218165 -0.014255756 -0.19224471 -0.5650673
000050 26 17 8c 3e 2b 1b 4c be 81 04 07 3d b4 d7 db 3d
       0.2736141 -0.19932239 0.03296328 0.107345015
000060 c4 21 c0 be 07 54 3c bf 1c 6a e4 bd 0a f0 20 3f
       -0.3752576 -0.73565716 -0.11153051 0.6286627
000070 30 c0 24 be 91 78 2d 3d bb 7a 5b be b9 63 10 3d
       -0.16088939 0.04235131 -0.21433537 0.035251353
000080 e1 bd eb 3d d9 2b 50 3e 33 2a e6 be a6 a3 2a bd
       0.11510826 0.20329227 -0.4495407 -0.041659974
000090 a6 b2 33 be 53 84 f6 3e 9e 4f 8e be 4d 9c 76 3e
       -0.17548618 0.4814783 -0.27795118 0.24083062
0000a0 ee 8c 73 3e f1 bd 64 bc f3 ed 8d 3f db f9 3a be
       0.23784229 -0.013961301 1.1088241 -0.18259375
0000b0 50 2a 26 3e 4a fd 9c 3e 3d 9c 49 be 27 93 07 bf
       0.16227078 0.30661994 -0.19688506 -0.5295891

encoder.0.bias f4 [16]
000000 fc e9 c9 3d 68 7b ab 3e 4e 9c dc 3d 89 78 68 bc
       0.09859082 0.3349259 0.10772 -0.014188894
000010 46 e3 6b bc b2 76 08 3e 48 65 9a 3c 3c ba 54 bc
       -0.014397448 0.13326529 0.018847123 -0.012983855
000020 e5 8d 7d be 37 4e 0a 3e 47 9c 66 bc 35 97 55 3d
       -0.2476116 0.13506399 -0.014075345 0.052146155
000030 29 41 d6 3c cf 95 3e 3e ff 74 34 3e 51 a8 26 be
       0.026154118 0.18611835 0.17622755 -0.16275145

encoder.2.weight f4 [8, 16]
000000 ce 6d 53 3e 1b b7 c4 3d 3c 33 23 3e ca 92 29 be
       0.20647356 0.09605237 0.15937513 -0.16559902
000010 82 cb 2d 3d ef 00 3e 3e 92 79 bf be 5f 30 95 be
       0.04243041 0.18555044 -0.37397438 -0.29138467
000020 68 a8 02 bd 01 fd 48 3d fb 2d 06 be 29 4d 44 be
       -0.031898886 0.04906941 -0.13103478 -0.1917006
000030 d3 94 63 3d 39 a1 a1 3e 40 d3 d3 3e 63 35 11 be
       0.05556185 0.31568316 0.41372108 -0.14180522
000040 53 34 7f 3d 8e bf eb 3c 80 4f b9 3e 99 0c c1 3d
       0.06230576 0.028777864 0.36193466 0.09426231
000050 c7 f5 c9 3d 17 5c 9e be 28 f6 86 be d7 27 bc 3d
       0.098613314 -0.30929634 -0.26359677 0.09187286
000060 9d 5e e7 3e 68 80 55 be 13 3f c6 3d dd c9 50 3e
       0.45189372 -0.20849764 0.09679999 0.20389505
000070 92 79 cd 3d ae 22 bf bd 7c 67 89 3d 25 53 32 be
       0.10032953 -0.093327865 0.06709191 -0.1741453
000080 5c b4 71 3b e3 4a 6a 3a cb 8d 9d bd 61 89 eb 3b
       0.0036881184 0.00089375506 -0.076930605 0.0071880077
000090 2f d6 eb 3b ab 9a c4 bd 42 c7 c4 3b 72 f4 e9 3b
       0.0071971635 -0.09599813 0.0060051987 0.007139736
0000a0 85 ff 01 3b 37 0e 94 bd a5 79 eb 3b 4f a0 25 bd
       0.001983614 -0.07229274 0.007186132 -0.040436085
0000b0 dc 6d b2 3b f2 8e 9a bc 2b 63 f0 bd b1 7f 97 bd
       0.005445225 -0.01886699 -0.11737665 -0.07397402
0000c0 92 63 a8 3d 68 90 b5 3e fa 0d 26 3d ed a2 20 be
       0.082221165 0.35461736 0.040540673 -0.15687151
0000d0 5e 4a 5b be 5e 43 c4 3e fa 78 42 be f8 a8 85 ba
       -0.21415088 0.38332647 -0.18991461 -0.0010197451
0000e0 d0 6f cd bd 68 c9 9d bd ee d7 6e be 4c 1c 5a be
       -0.10031092 -0.07704431 -0.23324558 -0.21299857
0000f0 0b f6 11 3e b2 1a bf 3e 0e f2 86 3d ee ee b7 be
       0.14254014 0.37325054 0.06589137 -0.35924476
000100 dd b3 20 3c c7 5a 40 3c 7b 23 8b bc b8 b9 f6 bb
       0.009808508 0.011740393 -0.016984692 -0.0075294636
000110 22 d5 f6 bb bc a7 42 bd f0 b6 a9 3d 59 23 f6 bb
       -0.0075327316 -0.047523245 0.08286846 -0.007511538
000120 d0 64 2d 3e 6c 74 ca 3c 83 b3 f6 bb 8c 98 b0 3d
       0.16932988 0.024713717 -0.0075287237 0.08622846
000130 9e f1 ca bb 00 d2 3f bc d2 a8 5a 3b c0 9d ae 3d
       -0.006193354 -0.011707783 0.0033364785 0.08526182
000140 5a 50 39 3d 26 a1 a7 3c 6d ea 0e 3e f1 66 6b 3d
       0.045242645 0.020462584 0.13956614 0.05747122
000150 32 88 6b 3d 2d 0a b7 be ef 70 b0 bd 0f 89 6a 3d
       0.057502933 -0.3574995 -0.086152904 0.057259616
000160 69 93 2f 3d 5e 35 e9 bd 23 40 6b 3d 9e da e5 ba
       0.04286519 -0.11387132 0.057434212 -0.0017536466
000170 dc 31 59 3d 02 45 4b be 35 8d 5b 3d c4 d2 62 3d
       0.053026065 -0.19850543 0.053601462 0.055376783
000180 5e b9 76 3d 9b 00 de 3d f7 bf 0e 3e 68 9c 36 be
       0.060235374 0.10839959 0.13940416 -0.17833102
000190 7d f4 7c be 63 71 8a 3d 48 4e 8a 3e d0 30 61 be
       -0.2470264 0.06759908 0.2701285 -0.21991277
0001a0 50 1c 3a be e3 e5 5b 3e 4a e6 45 be 33 15 04 3e
       -0.18174863 0.21474414 -0.1932613 0.12898712
0001b0 ae 71 38 be d4 90 7b 3e 2c 08 f2 3e e6 f5 5b be
       -0.18012115 0.24566966 0.4727186 -0.21480522
0001c0 b9 56 1b be 20 db 23 3f a1 00 8b 3e d8 33 66 be
       -0.15169801 0.64006233 0.27148917 -0.22480714
0001d0 3d ea 75 be c0 80 0b bf be e6 20 be d2 76 21 3a
       -0.24015136 -0.5449333 -0.15713021 0.0006159368
0001e0 b6 f8 b2 be 0e be 0d 3d c1 65 13 be 60 1b 94 3e
       -0.34955376 0.03460508 -0.14394285 0.28927135
0001f0 93 00 7b 3e a6 47 98 3e 25 28 32 bd 89 71 0c 3d
       0.24511938 0.29742163 -0.043495316 0.034287963

encoder.2.bias f4 [8]
000000 8e b6 10 3e 6e 2c 8e bd f4 bf 12 bb 0f 0e 57 3e
       0.14132139 -0.06942068 -0.0022392245 0.21001457
000010 b5 ce 9b 3b c4 9f 09 bd 20 50 42 3e 73 0c 25 3e
       0.004754866 -0.03359963 0.18975878 0.1611803

encoder.4.weight f4 [4, 8]
000000 3d 26 73 3e 85 08 73 be 71 d0 ee 3d 87 5e 0e 3e
       0.23745055 -0.23733719 0.11660851 0.13903247
000010 3a 38 92 3d 1c 72 bb be 6c b0 94 3e 0d ef c2 be
       0.071396306 -0.36610496 0.2904085 -0.38073006
000020 59 99 5f 3e 38 8a 84 3e 03 57 54 bf f3 61 68 3d
       0.21835841 0.25886703 -0.8294527 0.056734037
000030 75 34 49 3e 62 5e 13 bf f6 4a 07 3f af c1 83 3c
       0.19648917 -0.5756589 0.52848756 0.016083566
000040 c8 5f be bd d9 18 2a bf 19 a4 18 bf f1 be f4 3e
       -0.092956126 -0.66444165 -0.59625393 0.47801927
000050 65 e1 a7 bd c2 d7 da be 79 43 1d 3f fd 6e 83 3e
       -0.081972875 -0.42742735 0.6143108 0.25670615
000060 75 f7 ed 3e 54 43 d2 bd 50 62 1f bf ce d6 98 be
       0.46477857 -0.10266748 -0.6225939 -0.29851383
000070 6f 1d a3 3c dc f1 1e be 84 bf ad be a1 2f 25 3f
       0.019911496 -0.1552195 -0.33935177 0.645258

encoder.4.bias f4 [4]
000000 c6 94 ff 3d 88 57 30 3e 01 54 46 3e ba a1 31 3e
       0.12479548 0.1722089 0.19367982 0.1734685

encoder.6.weight f4 [1, 4]
000000 3a 7d b8 3d 01 2a 98 3e 97 7a 5d 3f ae e4 c1 3e
       0.0900826 0.29719546 0.8651518 0.3786978

decoder.0.weight f4 [4, 1]
000000 9f 50 fb bc 2d fa ae 3f 0e bc 3a bd 67 35 8a bf
       -0.030678092 1.3670098 -0.0455895 -1.0797547

decoder.0.bias f4 [4]
000000 32 19 23 3f 1f 3d 42 3e 84 9a c0 3e 08 16 5f bf
       0.6371032 0.18968628 0.37617886 -0.8714299

decoder.2.weight f4 [8, 4]
000000 9f 88 a2 3f ad 6d 2d 3f fc 3d e8 3f 70 ef ea 3f
       1.2697943 0.67745477 1.8143916 1.835432
000010 6e c7 7c 3f 71 d4 7c 3f de e2 1f bf 6b 92 68 bf
       0.98741806 0.9876166 -0.62455547 -0.90848416
000020 0d c9 4b be 4a 3a 31 bf df 69 db bd cb b5 03 3f
       -0.19900914 -0.6922957 -0.10713553 0.5144927
000030 43 5f 29 bf ef 96 95 3f 03 a9 c2 bf e3 91 49 bf
       -0.6616098 1.1686686 -1.5207828 -0.7873823
000040 1c 10 49 be 78 06 86 be ab ca eb bd 15 03 d9 3e
       -0.19635051 -0.2617681 -0.11513265 0.42385164
000050 f3 79 14 3f 7e 17 8a 3f 44 3f 44 3e 42 11 a0 3e
       0.5799858 1.0788419 0.19164759 0.31263167
000060 ae 03 66 bf 67 9d 8f 3d f5 e4 18 c0 35 55 87 bf
       -0.89849365 0.07012444 -2.3889744 -1.0572878
000070 a8 99 4e be d9 fa 30 bf 73 b2 de bd e4 53 05 3f
       -0.20175803 -0.69132763 -0.1087388 0.5208113

decoder.2.bias f4 [8]
000000 06 2c 65 bf 0c bb e9 3e 99 0c a2 be 48 af d0 3e
       -0.895203 0.45650518 -0.31650236 0.4075873
000010 f1 0b 99 be e6 58 e8 be c4 d0 92 3f 27 28 a4 be
       -0.29891923 -0.45380324 1.146996 -0.32061884

decoder.4.weight f4 [16, 8]
000000 89 9e 7f 3d 2e b9 bd be de a0 f2 3d 1c ac 99 be
       0.06240705 -0.37055343 0.11847089 -0.30014122
000010 69 d1 d7 3d 7d 83 3c be c2 9f 08 be df c0 f2 3d
       0.10537989 -0.18409534 -0.13342193 0.118531935
000020 3e 40 87 3d 06 35 c3 be 7f c6 fa 3d 7c 5c 9d be
       0.0660405 -0.3812639 0.122448914 -0.30734622
000030 e1 b4 de 3d 36 fb 3f be cd af 0c be 4d e8 fa 3d
       0.10874344 -0.18748173 -0.13738938 0.12251339
000040 43 86 89 3d d6 cf c1 be 01 4d fa 3d 3e c3 9b be
       0.067150615 -0.3785388 0.122217186 -0.30422395
000050 62 27 de 3d 24 71 3d be a6 03 0c be 29 6f fa 3d
       0.108473554 -0.18500191 -0.13673267 0.12228233
000060 74 db 7d 3d b5 99 c1 be 59 0c f6 3d 0d 43 9d be
       0.061976865 -0.37812582 0.12014074 -0.30715218
000070 07 f1 da 3d c4 6d 41 be 57 f9 0a be 6b 2c f6 3d
       0.106905036 -0.18889529 -0.13571678 0.12020191
000080 4f bb 9c 3d 53 ae 00 bc 41 77 5e 3f 14 28 0d 3f
       0.07652914 -0.007854062 0.8690072 0.5513928
000090 1f 92 29 3f fe 8a 10 3f 4d cf 56 be 15 6e 08 3f
       0.6623859 0.56462085 -0.20977516 0.5329297
0000a0 7e cb 7c 3d 53 32 b5 be e8 84 e9 3d ab 24 92 be
       0.061717503 -0.35389957 0.11402303 -0.285436
0000b0 06 89 cf 3d 56 85 32 be e9 f4 02 be 49 a4 e9 3d
       0.10133557 -0.17433676 -0.12788738 0.11408288
0000c0 af 0a b9 be 57 a7 b5 3e 5b 6a 41 be 19 37 32 3d
       -0.36140963 0.35479233 -0.18888228 0.043509576
0000d0 31 f4 8c bf 18 29 a4 bd 7c 3a 94 3f e2 f5 11 bf
       -1.1012021 -0.080156505 1.1580348 -0.5701581
0000e0 e1 39 80 3d b2 3c b4 be da 45 e9 3d 7b ff 90 be
       0.062610395 -0.35202557 0.11390276 -0.28319916
0000f0 e9 34 cf 3d db a6 30 be d4 81 02 be 83 65 e9 3d
       0.10117514 -0.1725115 -0.12744838 0.11396315
000100 1d ed 11 3f 52 55 cf 3e 67 10 11 3f 22 60 69 3e
       0.5700243 0.40494782 0.56665653 0.22790578
000110 94 9c c7 3e c0 10 f1 3e 4c e7 0f bf 1d 57 71 3f
       0.38986647 0.47083092 -0.56212306 0.9427355
000120 3d 13 b4 be db b1 ef 3e 8a 22 86 bf a8 48 77 3d
       -0.35170928 0.4681538 -1.047929 0.060372025
000130 6b a9 86 bf 47 e2 e3 bd 6d 64 4a 3f cc 8d 4a bf
       -1.0520452 -0.11127143 0.7905949 -0.79122615
000140 a7 ce 87 3d 24 a2 c6 be de 66 fe 3d fb 5f a0 be
       0.06631213 -0.38795578 0.12421964 -0.31323227
000150 71 fd e1 3d 32 f5 43 be a3 f1 0e be ed 88 fe 3d
       0.11034668 -0.19136503 -0.13959365 0.1242846
000160 da 50 85 3d 65 9a b6 be f5 88 ed 3d 7c 4f 92 be
       0.06509562 -0.3566467 0.11598388 -0.28576267
000170 ff c2 d2 3d 48 74 31 be b2 71 04 be bc a9 ed 3d
       0.10291099 -0.17329514 -0.12933996 0.1160464
000180 d0 5b 85 3d e8 71 bb be d9 65 f2 3d a0 b0 96 be
       0.065116525 -0.3661034 0.11835832 -0.2943163
000190 0a 37 d7 3d af 62 37 be 4f 94 07 be dc 86 f2 3d
       0.10508545 -0.17908739 -0.13240169 0.11842129
0001a0 6e b1 be bf 49 7f cf bd 29 d0 09 c0 1d a9 30 3f
       -1.4897897 -0.101316996 -2.15333 0.69008046
0001b0 35 d9 b2 bf 1f 08 92 be f5 a9 a5 3f 0d 9d 10 c0
       -1.3972536 -0.2852182 1.2942492 -2.2595856
0001c0 4b ab 88 3d a5 55 bc be 48 8a f4 3d 79 f6 96 be
       0.066732965 -0.36784092 0.119404376 -0.2948492
0001d0 3e f5 d8 3d 0d 22 37 be 41 6e 08 be f9 ab f4 3d
       0.10593651 -0.17884083 -0.13323309 0.11946864
0001e0 8f 4f 24 3e cf a0 f8 3e 99 e0 15 bf 6c 66 93 be
       0.16045974 0.48560187 -0.58545834 -0.2878908
0001f0 58 aa f3 be ab 04 a2 3e b9 4e 1d 3d 89 30 f4 be
       -0.475909 0.31644186 0.038405154 -0.4769328

decoder.4.bias f4 [16]
000000 12 ea 94 bd 0f 99 99 bd 28 6a 99 bd 3a c2 96 bd
       -0.07271208 -0.07499897 -0.07490951 -0.073612645
000010 d2 d3 28 bf 0e 6e 8f bd 2e 33 cf 3e 1c 56 8f bd
       -0.6594821 -0.07003413 0.40468735 -0.06998846
000020 38 4c 44 bf 80 5a 38 3f 70 be 9b bd 77 dd 91 bd
       -0.766788 0.7201309 -0.076046824 -0.07122319
000030 be c1 94 bd b2 89 e2 3f 36 0c 96 bd 10 f7 88 3e
       -0.07263516 1.7698271 -0.07326548 0.26750994

decoder.6.weight f4 [3, 16]
000000 26 13 1d 3f 6e 0e 3f be 81 be 98 3d d7 c8 38 3e
       0.61357343 -0.18657848 0.07458211 0.18045364
000010 b2 ec 5f 3e 98 ec 26 bb ba a1 02 3f b1 30 2d 3d
       0.21867636 -0.002547061 0.51028025 0.042282764
000020 92 9a cc 3d be a3 87 3d d5 9c 61 bd 4e 4e d5 bd
       0.099904194 0.06623028 -0.055081207 -0.10415326
000030 5b da f1 3d 86 0b 73 3f 24 4f 98 3d f0 37 a7 be
       0.11809226 0.9493946 0.0743697 -0.32659864
000040 47 57 7e 3f f6 34 c5 3f fd 49 b3 3f a7 2d a5 3f
       0.99351925 1.5406787 1.4006954 1.2904557
000050 8f 3b 1f 3e 26 53 76 3f 12 34 22 be c2 a7 6d 3f
       0.15550064 0.96220624 -0.15840176 0.92834103
000060 81 8e c4 3e d1 cf 4d bd 85 fd d1 3f f3 13 89 3f
       0.38389972 -0.050247017 1.6405493 1.0709213
000070 39 28 91 3f b4 c1 79 bf 89 3e 99 3f 82 4e ac 3d
       1.13404 -0.9756119 1.1972209 0.08413412
000080 2b ac 0c 3f 9f a8 11 3f 63 d2 63 3f 81 6f 14 3e
       0.5495021 0.5689792 0.889929 0.1449566
000090 25 cb 53 3e 78 1b c5 3e 5c 43 b2 be 74 a7 00 3f
       0.20682962 0.3849752 -0.34817016 0.50255513
0000a0 b5 8b c4 3e 7b 7e 18 bf 51 12 13 3f 68 a5 28 3f
       0.38387838 -0.59567994 0.57449824 0.6587739
0000b0 31 87 38 3f d5 30 09 bf e4 c7 63 3f 5e 05 a3 be
       0.72081286 -0.53590137 0.88976884 -0.31840032

decoder.6.bias f4 [3]
000000 f3 ad 4c be 8b 38 86 bf a7 31 03 bf
       -0.19988231 -1.0486006 -0.5124764
