autoencoders/best_models_cuda/best_model_bone7.pth (torch, 8121 bytes, 16 tensors)

encoder.0.weight f4 [16, 3]
00000000: 0c66 98be fc59 0a3f 61d4 f6bd cea4 8e3f
00000010: ffe5 f8be 1ef7 d9be 76e9 903e 1f2f b6be
00000020: 556a 1cbd 01a3 a7be c883 963f f867 3e3d
00000030: 8284 b3be 3ef0 ea3d eede 153e 3b60 153e
00000040: 556f 93bd 33e4 f5be 7ad0 22be 14dd 95be
00000050: 3adb b2be ea43 133e b046 52be eff6 4c3d
00000060: 218c 013f bd86 31bf cfab bc3e 99c1 063f
00000070: 9205 01bf 40b3 443e 6ad3 6fbb 35f4 6cbe
00000080: a433 653d 3359 92bf 31a5 fe3c 5e71 3e3c
00000090: 0a0e f9be a13c bbbe d8e9 80be 244e 4b3f
000000a0: 659d d6be 2406 b3bc 3bef 8c3d 9f5d a93e
000000b0: e9c8 923f cd5f a0bd b6eb 60be 2b87 af3c
-0.29765356 0.54043555 -0.12052227 1.1144044 -0.48612973 -0.42571348 0.28303117 -0.35582826
-0.038187344 -0.3274155 1.1758966 0.04648587 -0.35062033 0.11471604 0.14635822 0.1458749
-0.07198969 -0.48025665 -0.1589984 -0.29270232 -0.34932882 0.14381376 -0.20534778 0.05004018
0.50604445 -0.6934622 0.3684983 0.52639157 -0.50399125 0.19209003 -0.0036594518 -0.23140033
0.05595745 -1.1433471 0.031084629 0.0116237085 -0.48643523 -0.36569694 -0.2517841 0.7941611
-0.41916957 -0.021853514 0.06881567 0.3307924 1.1467563 -0.078307725 -0.21964917 0.021426758

encoder.0.bias f4 [16]
00000000: 7552 333d 5ed7 98bd 7326 9cbe 9e9e 4abd
00000010: 737d c53e 72ee 9ebe 07ad 2abe 0ced 89bd
00000020: e998 06bf eb37 09bf 57fc 1b3e 5ddf 2e3e
00000030: 90f5 803d 38c2 35bf cb31 6fbd 0422 e53c
0.04377981 -0.07462953 -0.30498084 -0.049467675 0.38572273 -0.31041294 -0.16667567 -0.06734666
-0.5257707 -0.5360095 0.15232979 0.17077394 0.06296837 -0.7099948 -0.058397096 0.027970321

encoder.2.weight f4 [8, 16]
00000000: edaf 62be 1a5d 85bd 7829 a9bd baa9 70bc
00000010: 48c8 e7be 6546 123e 5c0c fcbc e728 59be
00000020: add5 833e c5eb 5bbe 33f9 b2be b702 ae3d
00000030: 4102 1d3e 87ed e73d 155b ff3d a8e4 51be
00000040: 7836 943e 59d8 e23d 67d3 fabd 8449 733e
00000050: 1b91 c9bd 1e85 313e c5ac 82be b8ac c1be
00000060: dd9b 23bf 0392 b9be d774 1dbe c601 a23e
00000070: 3f96 7f3e 7858 80be 8587 8a3e 417d 0ebf
00000080: 53ff 623e 4106 943e a199 0f3f bca5 a23e
00000090: 82af 723e d114 34be 5d9c 00be 2346 b43e
000000a0: d37e 63bd 39ce a53d f473 03bf a249 c2be
000000b0: 09d8 81be b6e2 653d 3155 c9be 84c8 73be
000000c0: 1348 ac3e 4c8e c33e 8751 173e fad7 d9b9
000000d0: 8fba 443e cc25 c53e c3fe 1b3e 219a 193e
000000e0: 1b8d 753e 40b6 953e 6305 b83c 50d5 00bf
000000f0: 0eb7 ac3d 794c b43c 2338 97bd 6ca7 fd3c
00000100: fac0 693e 316a b73e ea39 6bbd 4607 4fbe
00000110: 5494 1bbe 5cab 6c3d 59d8 a43e a7a2 10be
00000120: f65f 8f3e 4ba9 0ebf 09c3 9dbe e17d 553e
00000130: faf5 093e 6bd0 e3bd 3fcc f3bd 5874 233e
00000140: a256 8cbe 8046 4dbe e97a ff3e a761 aa3d
00000150: 8ae1 4abf adae 603e 4049 d23e b5e1 44be
00000160: 529a e53d c715 d33e c03a 793d 185a 413c
00000170: ab1b 55be 02b7 ba3e 3d05 9c3d 34b1 f9bd
00000180: 951e d6bd 1bd7 053f b0ea 98be 9f39 65bc
00000190: 75ff cb3e dc32 003e cf6e e7be b836 863e
000001a0: 38f4 80bd 8ff5 24be 4a60 50be 1d5b 223e
000001b0: 6956 28bf b04e 3f3e 54c1 e7bd 4689 ed3d
000001c0: e583 0f3e 169f 893e c55b 563e c58f 253e
000001d0: 25ad f9be 7bb8 3abc 3181 ad3e 2d0f ecbe
000001e0: ef4b d2bd bd53 1fbd 7d7a b83e 71a4 843c
000001f0: 124c c4be ccc4 57be 849a 16be 537c 16be
-0.22137423 -0.06511898 -0.08259863 -0.0146889035 -0.4526999 0.14284666 -0.030767612 -0.2120701
0.2574896 -0.21476658 -0.3495575 0.084966116 0.15332891 0.113246016 0.124685444 -0.20497382
0.28947806 0.11076421 -0.12247353 0.23758513 -0.0984213 0.17335936 -0.25522438 -0.37827086
-0.63909703 -0.3624421 -0.15376602 0.31641978 0.24959658 -0.25067496 0.27056518 -0.5565987
0.22167711 0.2891102 0.56093794 0.3176707 0.23699763 -0.17586066 -0.12559648 0.3520976
-0.05554087 0.080959745 -0.51348805 -0.37946802 -0.25360134 0.05612441 -0.39322808 -0.2380696
0.33648738 0.381945 0.14777194 -0.0004155038 0.19211791 0.385054 0.15233903 0.15000202
0.23979609 0.29240608 0.022463506 -0.5032549 0.084333524 0.022009121 -0.07383754 0.030963622
0.22827521 0.35823205 -0.057428278 -0.20217618 -0.15193301 0.05778061 0.3219631 -0.14124547
0.280029 -0.5572707 -0.30812863 0.208488 0.13472739 -0.11123737 -0.11904191 0.1596235
-0.27409846 -0.20046425 0.4989846 0.08319407 -0.79250395 0.21941634 0.4107151 -0.19226725
0.11211075 0.41227552 0.060847044 0.011801265 -0.20811336 0.3646775 0.076181866 -0.12192002
-0.10455052 0.5228135 -0.29866552 -0.013990789 0.39843336 0.12519401 -0.45201728 0.26213622
-0.06296581 -0.16109298 -0.20349231 0.1585507 -0.6575685 0.1868236 -0.11316171 0.115984485
0.14015158 0.26879185 0.20933445 0.16168125 -0.4876491 -0.011396523 0.33887628 -0.46105328
-0.102683894 -0.03889822 0.3603095 0.016191693 -0.38339287 -0.21071166 -0.1470738 -0.14695863

encoder.2.bias f4 [8]
00000000: 8d43 04bd 36cc 333e 0759 e23b 399f 0bbe
00000010: 97b1 cc3d fad5 93bc 9cc4 613d cff2 9a3d
-0.032290984 0.17558369 0.0069075855 -0.13634957 0.0999481 -0.018046368 0.055119142 0.07565843

encoder.4.weight f4 [4, 8]
00000000: 8540 42be 51d2 023f 769f 9abd 096c 7ebe
00000010: 03a7 e03e bb64 84be d964 2bbf b711 33bc
00000020: f94c 5c3e 4ee4 32bd f4ad b7bd ce5c 96be
00000030: 5f6b 27bd 7dab 91bd e36b 6fbf b141 123f
00000040: a74f 0bbf 484b 1a3f daa8 3e3f 5ec5 efbc
00000050: 4d84 883d 5a8b 7a3e 4de7 113f 7c0d 4dbe
00000060: f448 41be 7e55 d5bd 95de 32bd b1f0 0f3f
00000070: 7b5c 25bd 3781 b7be 6b47 ac3d d069 64be
-0.18969925 0.5110217 -0.07549946 -0.248459 0.4387742 -0.258581 -0.66950756 -0.0109295165
0.21513738 -0.04367476 -0.08968726 -0.2936768 -0.04087388 -0.07112787 -0.93524 0.5713149
-0.54418415 0.6027112 0.744764 -0.029268917 0.06665859 0.24467221 0.5699356 -0.20024675
-0.18875486 -0.10416697 -0.043669302 0.5622664 -0.0403714 -0.3584077 0.084120594 -0.2230599

encoder.4.bias f4 [4]
00000000: f413 a83e bcb0 88bc b5e8 3ebe 1ee3 07be
0.32827723 -0.016685836 -0.18643458 -0.13270232

encoder.6.weight f4 [2, 4]
00000000: 9818 84bd 0b0f 28bf 49e9 0ebf edfa 1fbf
00000010: 70d6 e0be 0b76 843f b332 dc3e 9733 b43f
-0.064500034 -0.65647954 -0.55824715 -0.6249226 -0.43913603 1.0348524 0.4300743 1.4078244

encoder.6.bias f4 [2]
00000000: b9e5 4fbe 1459 9ebe
-0.20302476 -0.30927336

decoder.0.weight f4 [4, 2]
00000000: 5d97 0fbf fd33 8bbe f9f8 d2bb 8313 f7bd
00000010: e162 01bf a608 21bf 6f30 223f afac 713e
-0.5609034 -0.271881 -0.0064383713 -0.120642684 -0.505415 -0.6290382 0.63355154 0.2360103

decoder.0.bias f4 [4]
00000000: 957f 443d b1d5 4b3f d935 0b3e da90 52be
0.047973234 0.7962294 0.1359476 -0.20563069

decoder.2.weight f4 [8, 4]
00000000: 6c99 dfbc 44ac 153e 14ce dd3e 81e7 863f
00000010: 5748 1f3e 8c9e 41bf 1f4e 01bf 087c 0ac0
00000020: c841 863f 8569 7f3c d767 513e 7f8c 723f
00000030: fc53 343e 6944 79be 4826 31be 1c3b abbf
00000040: 36fa 513e 4299 32bf 6623 72bf eda5 82bf
00000050: 70b4 1cbe 4fb6 683d bdbe 623f 08c0 903e
00000060: cdc8 633e fb05 89be 5f91 83bf d5b0 73bf
00000070: 2820 2cbf 068e 5ec0 aa4c 9ebf fd7f 8b3f
-0.027294837 0.14616495 0.43321288 1.0539399 0.15554939 -0.7563255 -0.5050983 -2.1638203
1.0488825 0.015589123 0.20449768 0.9474563 0.17610162 -0.24342503 -0.1729976 -1.3377414
0.20505604 -0.697651 -0.94585264 -1.0206887 -0.15303206 0.056814488 0.88572294 0.28271508
0.22244568 -0.26762375 -1.0278739 -0.951917 -0.67236567 -3.4774184 -1.2367146 1.0898434

decoder.2.bias f4 [8]
00000000: 9e5a c2be 31e4 f63e 6a88 d2be 0e0b 973e
00000010: 8f4a 313f 9fef 75bf a12b d13e 93bf a4be
-0.3795976 0.4822097 -0.411197 0.29500622 0.6925439 -0.9606876 0.408536 -0.3217741

decoder.4.weight f4 [16, 8]
00000000: 2fb9 34bf 2580 573f a326 cf3e eb0b 653f
00000010: cbd0 1b3f 8171 4d3e ba26 413f d007 4e3f
00000020: 88ba adbe 93b5 09be 7b18 093e c641 3f3f
00000030: da1b e0be c5c7 463f 558d 62bf 0b55 3dbf
00000040: d4c1 073e 5df2 8c3e 90e8 21be d9e9 f93b
00000050: b673 adbe 9d02 103f e1e2 8abe fc85 1cbf
00000060: 4acc eebe f26a 633e 24f1 78bf 4948 c53e
00000070: 8280 a7bd e6d9 90bb 6b10 8abe 1020 1fbf
00000080: 04db a6be 637b 093d 1082 48bf e649 403e
00000090: a60e 723f b032 fbbd 8b2c a13e 47b7 383e
000000a0: bdd8 33bf 457e ce3e 15ac a8be ca3e 1d3d
000000b0: 9b51 303f e447 acbd f7ef 583f 6d4f 143f
000000c0: cae5 6a3e d8da 2ebf ce1a 95bf fcdf 4abf
000000d0: 0cb3 023f 2177 62bf e28e 073f ede3 cc3e
000000e0: 5c18 c9be 78e2 863f 0771 2cbe dc51 013f
000000f0: f918 b1bd 9ba1 2ebd be7d 873e ad9a 3d3f
00000100: 967e f3be fb82 1d3f b5d4 823e 5a77 513f
00000110: 63c2 783e 950d b3bd 7b9a e93e 5081 e23e
00000120: ae9d b53e 9970 c7bd ff84 0440 04af 8d3e
00000130: 123e 6b3f 17ef 083e 7b6e fd3d 2e11 dabe
00000140: 3acd b4be 487e 0d3e 3b59 febd 9dfd 753d
00000150: 0d21 f13e 53d5 573c 0dbb e73e 9701 903e
00000160: e00f 24be 7d43 8a3e 21bc 01bf edde c33e
00000170: dcf0 353f 5804 f5bd 45bc 433f e8ce 7d3f
00000180: 030f 31bf f99e 3a3f c5ef b83e 7a2d a63f
00000190: 1f5a 2e3f f9d9 bfbe 4113 403f 2746 8a3e
000001a0: afb4 16bf 2e55 363f ccb7 83be f915 2c3f
000001b0: 91b4 ac3e b834 53bf 7d65 4a3e 3eb4 9e3e
000001c0: 3447 6e3d 8dde 0ebf e0f7 54bf 1d8f 21be
000001d0: e947 30bf 47be 083f e275 10bf a58d a5be
000001e0: f78d 09bf a243 253f e194 a53e 722c 783d
000001f0: 7045 033f 4775 eebe cd46 6c3f 96de cd3d
-0.7059507 0.8417991 0.40459165 0.8947131 0.6086547 0.2006283 0.7544972 0.8048067
-0.33931375 -0.13448171 0.13388245 0.7470974 -0.4377125 0.77648574 -0.88496906 -0.7395789
0.13257533 0.27528659 -0.15811372 0.0076267538 -0.33877343 0.5625399 -0.2712622 -0.61141944
-0.46640235 0.22208765 -0.9724295 0.38531712 -0.08178808 -0.004420507 -0.2696565 -0.621583
-0.3258897 0.033564936 -0.7832346 0.1877819 0.945536 -0.12265527 0.31479296 0.18038665
-0.7025259 0.4033071 -0.32943788 0.03838996 0.6887452 -0.084121495 0.8474116 0.57933694
0.2293922 -0.6830268 -1.1648805 -0.79248023 0.51054454 -0.88463026 0.52952397 0.40017644
-0.39276397 1.0537863 -0.16839992 0.5051553 -0.08647341 -0.042634588 0.2646312 0.7406414
-0.47557515 0.61527985 0.25552908 0.8182274 0.24292903 -0.08742825 0.45625672 0.44239283
0.35471863 -0.09738273 2.0706174 0.2767259 0.91891587 0.13372456 0.12374588 -0.42591232
-0.35312825 0.13817704 -0.12419363 0.060056318 0.47095528 0.013173419 0.45259896 0.28126213
-0.16021681 0.27004614 -0.50677687 0.38256016 0.7107065 -0.11963719 0.7645915 0.9914384
-0.6916353 0.72898823 0.3612043 1.2982628 0.68106264 -0.37470987 0.7502938 0.27006647
-0.5886945 0.71223724 -0.25726163 0.6722103 0.3373151 -0.8250232 0.19765277 0.3099689
0.058173373 -0.55808336 -0.8319073 -0.1577725 -0.68859726 0.5341534 -0.56429875 -0.3233463
-0.53732246 0.64556324 0.32340148 0.06058926 0.5127783 -0.4657385 0.92295533 0.100522205

decoder.4.bias f4 [16]
00000000: fdc2 9c3e ae7b 683e 6712 06bb 2003 143f
00000010: 2d4b f23e 81ef ba3e da8c dc3e 72f0 b23e
00000020: 1529 8a3e 41e3 9abd d6a9 8e3e d8b4 873e
00000030: 1dc6 b33e a8b2 713e bc73 163e 47e9 8c3e
0.30617514 0.2270343 -0.0020457746 0.5781727 0.4732298 0.36510852 0.4307621 0.3494907
0.26984468 -0.075628765 0.2786395 0.2650516 0.35112086 0.23603308 0.14692587 0.27521726

decoder.6.weight f4 [3, 16]
00000000: 8ebb ee3d 5093 83bc b60a 8cbd 135b 9ebd
00000010: 44e7 9abd 1d1e 73bc bbf9 c2bd 34aa 6ebe
00000020: c862 2f3e a16f af3c e287 fbba 5e8e d13c
00000030: d178 89bd 6f86 2d3d 92a4 fbba 445e f9bc
00000040: e542 113e 3607 343e 85f6 12be 1eb2 9fbf
00000050: 1301 5bbf a5bf 5abe 0195 e1bf 2714 f4be
00000060: 39d1 4e3e 8ebc a53f 74a3 66be 6b43 a0be
00000070: 07c1 a83e 580f a3bc d67e 373f 71b4 f53e
00000080: 34d2 07bf 69de 503f 7050 903f 48ac 123e
00000090: d270 4fbe 0250 0abf 6c81 ab3e f5d0 37bf
000000a0: 2d70 43bf 0536 d83d 7d00 83bf c541 23bf
000000b0: 971e c9be 8d36 0ebf b540 ca3e 12fd 3abf
0.11656867 -0.016061455 -0.068379804 -0.07732215 -0.07563642 -0.014838723 -0.095202886 -0.23307115
0.17127526 0.021415533 -0.0019190277 0.025580581 -0.06712497 0.042364534 -0.0019198826 -0.030440457
0.14185674 0.17580876 -0.14351852 -1.2476232 -0.85548514 -0.21362169 -1.7623597 -0.47671625
0.20197 1.2948167 -0.2252329 -0.31301436 0.32959768 -0.019904777 0.7167791 0.47989228
-0.5305512 0.8158937 1.1274548 0.14323533 -0.20257881 -0.5402833 0.3349718 -0.7180322
-0.7634304 0.105571784 -1.0234524 -0.6377223 -0.3928115 -0.5555199 0.39502493 -0.73042405

decoder.6.bias f4 [3]
00000000: b0b3 17bf eb08 83be fbac 70be
-0.59258556 -0.2559274 -0.23503487
