autoencoders/best_models_cuda/best_model_bone3.pth (torch, 8121 bytes, 15 tensors)

encoder.0.weight f4 [16, 3]
000000 1b b9 3c 3e d2 e4 3d bf 25 4e b7 be d9 f5 27 be
       0.18429987 -0.7417728 -0.35801807 -0.16402377
000010 2f be 8b bc 8e c0 e8 be a2 9e bf be de 73 a6 3e
       -0.01705846 -0.45459408 -0.37425715 0.32510275
000020 77 1e bd bd 0f 4f 5d 3f ed 4a c8 be 5e bb 4a 3f
       -0.09234326 0.8644876 -0.39119664 0.7919215
000030 a4 8a 80 3f 53 df e4 3e 49 ac 04 be 3f db d5 be
       1.004231 0.44701633 -0.12956347 -0.41768834
000040 72 b7 77 bd 40 af ef be bb eb cd 3e d3 38 78 bf
       -0.06047768 -0.46813393 0.4021891 -0.96961707
000050 64 6e c9 3d 22 65 28 3e 42 db 50 3f 5b 8c dd 3e
       0.098355085 0.16444829 0.8158456 0.43271145
000060 1c e0 3d be d5 f8 0f 3e bf 24 1d bf be 38 ed 3e
       -0.18542522 0.14059766 -0.61384195 0.46332353
000070 80 4a 3b be 0b 89 18 be 0f ac de 3d 1c 7b 34 3e
       -0.18290138 -0.14896028 0.10872661 0.17625087
000080 c4 8b 0c be de 9b 19 3f a3 bf 74 bc 1f da 24 3e
       -0.13725191 0.6000346 -0.014938268 0.16098832
000090 b2 1a 42 be e0 30 b4 be b0 2b cd 3c 18 f2 dc bd
       -0.18955496 -0.3519354 0.025045246 -0.10788363
0000a0 c6 df 38 3f 4e b8 90 bf e0 43 15 be 9b 93 f7 3e
       0.7221645 -1.1306245 -0.14576674 0.48354802
0000b0 86 6d 0b bf bc c3 a5 3e 17 de 7b 3e 32 5f 09 3f
       -0.54463995 0.32375896 0.2459644 0.5366088

encoder.0.bias f4 [16]
000000 3c 4c 8e 3e 22 e8 ba 3d 17 64 1f bd d4 8b 34 bd
       0.27792537 0.09126307 -0.038913812 -0.044078663
000010 e7 42 c1 3d ac 0e 8e 3c 48 0b 88 bd 40 c7 f9 bd
       0.09436589 0.01734098 -0.06642777 -0.12196207
000020 b5 cc 21 3d 89 41 33 3e c6 41 44 3e 41 8c 04 bc
       0.039501864 0.17505468 0.19165716 -0.00809008
000030 e0 40 ae 3d d6 ca 91 bc d6 e4 36 bc 82 de 6e be
       0.08508468 -0.017796915 -0.011162957 -0.23327067

encoder.2.weight f4 [8, 16]
000000 fb d6 62 3e ba 00 1f 3e 59 5e 31 be 96 4f 3e 3e
       0.22152321 0.15527621 -0.17321147 0.18585047
000010 34 d8 76 3d e8 3a 3f 3e bd f3 22 be f2 1a 74 bd
       0.06026478 0.18674815 -0.15913291 -0.05959601
000020 ee f3 29 3e 99 7e a5 3e 6a 32 87 3d 82 00 74 3e
       0.16596958 0.3232315 0.066014126 0.23828319
000030 1a 71 8a 3e a1 07 af 3e c0 00 ab 3e f8 62 dc be
       0.27039415 0.34185508 0.3339901 -0.43044257
000040 eb 6a c4 3c b3 e6 9d 3d 3e b7 d1 3d e8 e9 be 3e
       0.023976764 0.07710018 0.10240029 0.3728783
000050 9c 45 90 bc c4 19 a6 bc ac 88 a5 bd 9f c0 c9 3e
       -0.017611317 -0.020275958 -0.08082709 0.3940477
000060 d7 2b cb bd f5 b9 01 be 9b 30 1e 3e 73 f3 3e 3e
       -0.09920471 -0.12668593 0.15448229 0.18647556
000070 d1 07 ae 3d c4 41 bc bb fd 9d 20 3e f8 91 82 3d
       0.084975846 -0.0057451446 0.15685268 0.063754976
000080 e9 33 05 be 78 76 22 3e 63 db 93 3b 48 d5 3b 3e
       -0.13008083 0.15865505 0.004512237 0.18343079
000090 f7 a6 68 be 53 20 ef 3b 63 7b d4 3a 2c f0 b8 be
       -0.22719942 0.0072975545 0.0016211089 -0.36120737
0000a0 80 f7 8b be b0 29 b3 be 70 c3 0b be a3 22 4c 3d
       -0.27337265 -0.34992743 -0.13648772 0.04983772
0000b0 a2 1e 3e bd a2 5c b5 bd 79 de 1e 3f 7c bf f9 3d
       -0.046415932 -0.08855559 0.62058216 0.12194726
0000c0 05 ed 99 bc a1 f6 02 3e c2 83 c3 bd ee f7 98 3d
       -0.018789778 0.12789394 -0.09546615 0.07469164
0000d0 b9 cc 7f be 77 4d b0 bd c6 15 95 bc bd 97 35 bb
       -0.24980439 -0.08608525 -0.018198859 -0.0027708851
0000e0 eb 6b b3 bd e6 fe 80 bd 9a 4e e4 bd 12 cd 08 3e
       -0.08760818 -0.06298618 -0.111478046 0.13359478
0000f0 d8 6d 74 3c 90 c1 c0 3d 13 ec 16 3f 05 19 0b 3e
       0.014918767 0.09411919 0.5895397 0.13583763
000100 61 21 b9 be e8 07 72 be ae 75 1c be 2b ee 6e be
       -0.3615828 -0.23635828 -0.15279266 -0.23333041
000110 38 bd b9 3d 30 c8 b0 3d 90 12 5d 3e 62 bb af 3e
       0.09069294 0.08631933 0.21589112 0.3432265
000120 97 54 36 3e b4 60 c3 3d 1e be 0d be cf 94 00 3f
       0.17805706 0.09539929 -0.13842055 0.50227064
000130 c0 16 d3 3c b4 46 80 bd 40 b7 ac be ed 36 a1 3d
       0.025767684 -0.062634856 -0.3373356 0.078718044
000140 ea b0 21 3d a5 af 12 3e 96 2a 44 3a 2d e5 9c be
       0.03947536 0.14324816 0.00074831524 -0.30643597
000150 f2 95 29 be 6f bd e1 3d b5 51 3d be 9f aa 38 3d
       -0.16561106 0.1102246 -0.184882 0.045084592
000160 cb 57 0f 3f 93 1c ad 3d a4 b4 27 be f4 f8 98 bd
       0.55993336 0.08452716 -0.16377503 -0.07469359
000170 ee 57 8f b9 d4 89 0a 3d 61 45 71 3d 7d 53 78 3b
       -0.00027340598 0.03382285 0.058904056 0.003789156
000180 dd 4d c8 be 63 4f 25 3e 1b a3 59 3e 47 df 88 3d
       -0.39121905 0.16143565 0.21253626 0.06683212
000190 8c 3c 80 be 1e ff 66 3e 65 00 3c be e8 ec df 3c
       -0.25046194 0.22558257 -0.18359526 0.027334645
0001a0 27 af ca 3d 62 ae 01 bf 83 a0 d4 bc c1 2b 73 3c
       0.09896689 -0.5065671 -0.025955444 0.014841975
0001b0 b3 3f 1f be a2 b6 96 3e a1 c1 b0 bd 21 16 bf 3e
       -0.15551643 0.29436213 -0.08630682 0.3732157
0001c0 0a 00 65 bd 70 4b 80 3e cd 7d bd be bb 07 e4 3b
       -0.05590824 0.25057554 -0.3701004 0.0069589294
0001d0 d7 ce 9a 3e 97 40 3c 3e a2 69 50 3d 1e 81 b1 3c
       0.3023593 0.18384014 0.05088199 0.021668013
0001e0 76 5d a8 3c 2c e7 42 be b4 ee 86 3e 7a 15 ba bd
       0.020552378 -0.19033498 0.2635399 -0.090861276
0001f0 bc 3e 49 3e 9f 69 85 3d 21 82 38 bc 5a b5 af 3e
       0.19652838 0.06514286 -0.011261494 0.34318048

encoder.2.bias f4 [8]
000000 4b 2e 1d 3e 0c 9a 3c be 6a 4a 84 bd da e8 36 3d
       0.1534969 -0.18418139 -0.06459506 0.04465566
000010 80 da fc bc be dc 67 bc cc 7b 4f bd 81 4a ae 3d
       -0.030865908 -0.01415175 -0.05065517 0.08510304

encoder.4.weight f4 [4, 8]
000000 0b 2e 08 3e af c7 22 3e af 9c 93 bd bc ff 52 3d
       0.13298814 0.15896486 -0.072076194 0.05151342
000010 39 f9 d8 be 14 4e c5 bd e0 8f c8 be 02 40 26 bb
       -0.42377642 -0.09634033 -0.39172268 -0.0025367741
000020 ab c8 42 3e 48 59 26 bf 58 4f 83 3e 75 90 69 3e
       0.19021861 -0.6497998 0.25646472 0.22809012
000030 b2 b3 3b 3f 1e 9a 3b 3e 50 b9 94 3d 98 d3 10 3e
       0.7332107 0.1832051 0.07261908 0.14143217
000040 30 d1 83 3a 4a a8 5f be 31 d6 c1 3c a6 6d f7 bd
       0.001005685 -0.21841541 0.023661705 -0.12081461
000050 f1 56 fb 3d d6 fe 6b be 2a 99 e7 be f4 c8 55 3e
       0.12272442 -0.23046431 -0.45234042 0.20877439
000060 3a c9 e9 3e c9 96 6e 3e c0 62 a0 be b7 bd 3a 3d
       0.45661336 0.23299707 -0.3132534 0.045591082
000070 6b ff 08 bf 41 2b 88 3e ce 9d 28 be 72 d6 1d 3e
       -0.53514737 0.265955 -0.16466448 0.15413836

encoder.4.bias f4 [4]
000000 2d c1 7e bb e5 e5 2f 3e 4a 76 82 3d 4f 1a 07 3e
       -0.0038872466 0.17177542 0.06370218 0.1319363

encoder.6.weight f4 [1, 4]
000000 34 b9 37 3d 9b 42 df 3e 67 6e ed 3e a8 bc 07 3f
       0.044854358 0.43605503 0.46373293 0.5302224

decoder.0.weight f4 [4, 1]
000000 5d c6 a6 3e 61 df 9b 3f 88 4d 39 3e 18 a1 7e 3e
       0.32573214 1.2177545 0.18095982 0.2486614

decoder.0.bias f4 [4]
000000 6c 63 f5 be 04 0b b5 3e 24 6b 2a bf af 0b 11 bf
       -0.47927415 0.35359967 -0.66569734 -0.5665845

decoder.2.weight f4 [8, 4]
000000 68 01 1a 3d 38 37 a2 3f fc 4f 0f bf 78 32 8d be
       0.037598997 1.2673101 -0.5598142 -0.27577567
000010 2d a9 96 3e ac 53 86 be a5 fe 03 3f fb 4a 97 3e
       0.29425946 -0.26235712 0.5156043 0.29549393
000020 e7 08 9a bf cf 46 cb bc 32 a9 5e be ea 7a b6 be
       -1.2033967 -0.024814038 -0.2174423 -0.3564065
000030 1d 60 13 bd 83 7f 13 3f d0 dc 54 bf 65 fd b7 bf
       -0.035980333 0.5761644 -0.83149433 -1.4374205
000040 95 d4 e0 3d d9 f2 5e 3e ca 72 94 3e c2 9a 48 3e
       0.10978047 0.21772327 0.28993827 0.19590285
000050 b2 7c 6c ba 17 84 22 3f 08 46 22 3f c8 4d 32 3d
       -0.00090212666 0.63482803 0.6338811 0.04353121
000060 96 76 2f bf be 5b 38 bf 7e 01 25 bf fe a2 c1 be
       -0.6854032 -0.7201499 -0.644554 -0.37819666
000070 5b fe 4b be 4c e9 59 3f a7 55 b6 3e 22 99 d6 3d
       -0.19921248 0.8512161 0.35612223 0.104784265

decoder.2.bias f4 [8]
000000 73 a3 95 3e 00 82 e5 be 22 2d c1 3e f0 e1 0f 3f
       0.29226264 -0.44825745 0.37729746 0.5620413
000010 ab 77 cf be 27 70 c2 3d 9c d1 96 3e 3c 0c 97 bd
       -0.40520987 0.094940476 0.29456794 -0.073753804

decoder.4.weight f4 [16, 8]
000000 45 6f 88 be 65 56 49 be 4a 05 4e 3f 2b 3f ef 3e
       -0.26647392 -0.19661863 0.8047682 0.4672788
000010 bb c2 25 bf 1f 7f da be cb 9f d3 3e 78 c1 bb be
       -0.6475026 -0.4267511 0.4133285 -0.36671042
000020 19 34 91 be a7 86 56 3e 34 f5 2f be e8 58 c5 be
       -0.2836006 0.20949803 -0.17183381 -0.38544393
000030 48 41 90 3d 0a 0d 83 bc 40 15 32 be b1 9a a5 bc
       0.070437014 -0.015997428 -0.17390919 -0.020215364
000040 2b 36 b9 3e ff 4f 08 3f 65 c9 cf bd b1 69 a5 be
       0.3617414 0.53247064 -0.10145835 -0.323072
000050 03 d7 ad be b8 8e e7 3d db a7 b2 3d 90 90 0a 3e
       -0.33953103 0.11306518 0.08723422 0.13531709
000060 a8 f4 27 be 9f 68 28 3e 36 44 fa 3c c7 0e 04 bf
       -0.16401923 0.1644616 0.030550104 -0.5158505
000070 51 f4 35 3e cb 81 af 3e c6 6d 5d be cc d4 b6 ba
       0.1776898 0.34278712 -0.21623906 -0.0013948916
000080 75 53 21 3f ba 62 78 bc 4e 0f 8d be fd 0f 71 3e
       0.6301797 -0.015160257 -0.2755074 0.23541255
000090 50 7f d5 3e bf e9 0b 3f 09 10 e7 be 8e af cf 3e
       0.41698694 0.54653543 -0.4512942 0.40563625
0000a0 2d 5a 11 3f c1 ff 1f be ca 9b 1f be aa e5 a8 3e
       0.5677822 -0.15624906 -0.15586773 0.3298772
0000b0 29 da be bd ae 1f 2b 3e a2 de 1c be 0b d0 3e bd
       -0.093189545 0.16711304 -0.15319303 -0.046585124
0000c0 8f 6f 80 be d6 a8 42 3e b1 67 2f be f1 89 b8 be
       -0.25085112 0.19009718 -0.17129399 -0.3604274
0000d0 6f 3d 7c 3d 82 51 da bc 95 01 1a be 48 8c 02 bd
       0.061582025 -0.026650194 -0.15039666 -0.031872064
0000e0 a5 42 2a 3d 5d 89 e3 be ac b6 09 3e 2b 55 21 3f
       0.041567463 -0.44440737 0.1344859 0.6302058
0000f0 8b c5 02 3d 9f 9b 9a be 2f ae 0a be a5 d6 d5 bd
       0.031926673 -0.30196854 -0.13543008 -0.10441331
000100 5d ec 74 3e f0 2f 0f 3f 2d da 7c be 21 4f a5 be
       0.2391829 0.5593252 -0.24692602 -0.32286933
000110 87 9a 81 be 97 00 d6 bd 2c 04 78 3e 82 34 10 3e
       -0.25313208 -0.10449331 0.24220341 0.1408253
000120 dd fa 0b 3e e6 a1 56 3c bf 8c 59 bc e9 e3 db 3d
       0.13669915 0.013100123 -0.013278185 0.1073683
000130 60 37 03 3f 3d 6a e1 3e 87 cc b9 bd 57 7a 2b 3e
       0.5125637 0.44026366 -0.090722136 0.16745888
000140 7d f2 36 bf 4b a9 d3 be e8 fd 46 3f a0 99 1a 3f
       -0.7146376 -0.41340098 0.7773118 0.60390663
000150 81 2f cc bb ab 30 9e be 56 b2 04 3f 4e 74 07 bf
       -0.006231249 -0.30896506 0.5183462 -0.5291184
000160 a6 1e a2 be 9b 88 5d 3e 23 aa 26 be 7f d3 ca be
       -0.31664008 0.21634142 -0.1627584 -0.39614484
000170 7b 83 8f 3d fb c8 b5 bb 43 27 48 be 99 40 a9 bc
       0.070075 -0.0055476404 -0.19546227 -0.020660685
000180 60 ce 9e be 28 9e 60 3e 5b 5a 1f be ac 03 cb be
       -0.31016827 0.21935332 -0.15561812 -0.3965124
000190 81 5c 97 3d bb e3 30 3a fc ec 3b be 29 d2 9e bb
       0.073906906 0.00067478017 -0.18352121 -0.0048468304
0001a0 62 42 b4 bd 65 11 48 3e 46 0a b4 3d 2a 7c 29 be
       -0.08801724 0.19537885 0.08791022 -0.16551271
0001b0 59 4e ac 3e aa bd 31 3f c3 99 0d 3f 1b 9e 40 3e
       0.33653525 0.6943003 0.55312747 0.18810312
0001c0 fe 04 ad be 0f ed b7 be 5c ca 1f 3f 89 7e bc 3e
       -0.3379287 -0.3592305 0.6241815 0.3681529
0001d0 8b 8b b6 3e 42 64 00 be 84 b0 39 3f cc f2 bc bd
       0.35653338 -0.12538245 0.72534966 -0.09225997
0001e0 1f 9a 97 3d a9 0d 6e 3e 6e 71 1e be 06 d4 53 be
       0.07402443 0.23247398 -0.15472957 -0.2068635
0001f0 92 95 75 3d 4e a2 63 bd 93 24 a0 3e c3 41 c2 3e
       0.059957094 -0.055574708 0.31277904 0.37940797

decoder.4.bias f4 [16]
000000 aa 2c a5 3e 9c 3b 2e be 8d c4 58 be 0e 30 7c be
       0.32260638 -0.17014927 -0.21168728 -0.24627706
000010 85 a1 30 3d 93 3f 7a 3e ff 65 1a be 29 4f 7a 3e
       0.043122787 0.24438314 -0.15077971 0.2444426
000020 ae 1e 76 be 3e 25 2a 3d eb 10 94 3e c2 a3 35 be
       -0.24035141 0.041539423 0.28919157 -0.1773825
000030 85 81 3b be 07 7f 5e be 8d 1f 60 3d 4c 96 43 be
       -0.18311127 -0.21728145 0.05471759 -0.19100302

decoder.6.weight f4 [3, 16]
000000 8b 40 8b 3e 79 99 27 bf bd 31 a1 bd 11 1c 11 be
       0.2719768 -0.65468556 -0.07870815 -0.14170863
000010 96 eb 3b 3e a0 6d a5 3e 1d de f9 be d7 4b 8b 3e
       0.18351588 0.323102 -0.4880227 0.272063
000020 41 f4 3a bf ad 8d cf 3d ae 07 af 3e 92 de 39 bf
       -0.7302895 0.101344444 0.34185547 -0.7260524
000030 e0 2e 44 bf 71 99 1d bf 3f 9a ab bd 1c cc 9f be
       -0.76634026 -0.6156226 -0.083790295 -0.3121041
000040 67 c7 6a 3c 8c d0 fb 3e 5a 8c 14 3f ed 0c 00 3f
       0.014329768 0.49182546 0.5802666 0.50019723
000050 14 6b a0 be 13 b7 05 bf 15 6d d2 3e 65 d2 c3 3d
       -0.31331694 -0.52232474 0.41098848 0.09561614
000060 05 3c a8 3e 96 2c ee 3e 61 cb 31 be bb e9 a8 3e
       0.3285829 0.4651839 -0.17362739 0.32990822
000070 0f b0 dc 3e d2 ee a4 3e 8d 12 9d bd 5a 4f fa 3d
       0.43103072 0.32213455 -0.07669554 0.12222166
000080 56 98 3f 3f e7 73 5f be 70 0b 73 be aa 39 f1 be
       0.7484182 -0.21821557 -0.23734832 -0.47114307
000090 62 6d 84 be 35 e0 88 be 82 4f ac be a0 e9 b8 3e
       -0.25864702 -0.26733556 -0.3365441 0.36115742
0000a0 5b 4f 2c be b1 1e 0b be b2 38 30 3f e7 a8 37 be
       -0.16827147 -0.13585927 0.6883651 -0.17935525
0000b0 27 a0 5a 3d fa fe c7 be a0 d6 47 3f 80 5b 93 be
       0.05337539 -0.3906172 0.78061867 -0.28780746

decoder.6.bias f4 [3]
000000 66 a4 03 3f ad c2 5f be ed e1 8c 3e
       0.5142273 -0.21851607 0.27516118
